illustration/paper_data/200Neurons/e2edense_sr300_v0.03/latest_model/b1.npy (npy, 928 bytes, 1 tensors)

array f4 [200]
0	0xbef45862	-0.4772368
1	0x3e8a70a9	0.27039078
2	0xbb206638	-0.002447499
3	0x3d2fc826	0.042915486
4	0xbe870311	-0.26369527
5	0xbdd2906c	-0.102814525
6	0xbea10ea8	-0.31456494
7	0xbd16d73d	-0.03682636
8	0xbf70a1b9	-0.9399677
9	0xbeda5738	-0.42644668
10	0xbf1b9ffb	-0.60790986
11	0xbf8984a7	-1.0743607
12	0xbf3a51a8	-0.7278085
13	0xbe2002fc	-0.15626138
14	0xbec60eb2	-0.38683087
15	0xbf61b5db	-0.88168114
16	0xbe216f43	-0.15765099
17	0xbf36ed3d	-0.71455747
18	0xbd2a4168	-0.041566283
19	0x3d205c89	0.03915075
20	0x3e31806c	0.17334145
21	0xbf315f54	-0.69286084
22	0xbf38b7ca	-0.7215544
23	0xbf23eec0	-0.6403618
24	0x3e8caa1b	0.2747353
25	0xbe5b65d4	-0.21425563
26	0xbef1da08	-0.47236657
27	0xbe0c97d2	-0.1372979
28	0xbed06b3d	-0.40706816
29	0x3ca64639	0.020297157
30	0x3d3e4518	0.04645261
31	0x3da08ffd	0.078399636
32	0xbf1fa8d3	-0.6236698
33	0x3ca57e84	0.020201929
34	0xbf4348e6	-0.7628311
35	0xbee5dbb2	-0.44894177
36	0xbe9d6cbd	-0.30747023
37	0x3e9a3ca6	0.30124396
38	0xbe4b6616	-0.19863161
39	0x3e896e64	0.26842034
40	0xbe7804a3	-0.24220519
41	0xbc96c0c9	-0.018402474
42	0xbf2defdc	-0.6794412
43	0xbf5559a2	-0.83339894
44	0xbd9175fd	-0.071025826
45	0xbea717af	-0.32635257
46	0xbf32f23a	-0.6990086
47	0x3c3d1f4a	0.011543104
48	0xbf3179e0	-0.6932659
49	0x3e191de5	0.1495281
50	0x3de8f159	0.113741584
51	0x3f4f5e3b	0.8100316
52	0xbe34ffa0	-0.17675638
53	0xbf222083	-0.6333086
54	0xbe0f9bf3	-0.14024334
55	0xbd207627	-0.03917518
56	0xbe4ac1ef	-0.19800542
57	0xbf0457c4	-0.5169642
58	0xbd7afd5f	-0.06127679
59	0xbe9db28c	-0.30800283
60	0xbe8dddae	-0.2770819
61	0xbee43358	-0.44570422
62	0xbf034331	-0.512744
63	0xbf0eac06	-0.55731237
64	0xbde2be55	-0.11071459
65	0xbd79d202	-0.060991295
66	0xbd98d27b	-0.07462021
67	0x3e92dbe6	0.28683394
68	0x3981e2e5	0.00024773847
69	0x3dd423c5	0.10358385
70	0x3dcf9b0f	0.10136997
71	0xbe6a29d1	-0.22867514
72	0xbe1fb674	-0.15596944
73	0xbd451332	-0.04811401
74	0xbebf18c1	-0.37323573
75	0xbf0186b3	-0.5059616
76	0xbf69a37b	-0.91265076
77	0xbe7ef80b	-0.24899308
78	0xbe9cd2d8	-0.3062961
79	0xbe816e46	-0.25279444
80	0x3d69422c	0.056947872
81	0xbe0f1d98	-0.13976133
82	0x3e5f5c60	0.21812582
83	0xbf4caa0f	-0.7994699
84	0xbe43b0cf	-0.19110416
85	0xbe98dbb9	-0.29855135
86	0xbe2ad91e	-0.16684386
87	0xbef26b4c	-0.47347486
88	0xbed02e98	-0.40660548
89	0x3da894fd	0.08231542
90	0xbf203311	-0.6257792
91	0x3d39ad9d	0.045331586
92	0xbf5fe864	-0.87463975
93	0xbe5567f5	-0.20840438
94	0xbe36c55b	-0.17848723
95	0xbef1f815	-0.47259584
96	0x3e462fa1	0.19354106
97	0xbe29991b	-0.16562311
98	0xbeeb3420	-0.45938206
99	0xbe0c7f53	-0.13720445
100	0xbeaf85d1	-0.3428178
101	0xbb0aa31e	-0.0021154354
102	0x3c856eba	0.01628815
103	0xbf310043	-0.69141024
104	0x3d64130c	0.055682227
105	0xbd6b8c25	-0.0575067
106	0xbe0da9b8	-0.13834274
107	0xbd4156be	-0.047201864
108	0xbdd8d70c	-0.10587892
109	0xbe8b2e10	-0.2718358
110	0x3e2fc670	0.17165542
111	0xbe5313d9	-0.2061304
112	0xbec6dc30	-0.38839865
113	0xbe8b01a4	-0.2714969
114	0xbe473b68	-0.19456255
115	0x3f0182e7	0.50590366
116	0xbe9ef1b7	-0.3104379
117	0xbe222a7d	-0.1583652
118	0xbe4068ef	-0.18790029
119	0xbf54f691	-0.8318873
120	0x3e433e5b	0.19066755
121	0xbdfc6048	-0.12323052
122	0xbcaf7f67	-0.021423055
123	0xbbc6347f	-0.0060487385
124	0x3dac007b	0.08398529
125	0xbeebe4b5	-0.46072927
126	0xbded33cb	-0.11582144
127	0xbe3034ca	-0.17207637
128	0xbf4c8a1b	-0.7989823
129	0x3eca769e	0.39543623
130	0xbf21cdf2	-0.6320487
131	0x3d5317a0	0.051536202
132	0x3e4d79d4	0.20066005
133	0xb9654852	-0.00021866083
134	0x3f902b09	1.1263133
135	0xbf0a33d5	-0.5398534
136	0xbdce82a7	-0.10083514
137	0xbe109a2d	-0.14121313
138	0xbf1564a1	-0.5835667
139	0x3e0ef53a	0.13960734
140	0xbed954d1	-0.42447522
141	0xbe2bd7d4	-0.1678155
142	0xbe86572e	-0.26238388
143	0xbe8c7d9d	-0.27439585
144	0xbce17f89	-0.027526634
145	0xbe266f96	-0.16253504
146	0xbeaf3050	-0.34216547
147	0xbecc57c3	-0.39910707
148	0xbf09dbb4	-0.53850865
149	0xbf2f9ca3	-0.68598384
150	0xbf62a19d	-0.8852785
151	0x3f0cd049	0.5500532
152	0xbebd7d69	-0.37009743
153	0xbc925586	-0.017863046
154	0xbdbb1cf6	-0.09136383
155	0xbf06079a	-0.5235535
156	0xbf48b32a	-0.7839838
157	0x3db7ce92	0.08974947
158	0xbea3103d	-0.31848326
159	0x3ed250d8	0.41077304
160	0xbe24f9e2	-0.16110948
161	0xbf173445	-0.5906413
162	0xbdcd6fcd	-0.1003109
163	0xbef1cbf8	-0.47225928
164	0xbef8b374	-0.48574412
165	0x3edc8592	0.43070656
166	0xbda9edde	-0.08297323
167	0xbef83e7d	-0.48485175
168	0xbec3ce0d	-0.38243142
169	0x3da9d721	0.08292986
170	0xbe1192b5	-0.1421612
171	0xbea7ea64	-0.32796013
172	0x3edbd321	0.42934516
173	0xbb8be0ad	-0.004268727
174	0xbeb98cfd	-0.36240378
175	0xbd8a5218	-0.067539394
176	0x3e245739	0.16048898
177	0xbd414195	-0.047181685
178	0xbe7e8ad9	-0.24857654
179	0xbe8bd716	-0.27312535
180	0x3dc0a00d	0.09405527
181	0xbed81273	-0.42201576
182	0x3dfcf0c8	0.12350613
183	0xbe639aca	-0.22227016
184	0xbe3391ad	-0.1753604
185	0xbef476b7	-0.47746822
186	0xbf1821b7	-0.59426445
187	0xbedbb57c	-0.429119
188	0x3e5f63b8	0.21815383
189	0xbb959525	-0.0045648986
190	0xbe303b54	-0.17210132
191	0xbebfa35e	-0.37429327
192	0x3dc946eb	0.0982798
193	0xbe5ea940	-0.21744251
194	0xbf6a7185	-0.9157947
195	0xbe7fb02c	-0.24969548
196	0x3dc2695f	0.09492754
197	0xbcc6ceb4	-0.024268486
198	0xbe28c505	-0.16481407
199	0xbdd1a37f	-0.102362625
