illustration/paper_data/500Neurons/e2edense_sr350_v0.11/latest_model/b2.npy (npy, 2128 bytes, 1 tensors)

array f4 [500]
00000000: c49c 95ba 509a 2b3e 08a1 e8bc 24cb 743d
00000010: d454 763d f568 c9bd eeb6 563d 204b 373d
00000020: 1a0b 03bd 057f 673b d0ec 2b3d 5151 ba3d
00000030: 639e 203e 61ae 27be dbef df3c 2860 173d
00000040: 9071 823e fc45 8f3e 31cc 063e d7df 5e3d
00000050: e6e7 e9bd c7ef 1a3e 82df 803d 99a8 8f3d
00000060: ba81 843b 1ab4 89bd 5e88 6e3e b547 733d
00000070: 9f70 93bd 7ba4 363d 5ad9 73bd 184b 433e
00000080: 24eb f1bb 017f 4b3e a13d 2abc 0209 313c
00000090: d2b2 64be ac46 083e 74d5 b73d 494f 063d
000000a0: 3461 79bc b8a0 f63d 5b41 8b3d 41d4 34bd
000000b0: 4ce5 b83d c9f3 1dbc 8797 603b f8d1 0f3e
000000c0: e2d7 b73d 98d3 7d3c b72d 893d e994 2c3e
000000d0: 5094 893d 9831 f53d fde3 c83c fa83 303d
000000e0: d013 a5bc 3788 7cbc 0b8e bf3d 216e 753d
000000f0: 9b9e 573e 5e7d 80bd e954 fcbc 11c3 2a3d
00000100: 306a 35bb df4c 423d 7043 09be e7fd 473e
00000110: f3b8 2a3d ca6f 3d3e 51d3 403e c8a3 ddbc
00000120: 3174 3f3e 358f f13d 616c 85bc dd02 603e
00000130: d668 823d 8cb4 eb3d bd72 7fbd ecdf a33d
00000140: a667 e3bb e5da 463e 0f21 f33d f7c7 9b3d
00000150: 115b 653e 6297 fa3c eb4e 6a3e 9f35 333e
00000160: 7f09 5cbe 48be 46bd 7dce 943d 03e0 f63c
00000170: add4 113e 8459 c6bd fbbd 9a3d 605c edbd
00000180: e0f1 6ebd dd4a 233b 0bfb 833d 3798 3a3e
00000190: fb8a 07bd 9a39 cb3d da18 923d ff62 d63c
000001a0: d139 113c d682 673c f941 1dbe f96f 39be
000001b0: 376b 823d acb3 c43d 405d aa3d f1c1 823d
000001c0: 4616 babd 7dcd 7f3d 374e d03d bf5a b03e
000001d0: f678 713e 9f84 2a3e 5818 adbc 6bd3 5b3e
000001e0: 50c6 e93d 1f7b e7bd 9062 193c 8ec0 813e
000001f0: 8aef 1d3e d3dc 1abc 73cc 623d 5b87 aabd
00000200: 3d25 0c3d dc8c 663b 9304 a73d 58db 10bd
00000210: 4b28 04be 3ad2 0ebd 7644 ec3d c00d 523d
00000220: b188 943e d0d0 ed3d 83c3 31bd e176 2a3e
00000230: fef9 b83d c03b 763d 83c0 153e 1496 643c
00000240: 5b5b fa3d 2b72 df3d aa64 563e 9a02 b23d
00000250: c9c1 39bd 67c5 813c b95e 9bbc 6cf5 f63d
00000260: d307 f0bd c161 b13d ac65 823d 56f5 283d
00000270: 9679 393e 1c9e 753d 8ff2 663d dd55 9f3d
00000280: b51b c83c ee3c a03d 28bd d53d 46bd 943d
00000290: c283 df3c 6510 453e 67f0 193e fea0 993e
000002a0: 3973 c6bd 55bf 063e d7e5 793c a918 323c
000002b0: ad80 533e 3e9e a7bd 2e62 2a3e 8fb0 66bd
000002c0: e5a6 773d df64 813b 3241 373e 8f08 333d
000002d0: bd6c 37be 1e6f 163e 8755 be3d 3199 a73e
000002e0: 0050 2e3d 8550 863e 3a41 18be 427c babc
000002f0: 1123 ed3d f1df 613e b436 bf3d 6b48 5e3e
00000300: c773 bebd 5ce9 4bbd a571 413e bc81 983e
00000310: 55ed a5be a446 993d 875d 153e 4278 1d3e
00000320: 9082 bb3b b302 88bd a685 2fbd 2737 083d
00000330: ed62 c0bd e112 9e3e c6eb f53d 7c41 633e
00000340: fd1b 32bd db76 273d d7ab d3bd 4fd5 c53d
00000350: cb8a ae3c f5fa 9c3d 2bc9 cc3d c813 8e3e
00000360: bf78 343e 5e6d 813e e082 0e3e 57e5 443e
00000370: 72d2 7e3e 84a8 c33d ae72 c1bd 759e 54bd
00000380: 20c3 663e 4576 14be e296 773c 221e 86be
00000390: ea8f f43d 59c5 7d3d 1791 0a3d e338 f1bd
000003a0: 97d7 443b 448a d23d 2270 f53d 0f10 e43d
000003b0: bdfa d13d 186a 6abd c65b 353e bd8c 873e
000003c0: d143 973d 77b9 933d e933 cd3d 71f4 2d3d
000003d0: 844e b83d d8aa 4d3e d584 cfbc 189a a9bc
000003e0: 2d5e e03d 0482 5d3b f311 023e fdf8 c4bd
000003f0: 0f9e 333e 4007 6d3e c77f 1d3e 60b8 3e3e
-0.0011414518 0.16758084 -0.028397098 0.059764042 0.060139492 -0.09834472 0.05242055 0.04474938
-0.03199301 0.0035323512 0.04197389 0.09097541 0.1568542 -0.16375114 0.027336052 0.036956936
0.25477266 0.2798308 0.1316383 0.05441269 -0.11421184 0.1513053 0.06292631 0.07014579
0.004043785 -0.06723805 0.23294207 0.059394557 -0.07199215 0.044590455 -0.059533454 0.19071615
-0.0073827673 0.19872667 -0.01039067 0.01080537 -0.2233384 0.13308209 0.0897626 0.032790456
-0.015220929 0.120423734 0.06799575 -0.044147734 0.0902811 -0.009640642 0.0034270005 0.1404494
0.08976723 0.015492342 0.066981725 0.1685368 0.067177415 0.1197235 0.024522776 0.043094613
-0.020151049 -0.0154133355 0.093532644 0.05991948 0.21056597 -0.06273912 -0.030802207 0.041689936
-0.00276817 0.04743659 -0.13404632 0.1953045 0.041680288 0.18499675 0.18830611 -0.027055636
0.18696667 0.11794893 -0.01628703 0.21876092 0.06367652 0.11509046 -0.062365282 0.08001694
-0.006939846 0.19419439 0.1187154 0.076065 0.2239802 0.030589763 0.22881667 0.17500924
-0.21487997 -0.04852131 0.07265947 0.030136114 0.14241286 -0.096850425 0.07555767 -0.11589885
-0.05833614 0.0024916448 0.06444367 0.18222128 -0.033091526 0.09923096 0.07133646 0.026170252
0.008863882 0.014130315 -0.15357198 -0.1810912 0.06368106 0.09604582 0.08318567 0.06384648
-0.090862796 0.06245183 0.10171168 0.34444234 0.23581299 0.16652153 -0.021129772 0.21467368
0.11414778 -0.1130278 0.009361878 0.2534222 0.15423408 -0.009452063 0.05537076 -0.08326598
0.0342152 0.0035179174 0.08155169 -0.035365433 -0.12905996 -0.034868456 0.115364954 0.051282644
0.29010537 0.116120934 -0.043399345 0.16646911 0.09032057 0.060115576 0.14624219 0.013951797
0.12224456 0.10910448 0.20936838 0.086919025 -0.045350824 0.0158412 -0.018966066 0.12058529
-0.11720242 0.08661223 0.063670486 0.041249596 0.18112788 0.059965238 0.056383666 0.07780049
0.024427274 0.078241214 0.10436469 0.072626635 0.027284507 0.19244535 0.15033112 0.3000564
-0.09689946 0.13158925 0.015252552 0.010870137 0.20654555 -0.08184479 0.16639015 -0.056320723
0.060461897 0.0039487923 0.17895964 0.043709334 -0.17912574 0.14690825 0.09293657 0.32734063
0.042556763 0.26233307 -0.14868632 -0.022764329 0.11578954 0.22058083 0.09336606 0.21707313
-0.092994265 -0.049783096 0.18891008 0.2978648 -0.32407632 0.07484177 0.14586459 0.15377906
0.0057223514 -0.0664114 -0.042852066 0.033255722 -0.093938686 0.30873778 0.12007861 0.22192949
-0.043483723 0.040884834 -0.1033551 0.09659826 0.021306416 0.07665054 0.09999307 0.27749467
0.17624186 0.25278753 0.13917112 0.19228111 0.24884966 0.09553626 -0.094457015 -0.05190893
0.22535372 -0.14498241 0.015111657 -0.26194865 0.11941512 0.061955784 0.033829775 -0.117784284
0.0030035728 0.10280278 0.11984278 0.111358754 0.10252903 -0.057230085 0.1771079 0.26474562
0.07385982 0.07213109 0.10019667 0.042469446 0.08999351 0.20084703 -0.025331894 -0.02070336
0.109554626 0.003379942 0.1270216 -0.09617803 0.17540763 0.23147297 0.15380774 0.18625021
