illustration/paper_data/200Neurons/old_run/e2edense_sr200_v0.05/latest_model/b0.npy (npy, 928 bytes, 1 tensors)

array f4 [200]
-0.14296032 0.05278233 -0.088896185 0.45979592 -0.16638914 -0.35217944 -0.19141713 -0.27467325
0.14253697 0.033717904 -0.28516078 -0.3435981 -0.47966057 -0.010097177 0.14652036 -0.44838214
0.0115466 -0.10116284 0.09051028 -0.066017546 -0.2317557 -0.2323846 -0.21756618 -0.23449042
-0.19319054 -0.0148331905 -0.51758546 -0.3903731 -0.15880188 0.005612274 -0.15345746 0.01607848
0.06585482 -0.3467437 0.12827338 -0.30486867 -0.22305016 0.020032212 -0.19075581 -0.13294192
-0.07231248 -0.03229806 -0.16703376 -0.14645258 -0.2252964 0.18254723 0.07098321 -0.29971552
-0.64022356 -0.09971102 0.23953806 -0.26932293 0.16279218 -0.24669723 0.10555936 -0.13978791
-0.31038004 -0.26816884 -0.33716366 -0.13749638 0.019920439 -0.2803443 -0.15513472 0.27909812
-0.19115318 -0.37022752 -0.23910595 0.1310773 -0.09931153 -0.24737129 0.22771634 -0.1296425
0.28585008 -0.36371055 -0.094862424 -0.012511387 0.3438747 -0.05402446 -0.22340052 -0.1340389
0.29304385 -0.18476197 -0.2180063 -0.052979108 -0.48900226 0.14078297 0.026702642 -0.639163
-0.17092197 -0.29548183 -0.1320651 -0.09403706 -0.39154378 -0.35388348 0.09550193 -0.05447908
-0.40581077 -0.45070657 -0.3776413 -0.22693263 -0.16745889 -0.13779676 -0.2788689 -0.38016617
-0.5586301 -0.1189134 0.1867011 -0.063168466 -0.34864545 -0.17370136 -0.52049494 -0.18828663
0.3194863 0.011923429 0.12397887 -0.07604935 -0.2517524 -0.09676625 0.11055502 -0.2264862
0.046806686 0.09299517 -0.47549832 -0.34148157 0.020308176 -0.07560325 -0.21541473 -0.10073905
-0.11728424 -0.33749408 -0.23660414 -0.51229006 -0.08468844 -0.16273056 0.09872686 -0.29733893
-0.16990325 -0.47015995 -0.21737151 -0.41314593 0.2106238 -0.1480102 -0.38916466 -0.038686153
-0.08639836 -0.15610611 -0.027031735 -0.0332635 -0.16473238 -0.11780579 -0.34785265 -0.22579427
0.07869629 0.32073778 0.15491849 -0.11071668 0.21029587 0.20672329 -0.18530409 -0.1947376
0.12973994 -0.191857 -0.2539986 -0.32649022 -0.26000264 -0.20558178 0.14301799 0.08867272
-0.37316865 0.069778815 -0.07544823 -0.011546149 -0.15098664 -0.037517488 -0.25759932 -0.11160185
-0.030042902 0.21200106 -0.22567773 -0.08316601 -0.07773361 -0.034373626 0.12984513 -0.08245585
-0.18955047 -0.22896619 -0.22779503 0.13557017 -0.06579875 0.14542338 -0.113558546 -0.11283199
0.17640276 -0.22487922 0.2622208 0.093149 -0.2917713 -0.30189312 -0.44133055 -0.21886793
00000000: 3164 12be 4932 583d 340f b6bd 5f6a eb3e
00000010: ea61 2abe dd50 b4be da02 44be f9a1 8cbe
00000020: 36f5 113e c91b 0a3d 9800 92be 17ec afbe
00000030: 1296 f5be a16e 25bc 6f09 163e 5892 e5be
00000040: f32d 3d3c 772e cfbd 745d b93d 3534 87bd
00000050: 5e51 6dbe 3bf6 6dbe abc9 5ebe 421e 70be
00000060: bed3 45be e906 73bc 7b80 04bf fcde c7be
00000070: f69c 22be 2be7 b73b f423 1dbe 04b7 833c
00000080: e4de 863d 6488 b1be 195a 033e bf17 9cbe
00000090: 4367 64be 981a a43c 7e55 43be ed21 08be
000000a0: 9118 94bd f84a 04bd e60a 2bbe aaf7 15be
000000b0: 19b4 66be a9ed 3a3e a55f 913d 5074 99be
000000c0: b1e5 23bf 4b35 ccbd 7749 753e b2e4 89be
000000d0: feb2 263e 339e 7cbe 812f d83d 9024 0fbe
000000e0: 22ea 9ebe 6d4d 89be b7a0 acbe dacb 0cbe
000000f0: 3030 a33c 4a89 8fbe a3db 1ebe f3e5 8e3e
00000100: a9bd 43be 768e bdbe 31d8 74be 2139 063e
00000110: d863 cbbd e64e 7dbe 792e 693e 01c1 04be
00000120: f15a 923e 4538 babe 3b47 c2bd 8ffc 4cbc
00000130: 5810 b03e c148 5dbd 1bc3 64be 7e41 09be
00000140: d809 963e 3e32 3dbe 0b3d 5fbe 9f00 59bd
00000150: 815e fabe 6929 103e 80bf da3c 30a0 23bf
00000160: 2b06 2fbe 6549 97be 133c 07be 8196 c0bd
00000170: 6d78 c8be 3730 b5be 8496 c33d 7525 5fbd
00000180: 6ec6 cfbe 03c3 e6be 335a c1be 0761 68be
00000190: 587a 2bbe 981a 0dbe e8c7 8ebe 24a5 c2be
000001a0: 6202 0fbf de88 f3bd 932e 3f3e 785e 81bd
000001b0: a881 b2be c5de 31be 283f 05bf 36ce 40be
000001c0: b593 a33e 7c5a 433c a2e8 fd3d c3bf 9bbd
000001d0: b1e5 80be 622d c6bd ac6a e23d 00ec 67be
000001e0: 5eb8 3f3d 4074 be3d 8474 f3be acd6 aebe
000001f0: 555d a63c e0d5 9abd ae95 5cbe 4650 cebd
00000200: b832 f0bd 06cc acbe 5b48 72be 7125 03bf
00000210: 2271 adbd d7a2 26be 4f31 ca3d cf3c 98be
00000220: 1efb 2dbe ceb8 f0be a396 5ebe dd87 d3be
00000230: c4ad 573e fc8f 17be 9740 c7be 5f75 1ebd
00000240: a0f1 b0bd 48da 1fbe a871 ddbc 4f3f 08bd
00000250: 9baf 28be 2944 f1bd be19 b2be 9d36 67be
00000260: 852b a13d be37 a43e f4a2 1e3e 6dbf e2bd
00000270: cd57 573e 45af 533e 5bc0 3dbe 4b69 47be
00000280: 8cda 043e 2976 44be 1b0c 82be ba29 a7be
00000290: 111f 85be 0884 52be 4f73 123e 0b9a b53d
000002a0: f60f bfbe 32e8 8e3d 9a84 9abd 0f2c 3dbc
000002b0: 3e9c 1abe f0ab 19bd 0fe4 83be 838f e4bd
000002c0: 881c f6bc ce16 593e 1018 67be f152 aabd
000002d0: cd32 9fbd 5ccb 0cbd 1ff6 043e 9dde a8bd
000002e0: 8519 42be 1d76 6abe 1a43 69be e8d2 0a3e
000002f0: 7fc1 86bd dee9 143e 6291 e8bd 7514 e7bd
00000300: eda2 343e bd46 66be ce41 863e e7c4 be3d
00000310: 0c63 95be bc91 9abe 14f6 e1be ea1e 60be
