illustration/paper_data/timings/timing/e2edense_sr20_v0.07/latest_model/b2.npy (npy, 928 bytes, 1 tensors)

array f4 [200]
000000 6d 2f ed bd a9 9c 05 3c d1 3e 19 3d ae 9a 93 3d
       -0.115813114 0.0081550265 0.037413422 0.07207237
000010 3a b1 d1 bc 5a 95 dc 3d e3 88 7d bc 23 7b ca bc
       -0.025597204 0.10770674 -0.015474531 -0.02471692
000020 a8 1a c0 bb f7 1e b5 bd b9 8c 44 bc 10 6c aa bd
       -0.0058625527 -0.08843797 -0.0119964415 -0.083213925
000030 60 bc c7 bd 15 2d cb 3d 61 dc c8 3d 64 c0 9f 3d
       -0.097527266 0.09920708 0.09807659 0.078003675
000040 26 f8 88 bd 5e e5 85 3d 1b bc ee 3d e5 b7 87 3d
       -0.066879556 0.06537889 0.11656972 0.06626872
000050 2f 6a 95 3d b6 4f bd bd 8e 9a 8f bd 49 86 7f 3e
       0.072956435 -0.09243719 -0.07011901 0.2495357
000060 50 f0 79 bc 91 6b bb 3c 34 a9 1f 3e 29 12 26 3e
       -0.015255049 0.02287844 0.1559189 0.16217865
000070 46 67 57 bc cf c5 c3 bd 6a 04 7c bd 58 c8 1f bc
       -0.013147181 -0.09559213 -0.061527647 -0.0097523555
000080 b2 42 c1 bd 7a c6 4b 3e 91 2b d1 3c c7 99 d5 3c
       -0.09436549 0.19899932 0.02553347 0.026074303
000090 f4 d2 ed 3d 02 64 56 bd 5a b8 14 bd 21 1e e2 3d
       0.11612502 -0.05234147 -0.036308624 0.11040903
0000a0 c1 59 38 3e 46 e2 0d 3d ed 77 ef 3c 87 9a 6e 3e
       0.18002988 0.03463962 0.02923199 0.23301135
0000b0 bd bb 82 3c 31 01 82 3e e7 86 31 3e 1a 44 4a bc
       0.015958661 0.25391534 0.17336617 -0.012345338
0000c0 91 df a4 bc 6f 44 9f bc df ca 92 bd 02 dc 38 bd
       -0.020126136 -0.019441811 -0.07167601 -0.04513169
0000d0 ff 3a b6 bd a1 b3 54 bd a3 b2 d9 bd 83 74 ef bd
       -0.08897971 -0.05192912 -0.106297754 -0.11692145
0000e0 34 87 b5 bd b4 57 88 3e 97 19 af 3c f5 76 3e 3d
       -0.088636786 0.26629412 0.021374507 0.046500165
0000f0 ea 33 c3 3c 5f 89 de bc 36 c2 b0 3d a5 e0 16 3e
       0.023828465 -0.027165113 0.08630793 0.14734133
000100 2d 6c 5b bc 11 6a d6 3d 18 b7 cb bc 00 45 85 bd
       -0.01339249 0.10469449 -0.02486758 -0.06507301
000110 4c c2 23 bd d6 88 ab 3d 4f fe 23 3c 8b a1 85 3d
       -0.039980218 0.08375709 0.010009362 0.065249525
000120 2a 14 f2 bb 02 6b c3 3d 5d 95 67 3e eb ca 37 bd
       -0.0073876576 0.095418945 0.22615571 -0.044871252
000130 ef 20 a2 3e 37 ba ba bd c9 52 42 3d 1c 4d cd bd
       0.3166575 -0.09117549 0.04744223 -0.10024473
000140 ea 72 42 3d e7 09 98 3d a3 a3 50 3d 25 e4 eb 3c
       0.04747287 0.07423764 0.050937306 0.028795311
000150 ea 19 69 bc f1 24 d5 3d c9 15 96 bd 16 1b 8e 3c
       -0.01422737 0.10407437 -0.07328374 0.0173469
000160 af 7a 14 3e 31 84 6c 3c a5 0c 8a 3d 32 db 66 bd
       0.14499925 0.014435814 0.06740693 -0.056361385
000170 a5 42 1f be 70 00 9c bd 00 0a a7 3d 78 3f 1f 3e
       -0.15552767 -0.07617271 0.08156204 0.15551555
000180 4d 76 22 3e 8d f1 96 bd be 49 97 3d 3a f3 8a bd
       0.1586544 -0.07370291 0.07387112 -0.06784673
000190 ef 80 7b 3d d5 4c 18 3b 36 46 a6 3d cc 29 69 3d
       0.061402258 0.0023239155 0.081188604 0.056924626
0001a0 a8 1d 6d 3d 7a 09 f2 3d bf 7c c1 3b dd 7d c6 3d
       0.05788961 0.11818214 0.0059047635 0.09691975
0001b0 42 bd 57 bd 5c 4e dd 3b 60 af 42 3d fc 58 02 3e
       -0.052670725 0.006753726 0.047530532 0.12729257
0001c0 38 82 d5 bd d1 2b 1d 3d 53 02 8f 3c 27 d4 a7 bb
       -0.10425228 0.038371865 0.017457163 -0.005121726
0001d0 8c 17 eb 3c e6 5b b7 3c ff 2b 47 bd 4e 98 f3 3d
       0.028697751 0.022382688 -0.048625942 0.11894284
0001e0 09 69 27 bd fa e5 90 3d 2e c0 82 3e e1 3e d1 bc
       -0.040871654 0.070751145 0.25537246 -0.025542678
0001f0 1d 0d 03 3e 3c ae 4e 3e 30 9f 2e bd dc 3e 90 3c
       0.12797971 0.20183653 -0.04263228 0.017608099
000200 c7 06 b1 3c 61 64 6f 3e fa 9a 99 bd a5 b4 ba 39
       0.021609677 0.23378135 -0.075002626 0.00035611275
000210 0d ff c5 bc cd c2 a6 3c f7 f9 d2 3c 1e b3 3e bd
       -0.02416947 0.02035656 0.025753958 -0.04655754
000220 31 0a 80 3d 08 d8 7d 3d 40 ca 0d 3e 81 50 25 bd
       0.06251944 0.0619736 0.13846684 -0.040359978
000230 fc c5 84 3d 82 a4 84 3a c9 cd c5 bd 99 07 6a bc
       0.06483075 0.0010119828 -0.09658391 -0.014284038
000240 a1 9c 19 bb 04 37 88 3e 73 76 c7 ba 6e 30 a9 bd
       -0.0023439305 0.26604474 -0.0015217796 -0.0826119
000250 b5 a1 b7 3d 3c bb 26 3e ec ae fe 3d 0d d8 41 3e
       0.0896639 0.16282362 0.124357074 0.18930073
000260 6e 7d 23 3e 54 0e 7d 3d 6e ff 06 3e 8f 68 df 3b
       0.15965816 0.061781242 0.13183376 0.0068178843
000270 f4 02 a9 3c 6e bb 9e bd e5 98 59 bc 87 98 23 3e
       0.020631291 -0.07750593 -0.013281082 0.15976153
000280 18 d8 bd 3c 1c 7e 3e 3d 52 59 b4 b9 40 b7 2f bd
       0.02317433 0.046506986 -0.00034398824 -0.04289937
000290 53 67 48 3d 95 ef ac 3e 02 83 26 3d dc df fd bc
       0.048926663 0.33776537 0.040652283 -0.030990534
0002a0 7b 92 1d 3e 60 ca c1 3d 35 c1 9f 3d 0e 5e 34 3d
       0.15387909 0.09462428 0.07800523 0.04403501
0002b0 e3 c0 3d bd 12 64 5a 3e 2b 1a 3c bd a3 88 b3 3b
       -0.04632653 0.21327236 -0.045923393 0.005478935
0002c0 9a 54 80 bd f7 4b 10 bc 45 4d 90 3c 2f 51 2e bd
       -0.062661365 -0.008807174 0.01761497 -0.04255789
0002d0 a8 10 61 3e 31 cb 15 3e 6d ad 1a be de db 78 3b
       0.2197901 0.14628293 -0.15105219 0.0037972848
0002e0 dc 81 c3 3d b7 2d 08 3e 5a 2d 11 3e 3e 0b dd 3d
       0.09546253 0.13298689 0.14177456 0.1079316
0002f0 63 36 c5 bd 86 a7 35 3e 73 1f a7 3d 8d 9a cd 3d
       -0.09629514 0.17739686 0.08160295 0.10039244
000300 02 b1 af 3d db 39 5b 3e 07 fb 81 3d 65 e8 21 3e
       0.085786834 0.21408789 0.06346708 0.15811308
000310 0b aa 05 3e e5 be 61 3d 34 10 4b bd 03 56 03 3e
       0.13053147 0.05511369 -0.049576 0.1282578
