illustration/paper_data/784Neurons/e2edense_sr350_v0.11/best_model/b3.npy (npy, 3264 bytes, 1 tensors)

array f4 [784]
000000 d5 8e 10 3e 97 ab c8 3d 19 e5 ff 3c 14 b5 5a 3e
       0.14116986 0.09798353 0.031237172 0.21358138
000010 40 c8 11 bc 2d 4f 0f 3e 91 3d 69 3d 98 de e8 3c
       -0.008897841 0.13995047 0.05694348 0.028426453
000020 0a e3 2f 3c b5 a7 ad 3d 58 d2 11 bb 02 14 03 3e
       0.010735283 0.08479253 -0.0022250619 0.12800601
000030 54 09 0f be 5e da c5 3b bd a4 2c bc 09 22 41 3c
       -0.13968402 0.0060379943 -0.010537324 0.0117879
000040 fe 8b 1e 3d 2d b8 0e 3e 6b 76 bb 3d fe 56 c4 bd
       0.038707726 0.13937445 0.09153446 -0.09586905
000050 e6 03 22 3e 5c 08 47 3d 63 65 0b 3e c9 03 4f 3c
       0.158218 0.048591956 0.13612895 0.01263518
000060 11 2c 8f 3d 88 c4 a5 3d 07 97 11 3e a8 bb f3 bd
       0.06990827 0.08094126 0.14217769 -0.11901027
000070 8c 0f d0 3d 8f 4c 96 bd 12 af 84 3d f6 0d 4b 3d
       0.10159215 -0.07338821 0.064787045 0.04957386
000080 9f 84 13 bd a8 4b 02 3e d5 68 8a 3d 60 f7 03 3d
       -0.03601515 0.12724173 0.067582764 0.032218337
000090 1a 09 8e 3d de 18 a9 bd 76 04 d6 b9 ef 03 85 3c
       0.0693533 -0.08256696 -0.00040820584 0.016237227
0000a0 a4 35 af 3d a9 4c 1e 3e f3 07 bd bb dd aa dd bd
       0.08555153 0.15458931 -0.00576877 -0.10823605
0000b0 9a df 95 3d ac 2a dd 3d 7b 5b fc 3b 20 30 b9 3d
       0.07318039 0.10799155 0.007701335 0.09042382
0000c0 45 b8 88 3b 18 39 3b 3e 84 4b 51 3d 65 62 a1 3d
       0.0041723573 0.18283498 0.051097408 0.078800954
0000d0 56 e6 16 3e f4 b0 dd 3d 1e 1f c4 3d 49 e5 93 bd
       0.14736304 0.10824767 0.09576248 -0.07221467
0000e0 39 c4 05 bd 62 a6 b4 bc d2 a6 07 bd 9e 73 f6 3d
       -0.032657836 -0.022051994 -0.033118077 0.12033771
0000f0 bd 8e f7 3d b8 36 2f 3e 65 bd af bc 2e dd 73 3d
       0.12087772 0.17110717 -0.021452615 0.059537105
000100 8a ab 80 bc ad 85 33 3d 83 f3 13 bd bb 72 77 3d
       -0.015706796 0.043828655 -0.036120903 0.06041215
000110 f3 fb 18 3c 29 4c 20 3e 43 1d bf bc 9f 0d 9f 3d
       0.009337413 0.15654053 -0.023329383 0.0776627
000120 68 cd ea 3d b2 26 05 3d d0 9a 1c bc 34 17 dd 3d
       0.114649594 0.032507606 -0.009558395 0.10795441
000130 26 dd ed 3d 32 75 85 bd f4 c9 14 bc 0c 72 30 3d
       0.11614446 -0.06516494 -0.0090813525 0.043077514
000140 f7 b6 01 3d 5a 99 b6 3d ff af 20 3d 83 c8 5b bd
       0.03166863 0.08915968 0.039230343 -0.05365802
000150 43 5d 30 3e df 0b 4a 3e 41 57 cb 3d 2b 9a 0f be
       0.17223077 0.19731091 0.09928752 -0.14023654
000160 55 73 47 bd 0d 78 26 3e 1d 09 2c 3d 63 c0 65 bd
       -0.048693974 0.16256733 0.04200088 -0.056091677
000170 68 db ff 3d 40 c9 e0 3d 82 9c 88 bd ce 63 82 3d
       0.1249302 0.109758854 -0.066704765 0.063666925
000180 6c 2e 16 3e a8 c6 af bc 98 2e 57 3e 71 50 9f 3d
       0.14666146 -0.021457031 0.21013868 0.07779015
000190 b2 89 8c bc cc 5b db 3d 6a 1e 9e bc 8b 38 e8 3d
       -0.017155502 0.10710868 -0.019301612 0.1133891
0001a0 f9 3c bb 3c 95 31 d8 bb 7d 6f 49 bd 5f 1b 7c bd
       0.022856222 -0.0065977075 -0.04917859 -0.06154954
0001b0 ac db 23 bd f9 3f 62 bd 3e a2 f4 3d e9 48 76 bd
       -0.040004417 -0.05523679 0.11945008 -0.060128126
0001c0 08 82 61 bd 75 47 5d 3d b0 ca f4 3d ef 4b 0a bd
       -0.055055648 0.054023225 0.11952722 -0.033763822
0001d0 ac be 05 bc be ff 0d bd 6a c2 d8 3b 04 ca 8f 3d
       -0.0081631355 -0.034667723 0.006614973 0.07020953
0001e0 1a 59 d9 3d 26 d9 35 3d 2a 51 7f 3d 9c ae 1a 3d
       0.10612698 0.044396542 0.062333263 0.037764177
0001f0 2b 4f 37 3e c4 99 15 3d 52 7a 30 3e 76 f5 09 3e
       0.17901294 0.036523595 0.17234161 0.13472542
000200 d1 9e 4a 3c 2f a6 94 3d 56 47 13 3e 42 20 e1 bb
       0.012366966 0.072582595 0.14382681 -0.0068703005
000210 16 65 cf bb 7c 7c 1b bd 64 6a da bd aa 61 67 3e
       -0.006329189 -0.037960514 -0.10664824 0.2259585
000220 26 78 d2 bb 8c 8d 0a bd 21 1e c0 3d d5 68 90 3d
       -0.006423014 -0.033826396 0.09380747 0.07051245
000230 af 37 a7 bd d2 a4 58 3e 67 74 5f bd a6 ac 9e 3d
       -0.08164918 0.21156624 -0.05455437 0.07747774
000240 2e b6 22 3e db 1e 87 3d 31 a1 5d 3c 86 2b 6d 3c
       0.15889809 0.06597682 0.013527201 0.014475709
000250 e8 74 25 3e 77 ba 31 bd 3c 9e a9 bd f0 25 c3 bd
       0.16157877 -0.043390717 -0.08282134 -0.095287204
000260 ce db a6 3d b5 cb f4 bd 9f dc de bd 77 a0 c1 bb
       0.08147393 -0.119529165 -0.10881924 -0.0059090215
000270 0d 2c 8e 3b 4a 5e 35 3d fc 4c ba 3b 48 bb 2f be
       0.0043387474 0.044279374 0.005685447 -0.17161286
000280 68 3f 36 3d 89 29 fb bd 10 00 9f 3d cb 03 c6 3c
       0.044494063 -0.122637816 0.07763684 0.02417173
000290 10 2d 3a 3d be 07 9f 3d 86 9b b6 3d 68 24 a8 bc
       0.04545313 0.077651486 0.089163825 -0.020525172
0002a0 5d 02 95 3d 9c bb fa 3d 7c 3c f3 bc 23 2f d0 3d
       0.072758414 0.12242815 -0.029691927 0.101652406
0002b0 f7 11 d6 3d f0 42 e4 3d 98 aa 79 3c 9b 29 03 3d
       0.10452645 0.1114558 0.015238427 0.0320221
0002c0 62 f7 7c 3d 67 f7 2f 3e 13 ca c3 bc 9e 9c 64 3d
       0.06175936 0.1718422 -0.023900067 0.055813424
0002d0 3d cd c0 3c e5 61 13 3e 40 2a 37 bc 7f 0a 86 3d
       0.023535365 0.14392813 -0.011179507 0.06544971
0002e0 5e 5c c3 3c 9c 9d 3e bd 40 3d 25 3e 4e 31 35 3c
       0.023847755 -0.046537027 0.16136646 0.011059118
0002f0 14 77 f0 3c 46 fc db 3d a9 88 de bc 31 ff ed bd
       0.029353656 0.10741477 -0.027164774 -0.116209395
000300 96 8c b2 bc c5 dc a8 bc f5 48 5a 3d bf 6e 80 bd
       -0.021795552 -0.020613084 0.053292233 -0.06271123
000310 08 46 03 3e 7a cd 25 3e c0 bc 9d ba ef 09 81 3e
       0.12819684 0.16191664 -0.0012034401 0.2520289
000320 52 71 79 3d 54 65 59 bd bc 52 87 bc 08 96 24 3a
       0.060899086 -0.05307515 -0.016518943 0.000627846
000330 30 22 9c bd 31 cf c4 3d a5 8c 26 bd 2e 67 29 3e
       -0.07623708 0.09609831 -0.040661473 0.16543266
000340 94 79 0d 3d bb 0c 17 3d 2a b3 1c 3d 8d fe 05 3e
       0.034539774 0.036877375 0.0382568 0.13085385
000350 62 08 e3 bc 74 cd 86 3d 80 e9 26 3d 15 72 31 3e
       -0.027713958 0.06582156 0.040750027 0.17328675
000360 30 cd 5d 3c 8b ed bc 3c a5 0b c8 bb bf 15 3b 3e
       0.01353769 0.023062488 -0.0061049038 0.18270014
000370 6a 9c 64 bd 03 94 4c bc a4 5a 0b 3c fe 81 be 3d
       -0.05581323 -0.012486461 0.008505497 0.09302138
000380 59 b8 0e 3e fb 76 eb 3d 6c 44 4a 3d f0 ec 94 3d
       0.1393751 0.11497303 0.04938166 0.07271755
000390 11 34 0f 3d 6b 8d f0 3d 94 b4 db bb ae b6 16 3e
       0.034961764 0.11745723 -0.006704876 0.14718124
0003a0 23 49 2d bd 88 b2 b7 3d b5 ed fb bc e7 a6 9b 3d
       -0.042306077 0.08969599 -0.030752996 0.076001935
0003b0 73 93 3c bc 95 d5 5a bd 89 eb 86 3e 4e a3 c7 3c
       -0.011509764 -0.053426344 0.26351574 0.024369862
0003c0 5f c0 c9 3c a2 c8 b7 3d fa 2f 95 3d 87 90 f6 3d
       0.024627862 0.089738145 0.072845414 0.12039285
0003d0 5c 02 7d bd d3 e1 ae 3d ef e6 b7 3d ef 34 20 3d
       -0.06176983 0.08539166 0.08979594 0.03911298
0003e0 d1 85 9b bc 9a b8 2f 3e 91 fd 04 3e e0 c9 4b 3d
       -0.018984707 0.17160264 0.12987353 0.04975307
0003f0 56 b6 72 3d 3e ca fe 3d 21 18 13 3e 7b 15 27 3e
       0.05925592 0.124409184 0.14364673 0.16316788
