illustration/paper_data/500Neurons/e2edense_sr350_v0.17/latest_model/b3.npy (npy, 2128 bytes, 1 tensors)

array f4 [500]
000000 ce 2e ed 3e a1 ab cf bd 62 2c 57 bd 2a 9f e6 3e
       0.46324772 -0.101401575 -0.05253256 0.45043308
000010 46 c0 65 3c d3 da a2 bd 63 44 21 3f 13 51 80 be
       0.014022892 -0.07951894 0.62994975 -0.25061855
000020 31 d4 42 3e c7 f0 13 be 09 e9 5d 3e 60 a9 ea 3e
       0.19026257 -0.14447318 0.21670927 0.45832348
000030 22 71 e3 bc 64 7c 02 3f 54 4a 8a 3d d9 04 58 3e
       -0.027763907 0.50971055 0.06752458 0.21095599
000040 98 e0 49 3e a8 d6 8d bd ad 73 a7 3e 7e 80 b6 3e
       0.19714582 -0.06925708 0.3270544 0.35644907
000050 13 dd 00 3f f6 5a 80 3e 4f 04 17 3e d9 bc f0 3d
       0.5033733 0.25069398 0.14747737 0.1175477
000060 c8 86 2b 3e 30 7c d5 3e e9 cc 09 bc 02 7c 09 3e
       0.16750634 0.4169631 -0.008410671 0.13426211
000070 2c 78 31 bd ea 39 5b 3d 5c e4 ac 3d 07 54 14 3e
       -0.043327495 0.053522028 0.084419936 0.14485179
000080 1c 12 09 3f 44 3d 9e 3e 85 40 3b 3e a8 8e 48 3d
       0.5354326 0.30906117 0.18286331 0.048964173
000090 8c cf 6a 3e 3f 88 f9 3e 62 04 d0 3e 83 4e 0b be
       0.22930735 0.4873676 0.40628344 -0.13604169
0000a0 40 af cd bd d8 79 2a 3e 42 db 80 bd 17 fd 42 be
       -0.10043192 0.16648042 -0.0629182 -0.19041859
0000b0 8d 63 3e bc 3e 25 80 3e 68 28 5a 3e 1f 70 a1 3e
       -0.011620414 0.25028414 0.21304476 0.31530854
0000c0 c2 f3 e6 3e 89 51 b7 3e f7 e0 09 3f 31 81 57 3e
       0.45107847 0.35804394 0.53858894 0.21045376
0000d0 36 92 94 3d f5 c2 db 3e b5 03 89 3d 4c bd aa 3e
       0.0725445 0.42922178 0.0669016 0.33347547
0000e0 15 57 72 3e 79 49 45 3d e0 68 57 bd f3 27 0f 3e
       0.23666032 0.048165772 -0.05259025 0.13980083
0000f0 0c 3d 49 bc 7c cc 81 bd 7e 75 ae 3e 7b 74 8a bd
       -0.012282621 -0.063378304 0.34074014 -0.06760498
000100 e8 b2 fc 3e 0e df aa 3e 41 15 03 be 58 44 0a be
       0.49355245 0.33373302 -0.12801076 -0.13502634
000110 b6 f8 0c 3f c0 62 e4 3c 0d 27 a5 3e c5 47 93 bd
       0.55067 0.027879119 0.32256356 -0.07191423
000120 1d 60 a2 3e a1 c7 62 3e 93 36 de 3e 9d c2 7b bd
       0.31713954 0.22146465 0.43401012 -0.061464895
000130 5f 85 ec 3e 03 f3 2f bd 3e ad 30 3d 22 5c 82 3d
       0.46195504 -0.042956363 0.043133967 0.06365229
000140 13 83 12 3f 56 cb 17 3e 5b cd 15 3e 20 9a b6 3e
       0.57231253 0.1482366 0.14629118 0.35664463
000150 8f cd ec 3e 59 50 3f 3e db dd 2a 3d 2b da 56 3e
       0.4625058 0.18682994 0.041715484 0.20981662
000160 9b fd 43 3e fd 85 e6 3e a5 60 92 3e 91 34 12 bd
       0.19139712 0.450241 0.2858936 -0.035694662
000170 38 9e f5 bc 87 41 d3 3d 71 31 27 bd 88 a3 d7 bd
       -0.029982671 0.10315233 -0.040818635 -0.10529238
000180 dd 79 bf 3e dc 1c 4a 3e f4 bf 36 3f be 3b 82 3e
       0.37397662 0.19737571 0.7138665 0.25436205
000190 a7 d5 73 bb 74 6b fc 3d 50 b8 d9 3e d5 c5 42 3e
       -0.0037206204 0.123251826 0.42523432 0.1902078
0001a0 79 17 bc 3e e3 c7 b9 bd 0c 30 66 3e 97 cb 07 be
       0.36736658 -0.090713285 0.22479266 -0.13261257
0001b0 e0 8b 2d be 0b 03 04 3f a8 d4 7b 3e f9 41 0f be
       -0.1694789 0.51567143 0.2459284 -0.1399001
0001c0 a3 ff 37 3e 08 c4 21 be a3 3b c3 bd a4 33 f2 bc
       0.17968611 -0.15797436 -0.09532859 -0.02956564
0001d0 81 d2 e5 3d b1 23 ed 3e 88 30 cf 3e 38 fe 6a 3e
       0.11221791 0.46316293 0.40466714 0.2294854
0001e0 25 9a 0a be 67 13 6b 3e 33 3a c0 bd 4e 9d ce bd
       -0.13535364 0.2295662 -0.093861006 -0.10088597
0001f0 be 80 7a 3e 32 87 d6 bc 8a 93 c2 3d 2e 53 b2 bd
       0.24463174 -0.026187513 0.09500797 -0.087072715
000200 cb 3e 84 3e 08 f9 ef bd 09 2b 0c be d0 5f 59 3e
       0.25829157 -0.11717421 -0.13688292 0.21227956
000210 c6 c0 77 3e 97 98 4a be 06 02 f0 3e 3d 8c 08 3d
       0.24194631 -0.19784771 0.46876544 0.033336867
000220 60 86 8a 3e f7 18 50 bd 44 21 85 3e 13 4a 85 3d
       0.27055645 -0.05080506 0.26001942 0.06508269
000230 09 76 24 3e 71 51 22 be 5a 26 6c 3e ff 6d fe 3d
       0.16060652 -0.1585138 0.23061505 0.12423324
000240 8a 84 21 bc a1 89 3a bd 07 50 bd 3e 9b 00 9e 3e
       -0.00985826 -0.04554141 0.3697512 0.30859837
000250 43 0e 03 3f 52 86 2c be 6e 55 9b 3d 61 f1 1c ba
       0.51193637 -0.16848114 0.07584654 -0.0005986896
000260 38 70 84 3e 73 df 1d be ce bc 9c 3d df fc 94 3e
       0.25866866 -0.1541727 0.07653199 0.29099175
000270 3e d1 05 3e c6 7b d8 3e 65 72 04 be 00 8f 9b bd
       0.13068101 0.42281932 -0.12934263 -0.075956345
000280 be dc 0e 3e c5 d0 98 3e 2c a1 4d 3d 86 3f b9 b9
       0.13951394 0.2984678 0.050202534 -0.00035333278
000290 77 0b d0 3e 6a 90 ab bd 13 da a8 3e 17 6e 5f bd
       0.40633747 -0.08377154 0.32978877 -0.05454835
0002a0 c5 65 79 bd dd 50 b1 bd da f5 fd bd e2 3d 92 3d
       -0.06088807 -0.086580016 -0.12400408 0.071407095
0002b0 27 0c af 3d 14 d9 29 bd 4f 3e 87 bd 4b 88 2f bd
       0.0854724 -0.041466787 -0.06603681 -0.04285459
0002c0 cd da ac 3e ff be 11 3f c1 21 88 bd 8f 67 be 3e
       0.33760682 0.5693206 -0.06647063 0.37188384
0002d0 cc 92 0c 3f 8f 56 19 bd fd 87 95 3e 9e 98 5f 3e
       0.54911494 -0.037436064 0.29205313 0.21835563
0002e0 29 f4 11 be 1a eb 54 3e 5a a2 8c bd 5e bd 5a bd
       -0.14253296 0.20792809 -0.068669036 -0.05340325
0002f0 55 6d de 3e 5f 12 92 ba 98 b7 0f 3e d4 af 17 3e
       0.4344279 -0.0011144391 0.14034879 0.14813167
000300 cc 0c f6 bd a2 09 03 3f 38 46 aa bd 9a eb 40 3f
       -0.120141596 0.51186574 -0.083141744 0.753595
000310 7a 44 1f 3e f6 19 f1 3e fb ea 11 bd 1d 6d ea bc
       0.15553465 0.4709012 -0.035624485 -0.028616482
000320 e9 a1 cb bd ba de 1a 3e 9d 06 bd 3e 16 ea fc bd
       -0.09942991 0.15124026 0.36919108 -0.12349336
000330 5a 64 04 bd 19 17 10 3c 9b d2 1a 3f 49 3b ae 3d
       -0.032322265 0.008794569 0.6047761 0.085074015
000340 71 fd f7 3e b9 2e 81 3e a7 88 de 3d 3b 81 79 3e
       0.48435548 0.2523096 0.10865908 0.24365704
000350 c2 23 e6 bd 93 e2 0b 3e 02 37 26 3e 88 fe e4 3e
       -0.11237289 0.1366065 0.16231921 0.44725442
000360 df e5 f4 3d b8 71 d1 bd 53 29 c9 3e 3f 76 44 3e
       0.11957907 -0.10226768 0.3928934 0.19185732
000370 2a dc 78 3e 03 56 88 bb a0 04 9e 3d da 9d b4 bb
       0.24302736 -0.004160644 0.07715726 -0.0055119814
000380 5a ce 99 bb 05 04 15 3f 60 d6 e6 bd e6 55 1f bd
       -0.0046937885 0.5820926 -0.112713575 -0.03890028
000390 62 e9 af bd 59 ae 3e 3e c7 3b aa bd 77 bf a1 bc
       -0.08589436 0.18621196 -0.08312183 -0.019744618
0003a0 e4 f1 97 3e 7a d5 9a 3d 6a 9f 50 3e c2 b1 81 3e
       0.29676735 0.07560249 0.20373312 0.2533093
0003b0 4f eb 5a 3f 0d d6 2d be 4e 3a a4 3e dd 80 e2 3e
       0.855153 -0.16976185 0.32075733 0.4423894
0003c0 f2 44 b0 3e ae 75 d9 3e e6 ed 5c 3e 8a 4a e1 3e
       0.344276 0.42472595 0.21575126 0.4400218
0003d0 ed 2e 00 be 88 d0 a6 3d 7c a5 99 bd 2d 92 58 3d
       -0.12517901 0.08145243 -0.07502267 0.05287378
0003e0 94 39 d2 3d 65 48 3d 3d ea ca 9f bd e8 4e ff bd
       0.102648884 0.04621162 -0.07802375 -0.12466222
0003f0 a6 68 4c 3d 5c 2b 3f 3e 72 c4 ce 3d 00 a0 8f bd
       0.049904488 0.18668884 0.10096063 -0.070129395
