illustration/paper_data/timings/timing/e2edense_sr20_v0.07/best_model/b3.npy (npy, 928 bytes, 1 tensors)

array f4 [200]
000000 4c 15 23 bd d8 e6 3d bd 2d 9e 7a 3d 04 0e 16 3d
       -0.039815232 -0.046362728 0.061186004 0.03663446
000010 73 f1 64 bd 78 4a 43 3e 02 0d 18 3e 0b 06 eb bc
       -0.055894326 0.19071376 0.14848712 -0.028689405
000020 8c 1e 19 3e 96 fa b2 3c 9a a3 e5 bd f5 62 d3 bc
       0.14953059 0.021848004 -0.11212845 -0.025804022
000030 db d1 5c 3d e0 09 3e bd d3 1c 5b 3e ed 24 cc 3b
       0.05391107 -0.046396136 0.21397714 0.006229988
000040 13 95 a4 bc 92 d7 67 3d bb 08 e3 bb fe 5c 34 bd
       -0.020090615 0.05660207 -0.006928531 -0.044033997
000050 43 f5 a1 3d 15 e9 2d 3e 6e 2c 23 bd e3 e9 84 bd
       0.07908108 0.16983445 -0.039837293 -0.06489923
000060 66 0e 8f 3d 36 c6 a9 3c 37 32 10 3e d1 35 34 bd
       0.06985168 0.020724397 0.14081655 -0.043996636
000070 55 ca 06 3e 06 a4 ad 3c cc 05 12 be 9a 6d 43 bc
       0.13163121 0.021196377 -0.14260024 -0.0119279865
000080 e2 17 10 3e 27 22 ab 3d 21 86 d4 3c 08 c9 d5 bc
       0.1407161 0.083561234 0.025942864 -0.026096836
000090 a4 05 e8 3d 6a b5 90 bd 82 6d 98 bd 32 42 38 3e
       0.11329201 -0.07065852 -0.07442762 0.17994002
0000a0 07 f5 2c 3e 52 61 16 3d 1a 4d 1e 3e fe 67 8b 3c
       0.16890346 0.036713906 0.154591 0.01701736
0000b0 6d 31 70 bc 03 99 fd bb a9 9f 1a 3d 2a 02 00 3e
       -0.0146602215 -0.0077391877 0.03774992 0.12500826
0000c0 57 2e 8f bc 3f 20 29 3e ec 39 bc 3d ca bb 19 bd
       -0.017478151 0.16516207 0.09190735 -0.037532605
0000d0 07 b5 b9 bd 59 45 9f 3d 6d 12 b5 bd 4d eb 71 bb
       -0.09067731 0.07776899 -0.08841405 -0.0036913932
0000e0 26 b3 05 bb 85 4c 9c 3a 49 65 4c bd 2f 3e 62 bd
       -0.002040097 0.001192466 -0.04990128 -0.055235084
0000f0 1a 81 f4 3c dd 53 c9 3c 82 bb 8b 3c b0 0c 30 bd
       0.029846717 0.024576122 0.017057184 -0.04298085
000100 b8 47 0c 3e 15 03 fe 3d 73 f9 44 3d 6f bc 05 3e
       0.13699234 0.124029316 0.048089456 0.13060163
000110 ee 44 48 3d 39 da af 3c 79 4c 13 3d d4 40 82 bd
       0.04889386 0.021466361 0.035961602 -0.06360021
000120 dc 4f 67 bd a4 4b cf 3c 3f 87 fc bd 73 a3 ad 3c
       -0.056472644 0.025304623 -0.12330484 0.021196103
000130 a7 66 01 3e 2e 23 46 bc 64 33 ad 3b 68 17 30 3d
       0.12636815 -0.012093348 0.0052856673 0.042991072
000140 98 4e 76 bd e2 c2 11 bd 90 db f4 bd 7a 6c 0b 3e
       -0.060133547 -0.035586245 -0.11955941 0.136156
000150 eb ea f8 3c 4c e0 fd 3c 62 d1 86 3b c8 84 35 3e
       0.030385455 0.030990742 0.004114316 0.17726433
000160 f6 df 25 3e b7 ce ae bd 4c b7 ab 3d 8b 1c af 3d
       0.16198716 -0.085355215 0.083845705 0.08550366
000170 e5 ed 40 3d 96 16 21 bd 5e 12 32 3d 93 c3 94 3d
       0.047101874 -0.03932818 0.043474548 0.07263865
000180 07 c5 30 3d 62 33 e1 bd 24 5f b4 3d f4 39 31 3e
       0.04315665 -0.109961286 0.08807209 0.17307264
000190 6e 5d 03 3d 13 07 24 3c e2 21 ca 3d 6a 1f f2 3d
       0.032071523 0.010011452 0.09869744 0.11822398
0001a0 12 2b 0a 3e d1 98 da 3c f4 3a a5 3d dd a9 97 bd
       0.13492993 0.026684197 0.08067885 -0.07405446
0001b0 1f 11 b0 bb 30 54 30 3e b8 87 c9 3d 7c 7f 02 be
       -0.0053731347 0.17219615 0.098403394 -0.12743944
0001c0 21 a6 06 bc c2 44 4b 3d 77 8e fa bb 17 62 6d 3e
       -0.008218319 0.04962612 -0.0076463777 0.2318195
0001d0 91 3a 2f 3d 37 cc 3d 3c 72 05 83 bc 7a b5 e8 3d
       0.042780463 0.011584333 -0.015993807 0.11362739
0001e0 d2 2b 0d 3d fd 8e dd 3d 31 66 cf 3d 8e 71 ae bc
       0.03446562 0.108182885 0.10126913 -0.021294381
0001f0 2a d5 84 3d 16 f0 24 3e a6 9d 9d bd 42 79 87 3d
       0.0648597 0.1610721 -0.07696085 0.06614925
000200 9a f1 90 bb 8b 8d 78 3d cd d4 4a bd 88 82 22 bd
       -0.0044233324 0.06068186 -0.04951935 -0.039675266
000210 45 1f e6 3d 3b 74 13 3e d0 3d 3b 3d 43 6c ea b8
       0.11236433 0.14399807 0.045713246 -0.00011178155
000220 d5 b4 cc 3d ff 5e 27 bd 2e c5 4a 3c 91 8b eb 3d
       0.099954285 -0.04086208 0.012376113 0.115012296
000230 0b 6b 18 bd de 49 b0 3d ba 72 83 3d b7 f2 1f bd
       -0.03721146 0.08607839 0.06418367 -0.03904983
000240 6a 9f b6 3d 28 2a e4 3d c8 6e b3 3d 7a 5c c2 3d
       0.089171246 0.11140853 0.08761364 0.09490295
000250 f0 0a a2 3d d7 5f c1 bc 0a fb f0 bc 6b ed 0a 3e
       0.079122424 -0.02360527 -0.02941658 0.1356713
000260 51 36 f1 bc 19 2e 81 bd 5d d1 d1 3d fc 05 b9 bc
       -0.029444845 -0.063076206 0.10245011 -0.022585861
000270 1f dc 02 3e 7e f3 3f 3d 9f 6e b7 bb 74 64 3b 3e
       0.12779282 0.04686307 -0.005597904 0.18300039
000280 5d d3 93 3d 84 53 7c 3d 89 ce 2e bd 7d 60 b2 3d
       0.07218049 0.061603084 -0.042677436 0.0870981
000290 81 74 99 bc c8 f4 9a bc 6f 09 a0 bb 9e ec a3 3c
       -0.018732311 -0.018915549 -0.004883937 0.020010289
0002a0 eb 7b 9a 3d 3f 23 83 bd d9 3b e1 bb 87 c8 08 3e
       0.07543167 -0.06403207 -0.0068735895 0.13357745
0002b0 be 7a 8c bc cc 67 b0 bd 95 1a 55 3d 7a 4c bc bc
       -0.017148372 -0.08613548 0.052027304 -0.022985686
0002c0 6b 94 88 3d 48 cf ab 3d dc e6 dd 3d c2 ef 48 bd
       0.066689335 0.08389145 0.108350486 -0.049056776
0002d0 f6 6b 2e be 67 16 9b 3d ce 12 5f 3d dd 70 3a 3e
       -0.17033371 0.07572632 0.054461293 0.18207116
0002e0 1b 29 68 3e 34 9f 5c bb 0b 94 c2 bc b0 4c 2e be
       0.2267193 -0.0033664228 -0.023752233 -0.17021441
0002f0 99 e2 74 3b e3 10 95 bc bf 54 91 3d 1b 46 6f bd
       0.0037366508 -0.018196529 0.07096242 -0.058416467
000300 ec fa 14 bd 40 00 b5 3d e4 46 47 3d 23 3b 5d 3c
       -0.03637211 0.08837938 0.04865159 0.013502869
000310 69 5c ac bc d4 29 c2 3d 15 d2 04 3d e6 05 2c be
       -0.021040158 0.09480634 0.032426912 -0.16799125
