illustration/paper_data/784Neurons/e2edense_sr350_v0.15/best_model/b2.npy (npy, 3264 bytes, 1 tensors)

array f4 [784]
0.021706754 0.075681925 -0.10598048 0.076406136 -0.018218005 0.07388356 0.06877606 -0.07561151
0.026446052 0.04825057 0.14085001 0.08511923 -0.027642822 0.100964226 -0.04686547 -0.03219905
0.093154214 0.08242855 0.08336608 0.077029265 0.105086714 -0.061971184 0.15026791 -0.00024225809
0.11082862 -0.042833943 0.057768222 -0.06322729 0.018242216 -0.06564048 0.08893649 0.007233985
0.055706583 -0.11536323 -0.06740815 -0.010287883 0.023045417 0.06951064 0.080823705 -0.020734472
0.08291321 0.0011364734 -0.04225555 -0.028679898 0.037709143 0.13624048 -0.029801937 -0.03627218
0.026085114 -0.035005488 -0.070781246 0.092623234 0.10746979 0.052770954 0.063021615 0.026710162
0.058923542 -0.022571519 0.1367555 0.040896345 -0.10064036 0.059161622 0.07931652 0.027562913
0.008829086 0.07952502 0.07651222 -0.035281803 0.24954417 -0.06610548 -0.02718297 -0.06324472
0.07949438 0.08987484 0.06107099 -0.025092317 -0.03208923 0.12629686 -0.14172083 -0.006199525
0.08467782 0.16759887 0.089968614 0.029219015 0.069560155 0.02792909 -0.0053177904 -0.018947007
-0.0052286675 0.045284405 -0.021000551 0.10004 -0.09479335 0.07872595 0.09517553 0.0667327
-0.045905747 0.035013117 -0.16216071 0.06456277 0.0515889 -0.03386841 0.09293208 0.050685294
-0.030053712 0.2129715 0.10639521 -0.03252785 -0.08008518 0.10608091 -0.041171014 0.055684157
0.06858364 0.10649612 0.076877646 0.015322831 0.09136566 0.12314299 0.13990118 0.056107547
0.05842993 0.06923151 -0.055615325 -0.05951696 -0.06590322 0.116150685 -0.0488819 0.08014055
0.06141881 0.041143384 0.07638167 0.0767941 0.06324769 0.040055703 -0.03648888 -0.014873722
0.10840682 -0.12758555 0.120061964 0.07808939 -0.046847098 0.015879238 0.053344507 0.048927244
-0.05225582 0.061575476 0.061895303 0.15073644 0.020177454 0.01694124 0.091238596 0.06766976
0.09157338 -0.09193773 -0.004457679 0.0371267 0.16805425 -0.10965474 0.06540238 0.098052286
0.08388444 0.052628223 -0.032277066 0.04398232 -0.034343597 -0.076461166 0.087078266 0.03908309
0.07269512 -0.040713795 -0.08129474 0.027320843 -0.02503178 0.10978826 0.12739077 0.016941054
-0.014740512 0.02635931 0.017080383 0.07281841 0.07143427 0.07978464 0.1184427 -0.039376725
0.10362167 -0.06401429 0.016905747 0.008186733 -0.06310998 0.017982341 0.044352684 -0.105198
-0.088324204 0.0057642693 0.014409783 -0.0604145 0.121607 -0.04177417 0.00029211375 0.13752644
0.08341391 0.064863615 -0.027701886 -0.009190461 0.04795249 0.105405465 0.043268714 -0.09446777
0.085218586 0.09304194 -0.017598597 -0.006533945 0.024938168 0.060180306 -0.037389763 0.12212999
-0.08336482 -0.06087527 -0.055533115 -0.009494964 -0.013838003 0.11668524 0.10209654 0.07788337
0.029684417 -0.049097843 0.04947849 0.013059438 0.07811806 0.06907773 -0.019053215 0.039540835
0.0641298 -0.023120934 0.10482544 -0.023450386 0.061933983 0.12374231 0.07080665 0.2129672
-9.2335584e-05 0.09161724 0.073381945 0.04926057 0.05878745 0.007898981 0.07445038 0.0060341908
0.1442592 -0.01867677 0.013106197 0.028105468 0.09857554 0.019575981 0.027368966 -0.009376303
00000000: 5dd2 b13c 20ff 9a3d 4b0c d9bd d27a 9c3d
00000010: ed3d 95bc 4450 973d 77da 8c3d 35da 9abd
00000020: 64a5 d83c 64a2 453d fc3a 103e fe52 ae3d
00000030: 3373 e2bc 55c6 ce3d 02f6 3fbd 27e3 03bd
00000040: a3c7 be3d 4dd0 a83d d6bb aa3d 85c1 9d3d
00000050: b437 d73d 7fd5 7dbd d5df 193e a906 7eb9
00000060: 1efa e23d a572 2fbd 5f9e 6c3d 4f7d 81bd
00000070: b370 953c 846e 86bd 5624 b63d 100b ed3b
00000080: 962c 643d 8f43 ecbd 490d 8abd 828e 28bc
00000090: bec9 bc3c 985b 8e3d e686 a53d 57db a9bc
000000a0: 67ce a93d b8f5 943a 2814 2dbd 1bf2 eabc
000000b0: e774 1a3d a082 0b3e 3123 f4bc 2392 14bd
000000c0: 73b0 d53c ea61 0fbd c2f5 90bd 40b1 bd3d
000000d0: 1f19 dc3d 5b26 583d 7a11 813d 45cf da3c
000000e0: d059 713d e8e7 b8bc a209 0c3e ed82 273d
000000f0: 881c cebd 7553 723d b370 a23d 9ecb e13c
00000100: dfa7 103c 04de a23d 70b2 9c3d a783 10bd
00000110: 8288 7f3e 4f62 87bd d2ae debc 7386 81bd
00000120: f3cd a23d 4d10 b83d 9325 7a3d 678e cdbc
00000130: ff6f 03bd f753 013e 441f 11be 6325 cbbb
00000140: 916b ad3d 0a9f 2b3e 7741 b83d b75c ef3c
00000150: 8e75 8e3d 8ccb e43c dc40 aebb c136 9bbc
00000160: 3e55 abbb 247c 393d 5909 acbc c6e1 cc3d
00000170: 0423 c2bd 123b a13d 63eb c23d 27ab 883d
00000180: aa07 3cbd ea69 0f3d 750d 26be 7c39 843d
00000190: e24e 533d 9ab9 0abd 2d53 be3d 629b 4f3d
000001a0: 3433 f6bc 3315 5a3e bbe5 d93d ec3b 05bd
000001b0: b303 a4bd f340 d93d f0a2 28bd 1215 643d
000001c0: 9475 8c3d a31a da3d 0772 9d3d 9d0c 7b3c
000001d0: eb1d bb3d 6432 fc3d 4142 0f3e 07d1 653d
000001e0: 3954 6f3d 40c9 8d3d e5cc 63bd 0ec8 73bd
000001f0: 44f8 86bd 69e0 ed3d 6338 48bd bb20 a43d
00000200: 4a92 7b3d f785 283d fe6d 9c3d 3a46 9d3d
00000210: 0188 813d 7311 243d 5d75 15bd e9b0 73bc
00000220: 6504 de3d c9a5 02be 0ce3 f53d 55ed 9f3d
00000230: bee2 3fbd 2d15 823c c57f 5a3d ef67 483d
00000240: 330a 56bd 9136 7c3d ee85 7d3d a75a 1a3e
00000250: 304b a53c 5bc8 8a3c 4ddb ba3d 7196 8a3d
00000260: d38a bb3d d949 bcbd b911 92bb 2b12 183d
00000270: 6a16 2c3e aa92 e0bd aff1 853d a3cf c83d
00000280: 9bcb ab3d b190 573d f534 04bd ce26 343d
00000290: dfab 0cbd ac97 9cbd 1756 b23d 9715 203d
000002a0: 2ee1 943d 82c3 26bd db7d a6bd f6cf df3c
000002b0: 730f cdbc abd8 e03d ba72 023e f7c7 8a3c
000002c0: 3082 71bc 7bef d73c 29ec 8b3c d221 953d
000002d0: 214c 923d 2166 a33d 1692 f23d 7d49 21bd
000002e0: 9937 d43d ed19 83bd ec7d 8a3c a621 063c
000002f0: ce3f 81bd b44f 933c 29ab 353d 0d72 d7bd
00000300: 52e3 b4bd 32e2 bc3b 0317 6c3c 3275 77bd
00000310: 170d f93d 641b 2bbd d826 9939 bbd3 0c3e
00000320: e9d4 aa3d 37d7 843d 11ef e2bc 9693 16bc
00000330: d569 443d d2de d73d 893a 313d 5178 c1bd
00000340: 1587 ae3d c68c be3d ef2a 90bc b41a d6bb
00000350: 214b cc3c a07f 763d 0226 19bd 4a1f fa3d
00000360: 2dbb aabd 5958 79bd b176 63bd c490 1bbc
00000370: cbb8 62bc acf8 ee3d fe17 d13d 5181 9f3d
00000380: bc2c f33c d21a 49bd f5a9 4a3d 41f7 553c
00000390: 5dfc 9f3d a078 8d3d 7d15 9cbc 92f5 213d
000003a0: 7c56 833d 1d68 bdbc b8ae d63d 061b c0bc
000003b0: 7dae 7d3d 9c6c fd3d 1403 913d 1314 5a3e
000003c0: 4aa4 c1b8 d2a1 bb3d 4649 963d 74c5 493d
000003d0: 1ccb 703d ba6a 013c 7179 983d 76ba c53b
000003e0: afb8 133e 0700 99bc 60bb 563c 703d e63c
000003f0: f9e1 c93d cf5d a03c e234 e03c 119f 19bc
