illustration/paper_data/500Neurons/e2edense_sr350_v0.15/latest_model/b2.npy (npy, 2128 bytes, 1 tensors)

array f4 [500]
000000 dd a5 f5 bd 80 37 90 be 7c c2 72 3e c1 eb 34 3d
       -0.119945265 -0.28167343 0.23707002 0.044170145
000010 d1 0b 0d 3e 01 f8 a4 bd 89 ce 54 3e 75 ac 79 3e
       0.13774039 -0.080551155 0.20781912 0.24382193
000020 ec 70 3c 3e 18 20 9f 3d 17 7e 8e 3c 02 cb 3c 3e
       0.18402451 0.07769793 0.017394109 0.18436816
000030 8f 9c e6 3d 57 90 8d 3e 49 90 35 bd b4 5c f7 3d
       0.1126033 0.27649185 -0.044327054 0.120782286
000040 6d fa ee bd 33 80 21 3e 31 f7 b1 bd 32 aa 10 bd
       -0.11668859 0.1577156 -0.08689726 -0.03531856
000050 00 d5 75 be 79 dd 7e 3e 1c 81 27 3e b2 8a 52 3e
       -0.24007034 0.24889173 0.16357845 0.2056072
000060 31 57 83 be 2a d1 30 3d 40 62 f3 bd 65 17 6d bd
       -0.2565246 0.043168224 -0.11883974 -0.05788364
000070 b1 64 68 3e 4a f2 5d 3e a8 d9 04 3e fc 77 b4 3d
       0.2269466 0.21674457 0.12973654 0.08811948
000080 05 a3 b6 3d 9d 02 ef 3d bf c2 2a be a9 bb 8c bd
       0.08917812 0.1167042 -0.16675852 -0.06871731
000090 b0 50 42 3e 9f 33 15 3e 59 d5 26 be 53 de 02 bd
       0.18976092 0.14570473 -0.16292323 -0.031950306
0000a0 f4 88 ca 3e 13 41 31 3e 57 d9 55 3c ff 5a 27 be
       0.39557612 0.1730998 0.013052306 -0.16343306
0000b0 d5 9c 8a 3e 50 49 13 3d dd f2 28 3e c4 4e 7d be
       0.27072778 0.035958588 0.16498895 -0.24737078
0000c0 7c f4 80 3e c5 1a d4 bc c3 af dc bc 77 17 e1 3e
       0.25186527 -0.025891671 -0.026939278 0.43963215
0000d0 69 55 b1 bd 14 ed d4 bd e0 72 0e be a6 16 92 3e
       -0.08658869 -0.103967816 -0.13911009 0.28532904
0000e0 74 5f c7 3d 01 8e 40 3e e1 ee 93 3e ff 2c 55 3e
       0.09735003 0.1880417 0.28893188 0.20817946
0000f0 6c ee 04 3e 05 76 6e 3e 05 e4 10 3d 58 0c 63 3e
       0.12981576 0.23287208 0.035373706 0.22172678
000100 dd 24 52 3e 8f e9 d5 3d 93 0c 78 be 72 3f c9 3e
       0.20521875 0.104449384 -0.24223547 0.39306217
000110 23 0b f7 3d 8e fc 83 3d 5d 20 0f 3e bd d2 ac 3d
       0.12062671 0.06444655 0.1397719 0.08438633
000120 8b 48 97 3e 9e a8 0e be e6 ec 3d 3c cf 19 40 3d
       0.29547533 -0.1393151 0.0115921255 0.046899613
000130 67 66 b0 3d ab 12 5e 3e 78 8e ec 3d 02 c0 20 3e
       0.08613282 0.21686809 0.11550611 0.15698245
000140 80 c3 2c 3e db b9 cc 3d 99 97 10 3e de 85 c3 bd
       0.16871452 0.099963866 0.1412033 -0.095470175
000150 c7 3f 9c bd f0 af d5 bd 84 3b 8c 3e 3e f9 63 3e
       -0.07629352 -0.10433948 0.27389157 0.22263047
000160 b2 3c 9d 3e 76 a4 8a 3d 4d 1d fc bd f6 e9 d9 3c
       0.3071037 0.0676965 -0.12310276 0.02660082
000170 91 ed 24 3d 7e 7d 07 be e5 96 3c 3e 88 4e 16 3e
       0.040265623 -0.13231465 0.18416937 0.14678395
000180 bd 2a b0 3e 93 28 33 3e 43 d2 82 3d 62 98 12 bc
       0.34407607 0.17495947 0.063877605 -0.008947464
000190 8b b8 66 3e 57 0a 72 3d ab 8b b2 3d ad 32 c1 3d
       0.22531335 0.059091892 0.08718046 0.09433494
0001a0 cd 2b 80 3e 0c 19 a3 3d 3e 5e 00 3e eb 13 89 bc
       0.25033417 0.07963762 0.1253595 -0.01673313
0001b0 1b c1 50 3e 1e da 1e 3e e8 41 a0 3d 74 2e 3a 3e
       0.20386164 0.15512893 0.078250706 0.18181783
0001c0 7a 8d 3a 3e e7 04 6f 3c 7c 51 5f 3e 3b b5 d0 3c
       0.18218032 0.014588571 0.21808428 0.025477042
0001d0 43 47 34 3e 9f 89 23 3e d5 36 45 bd ab 46 d6 3d
       0.17605309 0.15970467 -0.048147995 0.104626976
0001e0 a8 03 00 3e 7f e8 10 be f1 10 f3 3b e4 e6 41 be
       0.12501395 -0.1415119 0.007417791 -0.18935734
0001f0 cb a5 d1 3d 71 1d fb 38 71 01 fe 3c 96 59 4b 3d
       0.102367006 0.000119740966 0.031006547 0.049645983
000200 6a 0a d7 3d 50 94 ea 3d 8a 6a 85 be 4a 06 6d 3a
       0.10500033 0.114540696 -0.26057845 0.00090417697
000210 34 3b 02 be 34 fc 95 bd b4 7c dd 3d ba 6b a5 3e
       -0.12717897 -0.073234946 0.10814801 0.3230875
000220 0f 1f 2b 3e 1a 5c 95 bd c5 c1 50 ba 64 63 04 bc
       0.16711067 -0.072929576 -0.0007963444 -0.008080337
000230 2d cc 3d 3e 7f e7 16 3d 75 77 aa 3c aa d2 25 3e
       0.18534918 0.036841866 0.020808915 0.16193643
000240 c2 0f 6c 3e b1 13 a0 3d 44 29 02 3e c6 2e bf 3d
       0.23052886 0.07816256 0.12711054 0.09335093
000250 94 5f ab 3e 68 8d 5b 3e 0a 75 46 3e d1 5a 11 3e
       0.33471358 0.21440661 0.19380584 0.141948
000260 63 71 f2 3d d9 f3 89 3e a2 b0 97 3e 08 6f a5 3d
       0.11838033 0.26943853 0.29626948 0.08077818
000270 b7 93 c2 3d e2 3c eb 3d c4 e7 88 bd b2 01 1a be
       0.095008306 0.11486222 -0.06684831 -0.15039709
000280 08 03 3e 3e 1e 33 e1 bb c0 b4 b4 be a1 11 98 be
       0.18555844 -0.0068725487 -0.3529415 -0.2970095
000290 2b 1e f0 3d c9 27 c7 bd b4 9b fa 3d fa 99 3a 3e
       0.11724504 -0.09724385 0.12236729 0.182228
0002a0 33 25 98 3c 37 c8 6e be 1c f5 24 3e 7e e8 65 3e
       0.018572425 -0.23318563 0.16109127 0.2245197
0002b0 b3 0c 35 be 1a 5e 15 3e 39 79 6b bd 2a 69 6a 3e
       -0.17680626 0.14586678 -0.057488654 0.2289168
0002c0 15 88 08 3e 78 d7 c6 bd b1 a2 16 3d a6 64 68 3c
       0.13333161 -0.09709066 0.03677625 0.014184153
0002d0 a8 d9 34 bc 26 82 8f bd 6c ba 1f 3e 70 7e 1a ba
       -0.011038221 -0.07007246 0.15598458 -0.00058934744
0002e0 8c dc f8 3d fa 37 6d 3c 84 b9 3b 3e 86 4a a0 bd
       0.12151441 0.014478678 0.18332487 -0.07826714
0002f0 84 dc c1 3d 86 99 bf 3d 50 a7 17 bd ad 50 20 3e
       0.09465888 0.09355454 -0.037024796 0.15655775
000300 13 cb 12 3e f1 40 90 bc 82 bd 12 3e d3 54 d4 3e
       0.14335279 -0.017609091 0.14330104 0.41470966
000310 90 bb fa 3d 26 22 39 3e 2c 84 5f 3d 7c 51 c0 3d
       0.12242806 0.18079433 0.05456941 0.09390542
000320 e3 b6 4b 3e 0a b7 1e be c8 9f 84 bd cf f7 4e 3e
       0.19893984 -0.15499511 -0.06475788 0.20211719
000330 a5 b5 3f bd e7 af 4d 3d 2b ce d7 3d af 6c 63 3d
       -0.04680409 0.05021658 0.1053737 0.05552357
000340 a6 3a 87 bd 19 4c 5a 3e 10 30 a1 bd cf 64 b9 bd
       -0.06602983 0.21318091 -0.07870495 -0.09052431
000350 84 cd b2 3d d0 81 f2 3d 81 cd 8d bd c5 a2 a1 3d
       0.08730605 0.11841166 -0.069239624 0.07892374
000360 4a ac 31 3e 0d 3a a7 3e ae ee fb 3d d3 fb d4 3d
       0.1735088 0.32661477 0.12301384 0.10399594
000370 8f 9f 55 3d 76 3d 28 bd 55 38 48 3d 91 23 13 3a
       0.05215412 -0.04107424 0.048881847 0.0005612905
000380 97 61 f2 3d 70 54 2f be ee 42 8f 3d 4a bf 72 3d
       0.1183502 -0.17122054 0.06995188 0.05926446
000390 2b 2b 21 3e a3 fb 1a bd 22 f7 e5 3d 6e f9 32 bd
       0.15739124 -0.037837636 0.112287775 -0.043694906
0003a0 d5 80 6c 3e b4 1c ff 3d 78 a0 ea 3d d5 a7 52 3e
       0.2309602 0.124566466 0.11456388 0.20571835
0003b0 cb 7a dc 3d 99 f4 63 3e 0a d6 4c 3e 83 a6 01 be
       0.107656084 0.22261275 0.20003524 -0.12661175
0003c0 9d 6e d3 bc e5 d7 70 3e 82 be 5e bd b4 0a 26 3e
       -0.02580958 0.23519857 -0.0543809 0.1621502
0003d0 50 a3 25 3e c2 e5 93 3e 25 95 45 3e 16 a5 bd bd
       0.1617558 0.2888623 0.19295175 -0.09260003
0003e0 e6 9b d6 bd 36 11 14 3e 41 f2 99 3e 47 0e aa 3d
       -0.10478954 0.1445969 0.30067638 0.083035044
0003f0 f3 8d 2c bd 4b bc c9 3d 54 6c 7d bc 4c a5 11 bb
       -0.04212756 0.09850367 -0.015467722 -0.0022223769
