illustration/paper_data/784Neurons/e2edense_sr350_v0.05/latest_model/b1.npy (npy, 3264 bytes, 1 tensors)

array f4 [784]
00000000: f76b 0bbe a3a2 63bd b53a c93b d5ee 67bd
00000010: 4279 85bd a3fa d83d 27f1 903d c41c a43d
00000020: b393 133d 6b05 ab3d aa4f 573d 2012 d43d
00000030: d7db d8bd 58cb cabd 1ace e03d 13c2 ec3b
00000040: 3e6f ab3d 8f8e 4e3d 816f 5c3e 7898 1d3e
00000050: 3136 ac3b 480c a4bb 802d bd3b e82e b9bd
00000060: 5405 2d3c 39be f93d 01ec 22be a39c 753d
00000070: 8c15 2dbd 0f04 20bd e1e4 e23c e985 61bd
00000080: 1e88 2d3c 54b2 c33d 0f88 bb3b 6830 243d
00000090: e8f8 693d d4ae 633d 2ead c03d 5f88 283d
000000a0: 3e2d dbbc 3d7b 633d 9030 78bb 7d2e 4c3d
000000b0: c99e 19bd 6d36 c63c 5121 303b dbd1 393e
000000c0: 2fde 8ebc da85 123e a2f5 e03d 545c 243d
000000d0: 7f05 943d 2b1b 7dbb af07 c4bc f78e c7bd
000000e0: 2f5d 743e b393 ce3d 9017 303e 5562 963c
000000f0: 3d40 573b 9373 2d3e f6cc 5c3c b988 ba3d
00000100: 69f0 4fbd dacf fa3d c3e1 c13d c1d4 563c
00000110: 7e2c 2c3e 7280 543e d7ae 8d3d 4991 b43d
00000120: 2296 40bd 7ba6 983c 6e4b 0abe c7be 993c
00000130: d6a4 043e 0f57 ee3c e08c 0c3e 0218 ba3c
00000140: ea04 173d 1751 983d c867 a33d 6474 fa3d
00000150: 7a62 c93c 9749 a93d 6106 7a3d 98e5 9c3c
00000160: 422c 373d 2c92 9d3c 6129 1fbd 42da 0abe
00000170: a52b 943d f2f9 323d 570e 23be 2678 07be
00000180: 488e 883c 2224 913c 8295 283d a7ca bcbd
00000190: 601f e03d 315f 9c3d 989c 66bd 76a2 2bbc
000001a0: 6213 843c ac02 5dbd 99e5 1b3e 6010 9b3d
000001b0: 7468 0abd b9a0 0f3e 2de0 c3bb 5eb4 8f3d
000001c0: 6d84 86bd 86e7 de3d 8373 0e3d aa28 233e
000001d0: 84fa 79bc 15d4 2e3e 4342 6b3d d789 d33b
000001e0: 06f9 113c 1691 3f3e 9a75 1fbc ebaa 2fbb
000001f0: 8f35 163c 7a93 41be bf88 5f3d dfdc d33c
00000200: ba8a 6d3d ce26 3b3d d5c8 d3bb c65d e73d
00000210: f498 373c a506 0a3d 159a 433d 4716 9b3c
00000220: d671 7f3c 9f4a f03d b39b 8e3d 917d 3b3c
00000230: 30fb 783d a8f0 d93d 2fdf 943c 4858 4f3c
00000240: 55a6 473d 3f5e af3d d3b5 18bc 3c1c 4e3d
00000250: 28c3 023e 2527 0c3e 4cf2 d23d f126 1d3d
00000260: 6e06 d23d 35d5 88bd 8c61 af3d 77ab 23bd
00000270: f84e 85bd 0bc8 ae3c 47c1 9b3d 3fd2 c5bd
00000280: 54ec 783c 437e 953d a677 7f3e 8dd4 ff3d
00000290: af28 97bd 021e 10bc 763d 6d3d 88fb 963d
000002a0: 9fdc 14bd 09b3 f03d 955a 0f3d c92a 043d
000002b0: eb9c 0bbd aa3b 0e3d 70f7 a7bc 33a0 dd3d
000002c0: f1c3 163d d969 863d 4782 b43d 96a2 903d
000002d0: 877c 31bc 4d6c c6bc 47c2 ea3b b627 a2bb
000002e0: ed69 9f3d 4e51 d1bc e7b4 35bd 2832 733d
000002f0: 3f75 b8b5 340e f13c 6963 0d3e 4dbd 4abc
00000300: cd09 f93c b769 b637 40b3 fa3d 33fe 88bd
00000310: 2942 f33d e8c6 5c3d b7d6 a43b 5332 94bc
00000320: 80d0 ab3d d8fc 283d 1b85 173e 18ba 05bd
00000330: 4a26 bc3d fab3 9d3c 871e 823e c5fa df3d
00000340: 8592 f1bd 8943 093e ef2d 133d 1b82 493e
00000350: 80af 07bd c6d9 41bc a548 e83d 95c8 453d
00000360: 46df f53d d25c be3d 80ca 013e d4a3 6a3d
00000370: c24d ad3d fd51 89bd b3bc 943c 3a09 d13c
00000380: 7cc4 5e3d a072 39bd 0262 b9bb 212b ab3d
00000390: c4f9 973c 8027 793e bac9 bd3c 2bb0 943d
000003a0: 1929 cdbc c8db dcbb ad99 dcbd 0ca9 83bd
000003b0: a402 d13c 1b76 3bbc ef28 f8bc 0697 65bc
000003c0: a4a2 263d ec20 6d3d 19c0 17bd 6332 46bd
000003d0: 2834 e73b b198 f43c 6d5a 39bd e365 0bbd
000003e0: 87e1 a6bc 38f3 1b3d e7b9 b73d f92f 7d3d
000003f0: a69e cf3d c436 de3d b5ab dd3c 5b23 853c
-0.13615404 -0.055575024 0.0061410316 -0.056624252 -0.06517269 0.1059468 0.07077246 0.08013299
0.03602953 0.08350643 0.052566208 0.103550196 -0.10588806 -0.09902066 0.10976811 0.007225284
0.08370827 0.050428923 0.2152691 0.15390193 0.0052554836 -0.005006347 0.0057732463 -0.0904215
0.010560352 0.12194485 -0.15910341 0.059963834 -0.042256877 -0.03906637 0.027697029 -0.055059347
0.010591535 0.09555498 0.0057230066 0.040085226 0.05712214 0.05558665 0.094080314 0.04114568
-0.026754972 0.05553745 -0.0037870742 0.049849022 -0.037504945 0.024195874 0.0026875327 0.1814646
-0.01743993 0.14308873 0.10984351 0.040127113 0.07227611 -0.003862093 -0.023929445 -0.09744065
0.23863672 0.10086765 0.17196488 0.018357435 0.0032844685 0.1693862 0.013476601 0.09108109
-0.050766382 0.12246676 0.09466889 0.013112248 0.16813847 0.20752123 0.06918114 0.088167734
-0.047018178 0.018634072 -0.13505337 0.018767728 0.12953505 0.029094247 0.13725615 0.022716526
0.03686992 0.07437342 0.07978779 0.12229231 0.02458309 0.08265989 0.06104124 0.019152448
0.044719942 0.01923474 -0.03885782 -0.13559821 0.07234887 0.043695398 -0.15923439 -0.13229427
0.016669407 0.017717425 0.041158207 -0.0921834 0.10943484 0.07635344 -0.056301683 -0.010475745
0.016122524 -0.053957626 0.15224303 0.07571483 -0.03379102 0.14026155 -0.0059776516 0.07016824
-0.06568227 0.10884003 0.03477813 0.15933481 -0.0152574815 0.1707309 0.05743624 0.006455641
0.0089094695 0.1870769 -0.009732628 -0.0026804756 0.009168043 -0.18903914 0.05457377 0.025862155
0.057993628 0.045691304 -0.00646315 0.11297183 0.0112059 0.033697743 0.047754366 0.018931521
0.015591105 0.11732983 0.06963291 0.011443512 0.060786426 0.10641605 0.018172828 0.012655325
0.04874261 0.08562898 -0.009320694 0.050319895 0.12769759 0.13686807 0.10300121 0.038367216
0.102551326 -0.06681291 0.085635275 -0.039958443 -0.06509203 0.021335622 0.07605224 -0.09659242
0.015193064 0.07299473 0.24947986 0.12491713 -0.07380807 -0.008796217 0.05791994 0.073721945
-0.036343213 0.11752898 0.034998495 0.032267366 -0.034085196 0.03472487 -0.02050373 0.10821571
0.036807958 0.065631576 0.08813911 0.07062261 -0.010832912 -0.024221564 0.007164273 -0.0049485816
0.077838756 -0.025551464 -0.044361975 0.059374005 -1.3743191e-06 0.029425718 0.13807453 -0.012374234
0.030400181 2.1745318e-05 0.122412205 -0.0668911 0.118778534 0.05390063 0.005030479 -0.018090403
0.083893776 0.041256756 0.1479687 -0.032648176 0.091869906 0.019250859 0.25413916 0.10936502
-0.117955245 0.13404669 0.035932478 0.19678538 -0.033126354 -0.011831706 0.11341981 0.048286993
0.12005477 0.09295048 0.12674904 0.057285145 0.08462097 -0.06705091 0.018156385 0.025517095
0.0543866 -0.04527533 -0.0056574354 0.083578356 0.018551715 0.24331474 0.02316748 0.07260164
-0.025044011 -0.006740067 -0.10771499 -0.064287275 0.025513954 -0.011441733 -0.030292956 -0.014013058
0.04068245 0.057892725 -0.037048433 -0.048387896 0.007055778 0.029857965 -0.045252252 -0.034032714
-0.020371212 0.03807375 0.08971005 0.06181333 0.10137682 0.108502895 0.027059415 0.01625221
