illustration/paper_data/784Neurons/e2edense_sr350_v0.05/latest_model/b2.npy (npy, 3264 bytes, 1 tensors)

array f4 [784]
0.030999668 0.0020624213 0.112244815 -0.008180065 0.008265924 -0.03137782 0.105019875 0.040460676
0.047509063 -0.07756734 -0.049286813 0.0038640143 0.07918187 -0.031431604 0.038054656 0.09283776
0.115088746 0.0053071124 0.064700946 0.047483634 -0.09719215 0.087842375 -0.05726965 0.011949083
-0.006596358 0.019897623 -0.011294823 0.05779897 -0.13491918 0.12718242 0.051873058 0.040664397
-0.026794264 -0.01090336 0.11654669 -0.09020611 0.09390835 0.05579864 0.034330126 0.033571403
0.0773042 -0.043495867 -0.08739315 -0.051306874 -0.2053741 0.087950446 -0.09275754 0.012812857
-0.00555497 0.06567126 0.12410116 0.055303905 -0.008038789 0.10787098 0.04806777 0.042658046
0.077501275 -0.039407402 -0.07660197 0.0985661 0.14180274 -0.047286242 -0.042776026 -0.02518041
-0.019651907 -0.16196698 0.039395276 0.09575375 0.101240635 -0.04431998 -0.03501491 0.10444292
0.016375381 -0.048893858 -0.106267005 -0.06596465 -0.026185228 -0.036803994 -0.025044274 -0.022810886
0.018521072 -0.0285779 0.029884346 0.19377723 -0.0023612787 0.030299963 0.037640758 -0.045839697
0.0051237755 -0.06004269 0.049917612 0.13952875 -0.00967282 0.05116107 -0.048286308 0.015445544
0.18440646 0.15833834 0.022760166 0.18260452 0.062135153 -0.087950364 0.0665814 0.11423973
-0.059079062 0.06658996 0.091261424 -0.07137607 0.0019280551 -0.07398585 -0.07685266 0.03894868
-0.027629038 0.05027766 -0.090440355 0.06534552 0.07579102 -0.1816895 -0.052312315 0.13948636
-0.12239348 0.007228193 0.038440138 -0.013581605 -0.22673614 0.074145295 0.0576933 0.12546378
-0.044418406 0.00022749482 0.079672515 0.18175204 0.10541469 0.1824429 0.17683728 0.010607385
-0.096981846 0.06678987 0.06356134 -0.015381368 0.03721406 -0.0041361386 -0.017097719 -0.05493425
-0.102538444 0.1679495 -0.032686375 -0.11888496 0.1322336 0.250987 0.13456726 0.0017990195
-0.025646402 0.09341634 0.08227461 0.058415912 -0.024689442 0.05701051 0.007957148 0.093910694
-0.08960617 -0.07636384 -0.059519827 0.0036981069 0.12997241 0.020311521 0.07694755 0.13817018
0.17822242 0.1182259 0.031160941 0.011316328 0.019929457 -0.09233591 0.032011926 0.032022282
0.03069945 -0.06404185 0.09803921 0.08859216 0.051439617 0.063030094 0.17699164 0.20243184
-0.057062387 0.0410189 -0.0548802 0.19772692 0.26489735 0.04978829 0.07004025 0.1486731
0.0897591 -0.12789744 0.07918991 -0.051659923 0.07128972 0.009473958 0.12674937 0.025199251
-0.039850365 0.17829706 0.1021852 0.069545284 0.06042851 0.024753554 -0.05518748 0.013388536
0.11251597 0.12476218 0.03632593 0.048526775 -0.029503506 -0.056975733 0.00036318076 0.09096396
0.11503887 0.042488493 -0.110438816 -0.024304561 0.07541038 0.13583674 0.010082355 0.029331412
-0.012859819 0.058886614 0.116158724 0.06495796 0.13736914 0.044108376 0.019097548 -0.0693689
0.08464513 0.004962941 0.11534787 0.15852791 0.085453495 0.045933634 0.053094134 -0.03614929
0.19643058 -0.02730801 0.09685159 -0.06713879 -0.06202681 -0.053377286 -0.011550135 0.015318038
0.068646 0.050215196 0.0617997 0.08773827 0.14724573 0.1411811 -0.033327404 -0.060441304
00000000: 04f3 fd3c b029 073b 9ce0 e53d ae05 06bc
00000010: cc6d 073c 0786 00bd a914 d73d 18ba 253d
00000020: dd98 423d a0db 9ebd f8e0 49bd 673b 7d3b
00000030: 1b2a a23d 6dbe 00bd 33df 1b3d b921 be3d
00000040: a6b3 eb3d 49e7 ad3b ee81 843d 337e 423d
00000050: ae0c c7bd b4e6 b33d 9593 6abd 16c6 433c
00000060: 4326 d8bb 5700 a33c ec0d 39bc 9dbe 6c3d
00000070: 4128 0abe 1c3c 023e d878 543d b68f 263d
00000080: a57f dbbc 02a4 32bc 08b0 ee3d fbbd b8bd
00000090: 0553 c03d 1d8d 643d bf9d 0c3d 2b82 093d
000000a0: aa51 9e3d b928 32bd 2efb b2bd 2827 52bd
000000b0: 974d 52be 5d1f b43d aaf7 bdbd 04ed 513c
000000c0: 7706 b6bb a77e 863d c028 fe3d 5986 623d
000000d0: 20b5 03bc 76eb dc3d b6e2 443d 34ba 2e3d
000000e0: fdb8 9e3d a869 21bd 7ee1 9cbd 06dd c93d
000000f0: bd34 113e 38af 41bd ea35 2fbd 2647 cebc
00000100: 09fd a0bc acda 25be f15c 213d 8b1a c43d
00000110: 4057 cf3d de88 35bd cb6b 0fbd 2be6 d53d
00000120: aa25 863c ed44 48bd 84a2 d9bd 7918 87bd
00000130: 6782 d6bc c9bf 16bd a629 cdbc e5dd babc
00000140: 81b9 973c 331c eabc 04d0 f43c 8a6d 463e
00000150: afbf 1abb a137 f83c 322d 1a3d 68c2 3bbd
00000160: 58e5 a73b 53ef 75bd 6976 4c3d a0e0 0e3e
00000170: bf7a 1ebc 458e 513d ddc7 45bd 4f0f 7d3c
00000180: 0cd5 3c3e 7223 223e 8773 ba3c aefc 3a3e
00000190: 6e81 7e3d 521f b4bd d45b 883d 85f6 e93d
000001a0: e3fc 71bd 5160 883d 45e7 ba3d 9e2d 92bd
000001b0: cbb6 fc3a e585 97bd ed64 9dbd a788 1f3d
000001c0: 4b56 e2bc f3ef 4d3d cb38 b9bd dfd3 853d
000001d0: 5338 9b3d d00c 3abe 7045 56bd 83d5 0e3e
000001e0: 6fa9 fabd 7ada ec3b 6873 1d3d 6185 5ebc
000001f0: 852d 68be 7dd9 973d cf4f 6c3d 9479 003e
00000200: 13f0 35bd ad8b 6e39 582b a33d 351d 3a3e
00000210: a8e3 d73d 50d2 3a3e d514 353e 99ca 2d3c
00000220: 6b9e c6bd 21c9 883d 732c 823d 2202 7cbc
00000230: c56d 183d 7288 87bb 8410 8cbc bc02 61bd
00000240: adff d1bd f4fa 2b3e 26e2 05bd f579 f3bd
00000250: 3f68 073e 5e81 803e 00cc 093e 14cd eb3a
00000260: 6718 d2bc 1151 bf3d 977f a83d 8645 6f3d
00000270: 8341 cabc da83 693d b35e 023c 4054 c03d
00000280: 7183 b7bd a564 9cbd 10cb 73bd f05b 723b
00000290: 7d17 053e 5964 a63c ad96 9d3d 7c7c 0d3e
000002a0: f07f 363e 6c20 f23d 3b45 ff3c 1f68 393c
000002b0: 1a43 a33c 9c1a bdbd f01e 033d cc29 033d
000002c0: 6a7d fb3c 6028 83bd c8c8 c83d ce6f b53d
000002d0: 59b2 523d ec15 813d 4c3d 353e 4b4a 4f3e
000002e0: 40ba 69bd 6f03 283d 10ca 60bd ed78 4a3e
000002f0: a0a0 873e ceee 4b3d 4371 8f3d c33d 183e
00000300: 9ed3 b73d 8cf7 02be 522e a23d 5b99 53bd
00000310: 5800 923d a938 1b3c 96ca 013e a96e ce3c
00000320: 233a 23bd 8193 363e 7946 d13d c26d 8e3d
00000330: e383 773d f7c7 ca3c 440c 62bd 975b 5b3c
00000340: c66e e63d 5083 ff3d 80ca 143d 03c4 463d
00000350: 56b1 f1bc 635f 69bd 4c69 be39 504b ba3d
00000360: 8099 eb3d 6a08 2e3d bf2d e2bd 5c1a c7bc
00000370: c270 9a3d c918 0b3e 7630 253c 6e48 f03c
00000380: feb1 52bc 1733 713d a0e4 ed3d ae08 853d
00000390: 7faa 0c3e fcaa 343d 7672 9c3c 4811 8ebd
000003a0: 6d5a ad3d 2ba0 a23b 813b ec3d 2455 223e
000003b0: 3e02 af3d e824 3c3d 3c79 593d 4711 14bd
000003c0: 1925 493e 0cb5 dfbc 205a c63d 1080 89bd
000003d0: d30f 7ebd 24a2 5abd c73c 3dbc 82f8 7a3c
000003e0: 4696 8c3d 73ae 4d3d af21 7d3d 1fb0 b33d
000003f0: 96c7 163e c791 103e 5182 08bd 4d91 77bd
