illustration/paper_data/200Neurons/old_run/e2edense_sr200_v0.03/best_model/b2.npy (npy, 928 bytes, 1 tensors)

array f4 [200]
-0.036960866 0.09376619 0.03267076 0.081273906 0.037039977 -0.08915543 0.067685194 -0.09737593
0.020984689 0.0056025153 0.03409968 -0.097317874 -0.042648934 -0.051313743 0.024457417 -0.012378458
0.04780303 -0.06368066 0.030256104 0.05141453 0.051690817 0.0034700125 -0.04213187 0.04078527
-0.0033379663 0.109197095 -0.049495474 -0.008565498 0.0042643175 -0.017810475 0.067996666 0.0005588945
0.03823952 -0.005862138 0.00043099234 0.09779917 -0.025780033 -0.023419043 0.008026117 0.007982313
0.04050755 -0.029231628 -0.022578238 0.092640735 -0.062321942 0.06298445 -0.05509429 -0.033944413
0.060171574 0.027208976 -0.095118225 -0.08953724 -0.0097228475 -0.012452179 0.030074552 -0.0076201796
-0.01971924 0.02773711 -0.07019205 0.037304755 -0.013416222 -0.07641857 0.0011029466 0.026943004
-0.025006756 -0.07224712 -0.11284229 0.018980429 -0.010666733 0.04218116 0.012033175 -0.038748566
-0.017488273 -0.08280818 0.036492344 0.02036414 -0.006412015 -0.06380586 0.050582297 -0.051428784
-0.020427136 -0.024800796 -0.082869306 -0.0328991 -0.07051933 0.08128313 -0.02673876 0.03046524
0.009730043 -0.021632122 -0.002097872 -0.047477026 -0.038920447 -0.10134293 -0.09440658 0.07128069
0.024345117 -0.031143682 0.00932179 -0.060916834 -0.077873364 -0.017076198 -0.06418089 0.0068108123
-0.011628285 -0.06596354 -0.05375129 -0.16358669 -0.07152317 0.112777404 -0.0346963 -0.06277346
0.023541372 -0.082024455 0.02328074 -0.022774067 -0.027162438 -0.032112494 0.0043747746 -0.0491309
0.028948326 -0.010732052 0.010354853 0.009553479 -0.0273647 -0.05869735 -0.0017390075 -0.00832243
0.0449616 -0.061939098 0.06786317 0.014992253 0.0957633 0.048222773 0.014679377 -0.082548656
-0.039057586 -0.046827607 0.018212289 0.0039051452 0.019945944 0.07467601 -0.029255264 0.016724216
-0.10786366 -0.044067834 -0.02661671 -0.0012266499 -0.046859194 -0.048608903 0.06586709 -0.04013626
0.048000954 0.106754765 -0.02461324 0.0005019066 0.08611253 0.028561171 0.08380607 -0.03907684
-0.05467476 -0.04054926 0.08130699 0.03061618 0.008880107 0.050608024 0.038441505 -0.0016883932
-0.036689322 -0.051785197 -0.009762171 0.007510788 -0.0036585105 -0.063850164 -0.05117398 -0.044872414
-0.036739547 -0.05522941 0.024884703 0.034662917 -0.0044297487 0.026281783 -0.065586165 0.052035596
-0.0172603 -0.04517746 -0.0040953066 -0.06774403 -0.10257562 -0.017831916 -0.06826143 -0.022867413
-0.0969119 0.048365347 -0.020523245 -0.036727 -0.028450053 -0.04471389 0.0019392403 -0.06277245
00000000: 4764 17bd 7d08 c03d c6d1 053d ef72 a63d
00000010: 3bb7 173d 1f97 b6bd 899e 8a3d 086d c7bd
00000020: 15e8 ab3c 4e95 b73b 1bac 0b3d 984e c7bd
00000030: a6b0 2ebd 5c2e 52bd ec5a c83c 04cf 4abc
00000040: 1ccd 433d 026b 82bd a6db f73c 0b98 523d
00000050: c0b9 533d 2669 633b 7892 2cbd 750e 273d
00000060: c8c1 5abb baa2 df3d c4bb 4abd 4d56 0cbc
00000070: b0bb 8b3b 46e7 91bc d641 8b3d c682 123a
00000080: 0ba1 1c3d 2d17 c0bb d0f6 e139 ee4a c83d
00000090: a630 d3bc 4bd9 bfbc fa7f 033c 3fc8 023c
000000a0: 3feb 253d 2b77 efbc fff5 b8bc 6dba bd3d
000000b0: 4b45 7fbd fefd 803d 8daa 61bd 4c09 0bbd
000000c0: 7876 763d 5ce5 de3c 58cd c2bd 4d5f b7bd
000000d0: 944c 1fbc 3904 4cbc e85e f63c b3b2 f9bb
000000e0: 3e8a a1bc f038 e33c d9c0 8fbd dfcc 183d
000000f0: b7cf 5bbc 5781 9cbd bf90 903a 93b7 dc3c
00000100: f8da ccbc 4cf6 93bd dc19 e7bd d87c 9b3c
00000110: 85c3 2ebc 27c6 2c3d cb26 453c d1b6 1ebd
00000120: 9143 8fbc 5697 a9bd ff78 153d b2d2 a63c
00000130: e11b d2bb a6ac 82bd 622f 4f3d fda6 52bd
00000140: cf56 a7bc 0a2b cbbc 62b7 a9bd 35c1 06bd
00000150: 706c 90bd c577 a63d 3e0b dbbc 3d92 f93c
00000160: c26a 1f3c d935 b1bc 747c 09bb 4577 42bd
00000170: 0c6b 1fbd e28c cfbd 3d58 c1bd 9cfb 913d
00000180: 696f c73c 0921 ffbc 6cba 183c ee83 79bd
00000190: 127c 9fbd 62e3 8bbc 4571 83bd 3c2d df3b
000001a0: 9084 3ebc e417 87bd 502a 5cbd 4583 27be
000001b0: bd7a 92bd d7f7 e63d b51d 0ebd 5f8f 80bd
000001c0: d6d9 c03c 70fc a7bd 40b7 be3c ae90 babc
000001d0: c383 debc 6488 03bd 455a 8f3b 7c3d 49bd
000001e0: 0a25 ed3c 7dd5 2fbc 67a7 293c 3286 1c3c
000001f0: ef2b e0bc a26c 70bd 69ef e3ba cd5a 08bc
00000200: a829 383d dab3 7dbd d8fb 8a3d 11a2 753c
00000210: 8d1f c43d 3e85 453d c581 703c 450f a9bd
00000220: d9fa 1fbd 4ece 3fbd f031 953c 77ed 7f3b
00000230: ad65 a33c bcef 983d bca8 efbc 3901 893c
00000240: 9fe7 dcbd 7980 34bd 490b dabc 8ac7 a0ba
00000250: 6def 3fbd 211a 47bd 53e5 863d eb65 24bd
00000260: a69c 443d 3ea2 da3d b5a1 c9bc 6292 033a
00000270: c45b b03d 1ef9 e93c 84a2 ab3d 090f 20bd
00000280: a4f2 5fbd fb16 26bd 4784 a63d c8ce fa3c
00000290: de7d 113c 5c4a 4f3d d774 1d3d 134d ddba
000002a0: 8b47 16bd b71c 54bd 83f1 1fbc 0e1d f63b
000002b0: 9fc3 6fbb e0c3 82bd cf9b 51bd 23cc 37bd
000002c0: 357c 16bd 3c38 62bd 01db cb3c b4fa 0d3d
000002d0: 6d27 91bb e54c d73c 0a52 86bd 4723 553d
000002e0: 7965 8dbc 000c 39bd ec31 86bb 62bd 8abd
000002f0: 2b13 d2bd 3d14 92bc a6cc 8bbd 7154 bbbc
00000300: bf79 c6bd be1a 463d 5d20 a8bc 0d6f 16bd
00000310: 1610 e9bc e925 37bd 1b2e fe3a d88e 80bd
