illustration/paper_data/500Neurons/e2edense_sr350_v0.09/latest_model/b0.npy (npy, 2128 bytes, 1 tensors)

array f4 [500]
0	0xbcbba6ec	-0.022906743
1	0xbdb60fdc	-0.08889744
2	0xbe57dd3f	-0.21080492
3	0xbe4eb312	-0.20185497
4	0xbe20c41a	-0.15699807
5	0xbd705a1e	-0.058679692
6	0xbd082ec0	-0.03324771
7	0xbdcf5f3a	-0.10125585
8	0x3d655012	0.055984564
9	0x3e056751	0.13027693
10	0x3cc95462	0.02457637
11	0x3bdd7f61	0.0067595695
12	0xbe0e47fb	-0.13894646
13	0x3cbcf28b	0.023064872
14	0xbc8ad46e	-0.016946997
15	0xbcb1c6e1	-0.021701278
16	0x3d0b4a2e	0.03400629
17	0xbd18d8f1	-0.037316266
18	0xbd1b2506	-0.037877105
19	0x3d9974b2	0.07492961
20	0xbe72f359	-0.23725642
21	0x3e40f7bc	0.18844503
22	0xbcefcfbf	-0.029273866
23	0x3c903193	0.017601764
24	0xbd1b633e	-0.03793644
25	0x3da02046	0.07818656
26	0x3de59a23	0.1121104
27	0x3c432f54	0.011913139
28	0x3d38c27e	0.045107357
29	0xbdd1f7f7	-0.10252374
30	0xbce0b5ce	-0.027430441
31	0xbe3ff241	-0.18744756
32	0x3db5baf7	0.08873551
33	0x3c8e2b0d	0.017354513
34	0xbe3e3b2f	-0.18577264
35	0x3d91ba08	0.07115561
36	0xbc579826	-0.013158834
37	0xbd5f1cb1	-0.05447072
38	0x3de2cb3d	0.11073921
39	0xbdbe66a8	-0.09296924
40	0x3ced0009	0.02893068
41	0x3dc123e8	0.09430677
42	0xbe556b3e	-0.20841691
43	0x3ce6f00c	0.028190635
44	0xbdeeb774	-0.11656085
45	0xbdb7e94a	-0.08980043
46	0x3c7e217d	0.015510914
47	0x3db4862f	0.08814656
48	0x3e058702	0.13039783
49	0xbd630e73	-0.0554337
50	0x3b29799a	0.0025859834
51	0x3d7e14f9	0.06203172
52	0xbdeec0bf	-0.11657857
53	0xbd2c99ba	-0.042138793
54	0x3c2ab771	0.010419712
55	0x3daa1248	0.08304268
56	0xbd9c5407	-0.076332144
57	0xbe214836	-0.15750203
58	0x3c5c4459	0.01344403
59	0x3d5c5e96	0.05380114
60	0xbcabbc3e	-0.020963784
61	0x3cae553a	0.021280874
62	0xbe242984	-0.16031462
63	0xbbf520a8	-0.0074806996
64	0x3d41b1bf	0.047288653
65	0xbca5d22b	-0.020241817
66	0x3db0d5d2	0.08634533
67	0xbdbe794f	-0.093004815
68	0x3db56df5	0.08858863
69	0xbd340883	-0.04395343
70	0xbda47d2b	-0.080316864
71	0xbdc84068	-0.097779095
72	0xbe23d027	-0.15997373
73	0xbc69dc49	-0.0142737115
74	0xbe2f0c2b	-0.17094485
75	0x3dd7eb34	0.10542908
76	0xbe8ee1b1	-0.27906564
77	0xbcc449bb	-0.023960939
78	0x3d1e893f	0.038705107
79	0x3b9db677	0.0048130113
80	0x3d6ce361	0.057834033
81	0x3e295554	0.16536456
82	0xbd8de3b6	-0.06928198
83	0xbb58b7b4	-0.003306848
84	0xbbef8349	-0.0073093516
85	0xbe005962	-0.12534097
86	0xbd7ad7ce	-0.061240964
87	0x3bcce64a	0.0062530385
88	0xbdd2b4f0	-0.10288417
89	0xbd6c64ef	-0.057713445
90	0xbd5a6943	-0.05332304
91	0x3de08796	0.10963361
92	0x3ba6b565	0.005087542
93	0x3b3af4cd	0.002852726
94	0xbcbb96c8	-0.022899047
95	0xbde6bdc4	-0.11266664
96	0x3acc0dca	0.0015568074
97	0x3dcfd88a	0.101487234
98	0xbc829f93	-0.015945232
99	0x3dae14f4	0.0850009
100	0xbd75e538	-0.060033053
101	0xb88c131c	-6.6792796e-05
102	0x3e1e116f	0.15436338
103	0xbe3fe19a	-0.18738404
104	0xbde3af26	-0.11117391
105	0xbe1afce0	-0.15135527
106	0xbc44a428	-0.0120020285
107	0x3dd7411f	0.10510468
108	0x3c55fb20	0.013060361
109	0x3d83780a	0.0641938
110	0xbdbf751f	-0.09348511
111	0xbdf3b4ea	-0.11899741
112	0x3cb2879b	0.021793177
113	0xbd67218e	-0.056428485
114	0x3d3a4210	0.04547316
115	0x3dcacb5a	0.099020675
116	0xbe13578e	-0.14388868
117	0xbca686c4	-0.020327933
118	0xbe21fcfe	-0.15819165
119	0xbda829c6	-0.08211093
120	0xbe1c87ee	-0.15286228
121	0xbe1f6746	-0.1556674
122	0x3bda839d	0.0066685216
123	0xbe13b9ef	-0.14426397
124	0x3db3d955	0.08781687
125	0x3d78e94d	0.060769368
126	0x3e181755	0.1485265
127	0x3e3e729e	0.1859841
128	0xbdb49353	-0.08817162
129	0x3c849a13	0.01618675
130	0x3d1dd331	0.038531486
131	0xbdabf22b	-0.08395799
132	0x3cb414f8	0.021982655
133	0x3dc17e3a	0.09447904
134	0xbda49d1b	-0.08037778
135	0x3d7cd941	0.061730627
136	0x3dbe4740	0.092909336
137	0x3d9b02c3	0.07568886
138	0xbe0c52b1	-0.1370342
139	0xbe4de8c1	-0.2010832
140	0x3cdf0229	0.02722271
141	0xbe3c0c83	-0.18364148
142	0xbdaae6b5	-0.08344785
143	0xbdc6e09a	-0.09710808
144	0xbbc90f6b	-0.006135871
145	0x3ca8238a	0.020524759
146	0xbd43a97b	-0.04776905
147	0xbc90d4b7	-0.017679555
148	0x3d9fed80	0.078089714
149	0xbc6f5d77	-0.014609686
150	0x3de4f370	0.111792445
151	0xbde38c13	-0.111107014
152	0x3badfc3a	0.0053096088
153	0xbd97eb66	-0.074179456
154	0xbd810e69	-0.06301577
155	0x3c4be02e	0.012443585
156	0xbe30727d	-0.17231174
157	0x3d05853d	0.03259777
158	0xbdf72450	-0.12067473
159	0x3c55046e	0.013001544
160	0x3c4e5304	0.012593035
161	0x3df48a00	0.11940384
162	0x3d1a62a9	0.037691746
163	0x3d29ae52	0.04142601
164	0x3db4a5b4	0.08820668
165	0x3d5d34e3	0.054005515
166	0x3c88b388	0.01668717
167	0x3c0c847f	0.008576511
168	0x3df6e5d8	0.12055558
169	0xbd5a7b40	-0.053340197
170	0xbcb05496	-0.021524709
171	0xbd6ff83b	-0.05858634
172	0x3d53535f	0.05159318
173	0x3d8a2899	0.06746025
174	0xbd0ba913	-0.03409679
175	0x3d4e1bc0	0.050319433
176	0x3bfb7940	0.0076743662
177	0x3bc8d630	0.0061290488
178	0x3c86bae7	0.016446544
179	0xbc426cb5	-0.011866738
180	0x3d10dd08	0.03536704
181	0xbdba1579	-0.09086127
182	0x3c2b1850	0.010442808
183	0x3d4fd8d4	0.050743893
184	0xbdd91399	-0.10599441
185	0x3cee24d2	0.029070292
186	0x3d812c27	0.063072495
187	0x3d36393c	0.044488177
188	0x3d8d84a9	0.069100685
189	0x3d32ebfe	0.04368209
190	0xbd8717d0	-0.06596339
191	0xbdff00e0	-0.12451339
192	0x3dabb2cc	0.08383712
193	0x3dad6fc1	0.08468581
194	0xbc7eb661	-0.015546412
195	0x3ddb6ab9	0.10713715
196	0x3d31537f	0.04329252
197	0xbe7deced	-0.24797411
198	0xbda1c818	-0.07899493
199	0x3dfcd2f7	0.12344926
200	0x3d5a5817	0.053306665
201	0xbdb7078f	-0.089369886
202	0xbd9389a0	-0.07203984
203	0xbd23e204	-0.040010467
204	0xbe88d60d	-0.26725808
205	0xbd642b35	-0.055705268
206	0x3dd354e7	0.10318928
207	0xbe6420dc	-0.2227816
208	0xbda516ff	-0.08061027
209	0xbe380d99	-0.17973937
210	0xbdfe6f02	-0.12423517
211	0x3c32abdf	0.010905235
212	0xbdf1416b	-0.117800556
213	0x3d1f08b4	0.03882666
214	0x3cd09a4a	0.025464196
215	0x3c061e56	0.008185944
216	0x3d72c8ca	0.05927352
217	0xbd4c02cb	-0.04980735
218	0xbddaded7	-0.106870346
219	0xbd8f0450	-0.069832444
220	0x3cb2126e	0.021737304
221	0x3cea2c59	0.0285856
222	0x3caf3846	0.021389138
223	0x3dba664f	0.09101545
224	0x3d778ea1	0.060438756
225	0x3b0de2eb	0.0021650146
226	0x3b909ff6	0.0044136
227	0xbd9f898a	-0.07789905
228	0x3dcdb6ed	0.10044656
229	0xbcc64e45	-0.024207244
230	0xbd84519c	-0.06460878
231	0xbe450c49	-0.19242968
232	0xbe34a265	-0.17640074
233	0x3d206f75	0.039168794
234	0xbe0eb59c	-0.13936466
235	0x3cc13586	0.023585092
236	0xbd42e9e2	-0.04758633
237	0x3d92c042	0.071655765
238	0xbcbbe4a1	-0.022936167
239	0xbb30edf0	-0.002699729
240	0xbdb0867a	-0.08619399
241	0xbdf3594e	-0.11882268
242	0xbe2a033c	-0.16602796
243	0x3e486062	0.19568017
244	0xbe1623b9	-0.14662065
245	0xbd4bb331	-0.049731437
246	0x3cd778d1	0.026302727
247	0x3d0c978d	0.034324218
248	0x3c6c015e	0.014404623
249	0xbd035dfb	-0.03207205
250	0xbd357b15	-0.044306833
251	0x3cc570e9	0.024101691
252	0xbdedcf8a	-0.116118506
253	0xbe03078a	-0.12795845
254	0xbb9e0f98	-0.0048236363
255	0x3e42cdd1	0.19023825
