illustration/paper_data/500Neurons/e2edense_sr350_v0.09/latest_model/b2.npy (npy, 2128 bytes, 1 tensors)

array f4 [500]
00000000: 939f b83d bf17 4dbd 4dbc 303d c7a1 6e3c
00000010: 61e3 493e e99f 143d 97e1 c73c 91a2 1ebd
00000020: 3d37 333e aeb5 42bd 058b 423d edde 9f3d
00000030: 44aa 903d a060 813d 25ae 983d 180c 123d
00000040: b2d8 ef3d c03f 00be 12d6 e1bd 5fb2 c63d
00000050: 966b db3d ea34 153e 6dc6 0dbd 5549 c83d
00000060: 542e 193e ef7c 9b3c e839 893d 4c08 2b3e
00000070: ecfd b83e 2d1c 793d 4438 d63b 0c2a 893d
00000080: 25fc a13e 4985 c83d 735f 843c 52a2 a8bd
00000090: 8df2 963d 31ec 1d3e 194d 093e 01bb 7c3d
000000a0: 7f36 303e 3d74 dc3d a778 adbd 215b dc3d
000000b0: 2f05 113e bf12 2e3c 05bf e0bc 851d f73d
000000c0: 313f 36be b329 1e3d dc33 d5bd 8ba8 45bc
000000d0: a9e2 113e 03e1 40bd 8136 233e e7bd 58bd
000000e0: 408a 8b3c 999b 3f3e 2535 c63b 85d8 093d
000000f0: c3d6 2bbe e5ec 8c3d 9c39 c23d 2387 f03d
00000100: 2749 6d3c a7e0 fabc 5d54 f9bc 8b4e 043e
00000110: 0235 313e d37c 01bd e803 63bc cca6 debc
00000120: f8b0 9cbd 3279 fd3b c76d 4f3d 813d 8a3b
00000130: 5a3f 52bd 1197 02be f5fa 813d 4e78 63bd
00000140: 0809 1fbd 497a 3c3e 4b10 02bd 21a2 85bc
00000150: 24dd 943e 98a3 60bb 71a0 14bc 1d01 1bbd
00000160: 1077 88bc e365 243e d6ff b7bc e8d6 d43d
00000170: 00ba d33b 6ee1 7e3e 07c0 e7bd 9865 153e
00000180: b2ba 15bd df2d 863c 9a81 273e ffd0 c23d
00000190: c3f1 49bd 311f 65bc 8d90 40bd da7b 833d
000001a0: ee82 c43d 9291 403e 1f28 27be acb4 bc3d
000001b0: 4078 e23d e4f2 1dbe c80a 2c3a a924 47be
000001c0: 4b2b c23d 0cea 093e 8cc5 e53c e0fa 553d
000001d0: e4f4 7fbe 01f5 43bd e6c8 afbe 83a5 0cbc
000001e0: f221 c33d 02ec 103c 92ec 9c3c 2f2b d8bd
000001f0: a133 ac3e 1466 843d c53d 663e 31ee ad3d
00000200: a3be f83c 6cff 1a3d 1661 da3d e1a7 c13d
00000210: e30d acbc 4ec5 3f3e 9782 afbd d657 153d
00000220: 172d 0e3d e03c 0d3e b9bb fc3d 31f6 5a3d
00000230: c573 20bd 16aa aebb 05d9 aabe a69f 243b
00000240: 34b4 a13c 0d0a 8e3d 52d6 4fbe 3156 6e3e
00000250: aa69 bd3c cb60 8a3d 343b a2bc 43ea 1dbd
00000260: 7c14 1d3e 7353 903d 2529 443d 98e8 06bd
00000270: 6be4 8a3a fb9b 36bd 44f9 80bd 7d01 083b
00000280: 229a f63d 8867 8a3d 33ae 72bc 233a 133d
00000290: c529 773d 303f 383e 069d b53e 3ce1 e73d
000002a0: a42a 253e 9e2c ee3d dddb 3d3d 241c 913d
000002b0: fb3b 9a3c 7d31 903d ca7b 653d c27b 23bc
000002c0: be06 803e 82d7 f0bc d87d ff3c f65e 153e
000002d0: 0bbf 473e a220 0c3e 9b65 d33c 4cce 0e3d
000002e0: eb37 febc 7806 dd3d 562e a03d 4652 1a3d
000002f0: a44c 99bd 2516 053e 3976 0e3e f090 053d
00000300: fcee bfbd e738 713c 669d 573e 6d39 823e
00000310: 0e51 b63d 0aa0 283d 2db4 56bd 8756 c1bd
00000320: ea77 1ebe f985 ec3c d010 76bb d199 bdba
00000330: 7da3 da3c 2f65 803d 238e 6e3d f3cc f43d
00000340: 8789 bb3d 9752 ebbd 8fd9 883c c7ea 2a3e
00000350: 4fa9 193e a998 a03d 9c22 cf3d d2c7 f93d
00000360: a801 b13c 889c 073e f9a7 38be 0747 0b3d
00000370: 5e8f ad3d e0c6 c3be b017 093b 5eda b13d
00000380: 28e9 8cbc dbed 663d 9a80 3dbd 7d11 8f3d
00000390: 6973 633d 1f98 c63b 5cf4 1c3e 0f5f 7a3d
000003a0: 319c 793d a83a 5fbb caaa 483a 5a99 c7bc
000003b0: 3707 0d3d 3af1 3c3d 6bc3 943d a8f4 593d
000003c0: d08f 743e a080 ce3d 39e6 85be 1e38 0c3d
000003d0: 38bb 65bb 24a5 893d d9c2 cf3d 5c80 3c3d
000003e0: 37ee 183d 7903 483e c1a2 a13d f1e6 8cbd
000003f0: c6ae 823e 0a6a 8a3d 5660 c33c 5e16 cdbd
0.09014811 -0.050071474 0.043148328 0.014564938 0.19715644 0.036285315 0.024399562 -0.038729254
0.1750154 -0.047536545 0.04749586 0.078061916 0.070637256 0.06317258 0.074550904 0.035656065
0.11711253 -0.12524319 -0.11027159 0.0970199 0.1071388 0.14570966 -0.03461306 0.09779612
0.14959079 0.018980471 0.06700498 0.16702384 0.36131227 0.060817886 0.006537469 0.06697473
0.31637684 0.09791047 0.016158795 -0.08234085 0.07370482 0.15422131 0.13408317 0.06170178
0.17208289 0.10764358 -0.08470278 0.10759569 0.14162134 0.010624587 -0.027434835 0.12066177
-0.17797543 0.038613986 -0.10410282 -0.01206411 0.1424662 -0.047089588 0.1593876 -0.05291548
0.017033696 0.187117 0.006048816 0.033653755 -0.16781144 0.068811215 0.09483644 0.11744525
0.014482773 -0.0306247 -0.030435735 0.12920587 0.17305377 -0.031613182 -0.013855912 -0.027179144
-0.076509416 0.007735395 0.0506418 0.0042187576 -0.051329948 -0.1275294 0.063466944 -0.055534653
-0.038826972 0.18406023 -0.03175382 -0.01631266 0.29074967 -0.0034277197 -0.009071455 -0.03784286
-0.016658336 0.16054492 -0.02246086 0.103925526 0.006461382 0.24890682 -0.11315923 0.14589536
-0.036555 0.016379295 0.16358033 0.09512519 -0.049302828 -0.013984487 -0.047012854 0.06420107
0.09595285 0.1880553 -0.16323899 0.09214148 0.11058092 -0.15424687 0.0006562886 -0.19447578
0.09480914 0.13468188 0.0280483 0.052241206 -0.24995762 -0.047841076 -0.3433296 -0.008584383
0.09527959 0.008845331 0.019155774 -0.105551116 0.3363314 0.06464782 0.224845 0.08492697
0.03036434 0.037841246 0.10663049 0.094558485 -0.021002715 0.1872761 -0.0856983 0.03646072
0.03471097 0.13792753 0.12340493 0.053457443 -0.039172906 -0.0053303344 -0.33368698 0.0025119572
0.019739248 0.06935511 -0.202966 0.23275067 0.023121674 0.06756743 -0.01980362 -0.038553488
0.15339845 0.07047167 0.0478908 -0.032936662 0.0010596638 -0.04458235 -0.06297544 0.002075284
0.12041117 0.06758028 -0.01481204 0.035944115 0.06034257 0.17992854 0.35471362 0.11322257
0.16129547 0.11629604 0.046352256 0.070854455 0.018827429 0.07040689 0.056026258 -0.009978237
0.25005144 -0.029399637 0.031187937 0.14587006 0.19506471 0.13684323 0.025805285 0.03486471
-0.031032523 0.107922494 0.07821338 0.03767612 -0.07485321 0.12996729 0.13912286 0.032608926
-0.093717545 0.014723039 0.21056136 0.25434437 0.08902179 0.04116825 -0.052417923 -0.09440332
-0.15475431 0.028872477 -0.0037546642 -0.0014465397 0.026689285 0.06269299 0.05824102 0.119531535
0.09157091 -0.11490362 0.016705303 0.16691123 0.15005992 0.078416176 0.10114023 0.12196316
0.021607235 0.13243306 -0.18032826 0.034003284 0.08474611 -0.38237667 0.002091866 0.08684228
-0.017201021 0.05637918 -0.046265222 0.069857575 0.055529986 0.0060606147 0.1532759 0.06112581
0.06093997 -0.0034062061 0.0007654844 -0.024365116 0.03443071 0.04612849 0.072638355 0.053211838
0.23882985 0.10083127 -0.26152208 0.034233205 -0.0035054218 0.06720951 0.10144586 0.04602085
0.037336554 0.19532575 0.07892371 -0.06879986 0.25523967 0.067585066 0.023849647 -0.10014032
