illustration/paper_data/200Neurons/e2edense_sr300_v0.03/best_model/b1.npy (npy, 928 bytes, 1 tensors)

array f4 [200]
000000 7d fd 9d 3d f4 87 69 3c ba f0 8b bc 89 a4 96 bd
       0.07714365 0.014253605 -0.01708256 -0.07355601
000010 bd 3b 64 3d 46 16 2d 3d 7b 82 1f bd 1c 39 e0 bd
       0.055721033 0.04225757 -0.038942795 -0.10948393
000020 4f d9 b2 3d 1d 74 b1 bc 1f 11 df 3d 79 2b a5 3c
       0.087328546 -0.021661812 0.108919375 0.020162331
000030 b2 a4 b3 3d 04 5b 21 3d 49 ae ba 3c c2 c6 1b 3c
       0.087716475 0.03939344 0.022788184 0.009507837
000040 b0 b2 f1 bd 97 e6 a9 bc 97 f2 eb 3b 81 18 22 3d
       -0.1180166 -0.020739837 0.00720055 0.03957415
000050 73 91 e1 3b 0f aa b4 3c ea 31 48 3c 54 75 d9 3c
       0.006883794 0.022053747 0.012218932 0.026545204
000060 e5 02 85 3d 9f 6b f9 3b ff f5 61 bd 48 1e b5 3c
       0.06494693 0.0076117064 -0.05516624 0.022109166
000070 d4 9d c3 bd b5 1a e8 3c 1b 30 a5 3c 7e 70 ad bb
       -0.09551588 0.028333047 0.02016454 -0.005292951
000080 a7 9d 87 bd 9e 9d 35 3c ce 91 b2 bd 1c 09 9a bc
       -0.06621867 0.011084942 -0.08719216 -0.018803172
000090 a0 54 b0 bd 7f 81 5b 3d 26 99 69 bd c4 a1 d3 bc
       -0.08609891 0.053590294 -0.05703082 -0.025833972
0000a0 18 19 0a 3d a6 48 b1 3d 48 29 26 3c ee ab fd bd
       0.033715338 0.08656435 0.010141678 -0.123863086
0000b0 4b a6 16 bd 5f e6 29 bd fa 4e 37 bc 21 9f b0 3c
       -0.036779683 -0.041479465 -0.011188263 0.021560254
0000c0 1a 8e bc bb dd 29 ec bc 06 0e 0d 3d a4 05 fe 3d
       -0.0057542445 -0.028828556 0.034437202 0.124034196
0000d0 78 62 f9 3b 17 97 5f bd 36 fd 81 3d 34 7b 24 3d
       0.0076106153 -0.05458745 0.06347124 0.04015656
0000e0 fb aa 54 3d 51 14 5f bd 06 20 99 3d e5 7e 9a 3d
       0.051920872 -0.054462735 0.07476811 0.075437345
0000f0 a1 9c a3 bd f2 d0 5d 3d a6 c3 90 bb 04 01 4c 3c
       -0.07988859 0.054154344 -0.0044178544 0.012451414
000100 49 98 f0 3a ce 85 ef 3d bd e5 21 bd a0 47 29 bd
       0.0018355931 0.11695443 -0.039525736 -0.041328073
000110 57 a9 b9 3d fb b5 40 3d 48 6b 80 3d 87 cd b7 bd
       0.09065502 0.04704855 0.06270462 -0.08974748
000120 33 06 4d bd 0e 5d bb 3c f8 5d 94 3d 42 86 7c bc
       -0.05005474 0.02287152 0.072444856 -0.015412869
000130 3c 9c e3 bc 44 f1 b0 3b 5c da c3 bd c0 7a 4e bd
       -0.02778446 0.005399855 -0.09563133 -0.050410032
000140 fb 61 d2 3c c5 4a 35 3d 1e b9 87 bd c7 77 c1 3c
       0.025681486 0.04426076 -0.06627105 0.023616685
000150 4a 9f 17 bd 56 06 6d 3d 9c 1d cb 3c 37 63 b6 3c
       -0.037017144 0.05786737 0.024794392 0.022264106
000160 67 05 ab bb 7b 21 53 3c 80 8b 00 be 1b cc 9c bd
       -0.00521915 0.0128864 -0.12553215 -0.076561175
000170 13 d8 7a bd 44 07 ac bc 90 6c 9f 3b 2b 76 3b 3d
       -0.06124122 -0.020999558 0.0048652366 0.04576699
000180 8c 2a c7 bb 8b 9c 05 bc 90 b3 75 bc ad 81 b7 3c
       -0.00607807 -0.0081549985 -0.014996424 0.022400701
000190 e4 32 7e bc d3 ad 39 3d 9d fc 2e 3d 73 55 41 3d
       -0.015515063 0.045331787 0.04272138 0.04720063
0001a0 8e 8f 4c 3d 88 0e 68 bc 6b 6c c5 3c b8 9d 59 3c
       0.049941592 -0.014163621 0.02409955 0.013282232
0001b0 d6 d4 20 bd dc 66 09 bd 17 12 87 3d fc 9f 85 bd
       -0.039265476 -0.03354536 0.06595247 -0.06524655
0001c0 e4 3d 29 bd 9e e9 79 3d ec f4 4d bd f3 00 c3 bc
       -0.04131879 0.06101381 -0.050282404 -0.023804164
0001d0 75 e0 c3 3c 59 5e 58 3d 14 46 98 3b 0f 72 9b 3c
       0.02391074 0.052824352 0.004647026 0.018975286
0001e0 43 25 2a 3b 0a df d2 bb 84 30 3b bd b6 56 8d 3c
       0.002596215 -0.0064352797 -0.045700565 0.017253261
0001f0 a4 48 be 3c df 20 97 3d 98 13 8d bd 2c a7 d2 3d
       0.023227997 0.073793165 -0.06888503 0.10285792
000200 b9 11 62 bb 07 82 cb 3c 45 b8 dc 3d 0a 3e 9a 3d
       -0.0034495427 0.024842275 0.10777334 0.07531364
000210 0c 53 3b bd ca 40 6b 3d b4 60 ba 3b 55 b4 95 3d
       -0.045733497 0.057434835 0.0056877974 0.07309786
000220 55 d0 ac bd bb d0 02 bc a0 96 06 3c db bd 20 bd
       -0.08438174 -0.0079843355 0.008214623 -0.03924356
000230 7a c3 ec 3c e7 88 b9 3b ee 3c 5f bc ea 61 89 bc
       0.028901804 0.005662072 -0.013625367 -0.016770322
000240 40 bb 1a 3c 25 3e 60 3c d6 38 95 3c 16 9c ff bc
       0.009444058 0.013686691 0.018215578 -0.031202357
000250 2f d4 0b 3b 7b f5 cc bc 18 0f 3d bd 57 df 95 bd
       0.0021336188 -0.025019398 -0.046156973 -0.07317989
000260 4f 83 24 bd fc 9b 9a 3c 22 2e 43 3d ea 29 c6 bd
       -0.040164288 0.018873207 0.047651418 -0.09675963
000270 6d ee 2d 3d 82 77 cb 3c 30 de f4 bd 72 6f a2 3d
       0.04246371 0.02483726 -0.119564414 0.07931413
000280 76 c9 0b bd cd e5 06 bd b6 8e 48 3d eb 3c 45 bd
       -0.034127675 -0.032934 0.048964225 -0.0481538
000290 49 6a 53 bd 3e b6 13 3e 79 aa 75 3d 26 77 3f bb
       -0.051615033 0.14424989 0.05997703 -0.0029215305
0002a0 be 5a 5e bc 65 38 17 bd 1c 8f 22 bc e8 17 30 bd
       -0.013571439 -0.036919016 -0.009921815 -0.04299155
0002b0 03 64 e5 bd 38 8f 96 bb 1f 2d 27 bd f5 d4 a6 3d
       -0.11200716 -0.0045947097 -0.040814515 0.08146087
0002c0 f0 29 95 3c ad 16 87 3d 2c 3c ea bc 80 9e ab 3d
       0.018208474 0.06596122 -0.028593145 0.08379841
0002d0 62 76 27 bc 29 e9 39 bc 64 19 85 3d 77 26 97 3c
       -0.010221096 -0.011347094 0.064989835 0.018450959
0002e0 73 7d a1 bd 43 cd 42 bd 5d 0d e1 3d 6e 06 e5 3d
       -0.07885256 -0.047559034 0.10988877 0.11182867
0002f0 09 5b 1b 3c 7c ba b5 3d 46 4f 05 be e1 10 04 3d
       0.009482154 0.0887346 -0.13018522 0.03224266
000300 2a 28 0c bd d4 bb ed 3c 6b c4 44 ba 92 ad 34 3d
       -0.03421799 0.029020227 -0.0007506075 0.044110842
000310 ce 7a 53 bd 62 2a 04 3d 4d 77 aa bd 67 4d b7 bd
       -0.051630788 0.032266982 -0.08323536 -0.0895031
