illustration/paper_data/200Neurons/e2edense_sr300_v0.15/best_model/b1.npy (npy, 928 bytes, 1 tensors)

array f4 [200]
000000 1f 35 5b bd 9b 95 59 3d 98 ae 00 bc bf 3e c1 3d
       -0.053517457 0.05312119 -0.007854126 0.09435796
000010 80 c5 13 be 88 08 4d 3c 42 f8 5c bc 7b 5c 42 bc
       -0.14430809 0.012514241 -0.013486924 -0.011862869
000020 79 74 4a 3e 18 7b 37 be 5e aa 19 3c 79 c1 02 3e
       0.19770993 -0.1791805 0.009378998 0.12769116
000030 1c f2 19 3e f3 ce 9f bd fc f7 a6 3d 18 f1 c2 be
       0.15033764 -0.07803144 0.08152768 -0.38074565
000040 8b 60 98 bd c3 a5 7d 3c cb e9 cc bd ad 6e 42 3e
       -0.07440289 0.015481415 -0.1000553 0.18987532
000050 dc 01 19 3d 98 a8 06 3d 7b fb 97 3d c7 90 80 bc
       0.03735529 0.032875627 0.07421013 -0.015694035
000060 c1 90 1f be ed 98 ab bc a0 9d 87 be 34 82 31 3e
       -0.15582563 -0.020946944 -0.26487446 0.17334825
000070 1f 5e 7f 3d c0 a8 b3 bd 02 56 1f 3e e7 b8 4f be
       0.06234562 -0.08772421 0.15560153 -0.20285378
000080 fb 34 b1 bd 34 be 9e be 21 cc 17 3e e1 3c 58 3d
       -0.08652683 -0.31004488 0.14823963 0.052792434
000090 cf 13 4d 3c ca 23 e4 bc 7e 6d d4 3d bd ad 6a be
       0.01251693 -0.027849097 0.103724465 -0.22917838
0000a0 bb 6d 2f 3d cd b1 04 3e 79 82 be 3d cf 69 cb 3d
       0.042829257 0.1295845 0.093022294 0.09932291
0000b0 b7 9c ba 3d 08 e5 45 3e b4 53 42 3e cf 3a 28 be
       0.09111922 0.1932565 0.18977243 -0.16428684
0000c0 e9 60 05 be 87 6a 27 3e ce fb 45 3e c0 95 0c 3e
       -0.1302525 0.1634923 0.19334337 0.13729
0000d0 ac 9a 8a 3e c8 b1 24 bd 66 08 56 bd 1e ef 95 3c
       0.2707113 -0.040208608 -0.052254103 0.018302497
0000e0 0d f4 8a bd 6c fc 8f 3d 5e c2 87 bc 17 92 67 3d
       -0.0678483 0.070305675 -0.016572174 0.056535807
0000f0 db f2 8e bc aa 0a 65 bd 4c 43 9f bd ad 28 98 3c
       -0.017449787 -0.055918373 -0.07776508 0.018574083
000100 be 34 1e 3e ef 84 22 3d 7c 77 62 be 31 fd 71 3e
       0.15449807 0.039677557 -0.22115892 0.23631741
000110 f1 18 97 3d 42 d4 2a 3e ec 6c 55 3d ee ed 12 be
       0.07377804 0.16682532 0.05210583 -0.14348575
000120 f9 16 ee 3d 24 ea 85 be cd e1 a6 3d 2e 11 8c 3d
       0.116254754 -0.26155198 0.08148537 0.06839214
000130 b3 7a b5 bd 3c 3e 93 3e cb d2 0d 3d 8b a6 c3 bd
       -0.08861294 0.2875842 0.034624856 -0.0955325
000140 2c 07 f8 3d 85 96 6b be 65 af 8d 3d 32 3e 0e 3e
       0.12110743 -0.23006637 0.069182195 0.13890913
000150 db 6b c9 3d b4 80 1b be 7c 94 e8 3d 82 d1 39 bd
       0.09835025 -0.15185815 0.11356446 -0.045365818
000160 95 8f 47 3e 2d 83 4e 3e d3 8c 2d bd 22 37 79 3e
       0.19488366 0.20167227 -0.04237063 0.24337438
000170 61 b8 cb 3d 4c e6 6d bd 50 51 32 3e 99 01 4b bd
       0.09947277 -0.058080956 0.17413831 -0.04956207
000180 ad 8d 9b 3d d3 19 1d bd 01 a8 a0 bd cf cf 33 be
       0.07595382 -0.038354706 -0.07844544 -0.17559741
000190 51 e0 8f be 2e eb bb 3d d5 f7 40 be 60 e7 46 3e
       -0.28100827 0.09175716 -0.1884454 0.194242
0001a0 65 18 20 bc 5e db bb 3d 88 fc 02 be 3a ee dd bc
       -0.009771441 0.091727 -0.12791646 -0.027091134
0001b0 6d c2 d0 39 80 7a 24 be fd 5b 7c bb aa f7 0a be
       0.0003981771 -0.16062355 -0.0038506978 -0.13571039
0001c0 75 68 00 bd ee 69 4a be c5 a2 29 bd cf 5f 51 3e
       -0.031349618 -0.19766971 -0.041414995 0.20446704
0001d0 ee 4a 08 3e ca c7 08 bd b8 8a b9 bd 0e 46 9c 3d
       0.13309833 -0.03339366 -0.090596616 0.07630549
0001e0 f2 69 aa 3d 06 05 c0 bb 04 6a 05 3e 39 32 9d 3d
       0.08320989 -0.005859974 0.13028723 0.07675595
0001f0 a5 52 15 be 15 5e a8 be 2b 41 5e bd 5e ec 23 bd
       -0.14582308 -0.3288428 -0.054261368 -0.04002034
000200 48 9c ac bd b7 ed 57 bd d0 7d e2 3d 02 12 02 be
       -0.08428246 -0.052716937 0.11059153 -0.12702182
000210 8b 23 a5 3d 00 71 19 3e 96 ab 47 be 9b c5 6c bd
       0.0806342 0.14984512 -0.19499049 -0.05780564
000220 7f 55 4b bd 71 b0 f9 3c d0 28 51 bd 7f 16 ff bb
       -0.049642082 0.030479642 -0.051064312 -0.007784664
000230 b4 8f 76 3e 66 1a 05 bc d3 cc 4b bd b5 dd 90 be
       0.24078256 -0.00812397 -0.049755882 -0.2829415
000240 ba 49 25 be 81 ea c0 3d 14 fc 56 3e cf f9 31 3e
       -0.16141406 0.09419728 0.20994598 0.1738045
000250 66 10 07 be 2a 46 48 3d 31 e3 88 3d 00 98 aa bd
       -0.1318985 0.04889504 0.06683958 -0.08329773
000260 98 b4 11 3e 7e 43 03 be 50 a1 57 3d 10 8c 2c 3d
       0.14229047 -0.12818715 0.052644074 0.04212576
000270 5f 92 c4 bd 9e 88 62 bd 72 01 8d bd bd f8 52 bd
       -0.095982306 -0.05530607 -0.06885041 -0.051506747
000280 37 95 c3 3d a1 63 87 bd 07 19 a3 3d 53 f5 17 be
       0.09549945 -0.066107996 0.07963758 -0.14839678
000290 c4 ca f6 bc 88 79 00 3e a7 d4 d4 3d e2 bb 48 3e
       -0.030125983 0.1254636 0.10392123 0.19602922
0002a0 0b 23 0b be 7e 18 d7 be 61 69 6d bd a4 5f 9f bc
       -0.13587587 -0.42010874 -0.057961825 -0.019454785
0002b0 f8 b3 11 bd f6 7f a2 3d ca bc 32 be 08 4f 1a 3d
       -0.035572022 0.07934563 -0.1745483 0.037673026
0002c0 a6 f6 a5 3d c5 ab e6 3b 65 78 6b 3d 0b 59 38 3e
       0.08103685 0.0070395195 0.057487864 0.18002717
0002d0 34 37 0a be 37 34 da 3c 4f 8d 62 3c 24 84 5c 3e
       -0.13497621 0.026636226 0.013827636 0.21534783
0002e0 05 49 d2 bd f9 7f 07 3e 63 bb 97 be f2 98 34 3e
       -0.102678336 0.13232411 -0.29635152 0.17636469
0002f0 75 f3 24 bc bf 7e dd bd a4 9d d9 3a d9 f6 2f bc
       -0.01006781 -0.108151905 0.0016602767 -0.010740005
000300 d7 2b b4 bd 6d cb df bd 58 c8 03 be e3 aa 93 3d
       -0.08797424 -0.10927472 -0.12869394 0.072103284
000310 9e ff a1 3d f2 6d f3 bd a9 09 1a 3d 70 28 fe bd
       0.07910083 -0.11886205 0.03760687 -0.124100566
