illustration/paper_data/timings/timing/e2edense_sr320_v0.07/best_model/b1.npy (npy, 928 bytes, 1 tensors)

array f4 [200]
00000000: 4d83 19bc 6fce 303d f1ed cb3d 2987 2ebc
00000010: 05c7 47bd e5d3 9d3c 0298 b4bd 940e 333d
00000020: 29eb f33a 74a4 723d ab1b 45bc 4cce 93bc
00000030: c2d8 9b3d 7a97 d33c 30dd 8ebd 88d8 d03d
00000040: 118d 0a3d 37d2 1dbd 91b3 97bb ec6f 3cbe
00000050: 61be 473d ccb6 bc3b 8227 523a 6bc9 9abd
00000060: 831e 323c 4a97 a9bb 3489 db3c ab87 703d
00000070: a997 403d c65c bc3c 2d5a 64bd 1dfa 2a3d
00000080: 0208 4abc a810 0f3a e39b 10bd a611 a73c
00000090: 9fc9 013d 1c28 55bc f46e eebc f6f9 873d
000000a0: d298 a63d 558f 343d ac04 c53c bb49 a3bd
000000b0: 0ecf 5abc d026 46bd 45a4 3bbe 49f3 0b3d
000000c0: ad76 06bd d0fd 3abc f591 ce3d 7c84 913c
000000d0: 71e6 aebd ac6a c63d da49 d83c 381d 813d
000000e0: b094 d9bc 9034 5abc 6f6d a83d fd5e a43d
000000f0: 20fc cabd 786f 09bd a43f 24bd f102 c3bd
00000100: db0e 923c 685e f43c 9c43 e33b 8be8 9c3d
00000110: 2e04 533c 4d05 083e 0c1d 0f3d 9e74 b6bd
00000120: bd63 21bd ca54 ce3d b887 323d 0a72 a23d
00000130: 11d4 9abc 4ed1 e5bd bb19 f53b 0126 8f3c
00000140: 2cab ed3d 6586 a7bd 7b05 ea3d 2a22 9bbd
00000150: 48e2 88bd 50b7 d3bc c0ad ba3d a402 8a3d
00000160: abf9 053e 52a5 3bbb 3e6e 8d3c 92e7 513c
00000170: 1cbe cb3c b91a f53c 2a33 9fbd df20 dbbd
00000180: 0966 053c 1e77 c1bc 08f6 debd 5848 3cbd
00000190: b524 433b 36f3 0f3c 4838 163b 9bf4 453d
000001a0: d670 053d 2254 9d3d 60b5 a33c a77a f63d
000001b0: 75d4 59bd 78c2 b1bd ef8d 01bd 9d72 643d
000001c0: ac03 e43d 90c7 0d3e 6c0b babd f6ca 77bd
000001d0: cd7a 013d d0e6 1f3c 65a6 43bd baa2 943c
000001e0: de6a 013c 54bb 78bd 4cfe aa3c 3cfa 64bd
000001f0: 1522 5bbc 17c8 9cbb 2098 14bd 180a dfbc
00000200: 071f 49bd 8d64 d9bd cac5 76bd 7a20 553d
00000210: 44d7 97bc f7b6 0a3d 578e aebc 9f0e 32bd
00000220: 35c5 ce3d 1c0c 6b3d ed85 99bd ab08 a63b
00000230: 66aa 743d ca23 2c3d 16a1 1abd acda 83bc
00000240: 2560 9f3c 7c1f 9fbd 10df 6a3d 3ff9 23ba
00000250: 52fa 31bd b97e 8dbc c110 873d 8371 3abd
00000260: aa7b 143c bfa8 853d e8f6 3abd 126a 3e3c
00000270: 401f 5e3c ca67 9dbd 1383 003c 3eca a53d
00000280: 8344 71bd c3c9 9f3d dec4 84bd c95e 20bd
00000290: 4df9 403b 5bfe 4c3d 399e 9e3c e4a6 9f3d
000002a0: 4d9b ab3d 209e d53d 3e00 363d c9ce a83d
000002b0: 55cc 563d 9fd9 a3bd 739e 0dbc ed13 0b3d
000002c0: 61ea 65bd 677f d3bc c9e3 7dbc 3c22 88bd
000002d0: 1990 af3d 8ad5 56bd af22 143d 8adf 673d
000002e0: 60c3 093c 512b a13c b5db 66bd 91a8 bb3d
000002f0: a32d 06bd 5416 80bd 1796 69bc 7e7d c0bd
00000300: 16f9 223e 938e 81bd a190 b43c 0f66 0dbd
00000310: bcfc 803d 04d5 11bd 7a43 1d3d 7438 fabc
-0.009369683 0.04316562 0.09957493 -0.010652342 -0.048773784 0.019266078 -0.08818056 0.043715075
0.0018609512 0.059238866 -0.012030522 -0.018042706 0.07609703 0.025829066 -0.06975782 0.1019755
0.033825938 -0.038530555 -0.0046295603 -0.1840207 0.048765544 0.005759096 0.00080167514 -0.07557949
0.010871532 -0.0051755058 0.026798822 0.058723133 0.047019634 0.022993457 -0.05575006 0.041742433
-0.012331011 0.0005457499 -0.035304915 0.020394158 0.03168642 -0.013010051 -0.029105641 0.06639473
0.08134617 0.044082005 0.02405008 -0.07973047 -0.01335503 -0.04837686 -0.18324383 0.03416756
-0.03282802 -0.011413053 0.10086433 0.017763369 -0.08540047 0.09688315 0.026402403 0.06304401
-0.026560158 -0.013318196 0.08223998 0.0802593 -0.0991137 -0.03355357 -0.040099755 -0.095220454
0.01782935 0.029830173 0.00693555 0.076615416 0.0128794145 0.13283272 0.03493981 -0.08908962
-0.03940176 0.10074766 0.043586463 0.079319075 -0.01889995 -0.11221562 0.007479874 0.017474176
0.11604914 -0.081799306 0.114268266 -0.07574876 -0.06683785 -0.025844246 0.091151714 0.06738785
0.13083522 -0.0028632474 0.017264482 0.012811558 0.024870925 0.029919969 -0.07773431 -0.10699629
0.008142003 -0.02361637 -0.108867705 -0.04596743 0.0029776518 0.008786013 0.002292173 0.048328977
0.03257831 0.07682063 0.019983947 0.12035113 -0.05318113 -0.0867967 -0.0316295 0.055773366
0.11133513 0.13845658 -0.0908421 -0.060496293 0.031611253 0.00975962 -0.047766108 0.018144
0.007899014 -0.060725525 0.020873211 -0.055902705 -0.013374825 -0.0047845948 -0.03627789 -0.027226493
-0.049101856 -0.10614882 -0.06024722 0.052032925 -0.018535264 0.033865895 -0.021308107 -0.043470975
0.10096208 0.057384595 -0.074962474 0.0050669513 0.059732817 0.04202632 -0.03775128 -0.016095482
0.019455025 -0.07769677 0.057341635 -0.0006255097 -0.043451615 -0.01727234 0.065949924 -0.04551841
0.009062687 0.065263264 -0.045645624 0.011621969 0.013557255 -0.07685812 0.0078437505 0.08095215
-0.05890323 0.07802155 -0.06482862 -0.039152894 0.002944547 0.05004726 0.019362556 0.07795504
0.08379231 0.104305506 0.044433825 0.08242566 0.05244096 -0.08000492 -0.008643734 0.03395455
-0.056131724 -0.025817586 -0.015496203 -0.06647155 0.08572406 -0.05244974 0.03616589 0.056609668
0.008408397 0.019673975 -0.056361873 0.09163011 -0.032758366 -0.06254259 -0.014256976 -0.09398936
0.15915331 -0.06326022 0.02204162 -0.03452116 0.06298205 -0.03560354 0.03839443 -0.030544497
