illustration/paper_data/timings/timing/e2edense_sr320_v0.07/best_model/b3.npy (npy, 928 bytes, 1 tensors)

array f4 [200]
000000 96 64 3b 3e ea 2f f8 bd 69 fb 86 3d 11 c1 e7 bc
       0.18300089 -0.12118514 0.065909214 -0.028290303
000010 43 7e a0 3c 55 cd 92 bd f7 68 cd 3b 96 f2 d7 3c
       0.019591456 -0.0716807 0.0062686163 0.026360791
000020 19 05 ac 3d 87 30 9b 3d 2c 5c 72 ba a9 28 1f 3a
       0.0839941 0.07577615 -0.0009245302 0.00060714275
000030 80 bb 08 3d db 6b 55 bd 90 08 cf bc 8f 39 2f 3d
       0.03338194 -0.052104812 -0.025272638 0.0427795
000040 09 76 5c 3d db d2 58 3d 51 44 13 bd f0 03 28 3d
       0.053823505 0.052935462 -0.035953823 0.04101938
000050 d4 63 72 3d 5d cc c9 3d ca 57 fe 3c f0 6c 23 bd
       0.059177235 0.09853432 0.03104772 -0.039898813
000060 ba 45 16 bc 10 df 1f be 11 52 a4 3d 00 34 d0 3d
       -0.009171898 -0.15612435 0.080234654 0.10166168
000070 b0 94 fd 3a a7 df c9 bc 45 72 a4 bd 36 83 f6 bc
       0.001934668 -0.024642779 -0.08029608 -0.030091863
000080 b1 be 4e bd 91 19 8c 3b f6 78 93 3d 36 c4 aa 3d
       -0.050474826 0.0042755087 0.07200806 0.083382055
000090 66 4a 74 bd 61 6f 64 bd ee c7 32 bd dc 8b 85 3b
       -0.059641264 -0.05577028 -0.0436477 0.0040755104
0000a0 46 ce 06 bb 14 f9 df 3b 6b ca 11 3e ad dd a0 bc
       -0.0020569726 0.0068351123 0.14237373 -0.019636953
0000b0 b8 b5 dc bd fa 42 4f 3c 59 10 10 3d 03 86 b3 3b
       -0.107768476 0.012650246 0.03517184 0.005478622
0000c0 aa 41 a6 3d 07 03 0c bd 67 69 e6 3c 40 39 92 3d
       0.08117993 -0.034182575 0.028126432 0.07139826
0000d0 e7 fe 7e bc be 31 69 3c 6e 74 6d 3d a6 0c 7f bd
       -0.015563703 0.014233051 0.057972364 -0.062267922
0000e0 13 d9 eb bd ec 67 88 3b d8 fe 4f 3c 16 de 11 3e
       -0.11516013 0.004162779 0.012695037 0.14244875
0000f0 f4 15 df 3a f2 42 2b bd 53 bc 03 3d 70 3b 52 bc
       0.0017020092 -0.04181189 0.03216202 -0.012831554
000100 e9 52 f8 bc dd ad 5c bd 5e 3b 96 bb 56 ad c0 3d
       -0.030312972 -0.053876746 -0.004584714 0.09408061
000110 88 d7 b7 3d 8a 6a 11 bd 0e 30 2c bd 91 d7 91 bb
       0.08976656 -0.035501994 -0.042038016 -0.0044507463
000120 72 95 6c 3d 1f 65 3c bd e1 80 2b 3d e6 06 d9 3b
       0.05775971 -0.045994874 0.041870955 0.006623137
000130 8a a9 56 3d 16 f5 4f bc ae f0 d7 bc ee 79 07 3d
       0.05240778 -0.01269271 -0.026359882 0.033075266
000140 de 3b 1b bc b3 d4 56 3d b2 74 7f bd ce 65 a2 3d
       -0.009474723 0.05244894 -0.06236715 0.07929574
000150 5c d3 c4 3c 71 9b 8a bb 16 ba 96 bd 8b 32 9d 3d
       0.024026565 -0.004229956 -0.07359712 0.07675656
000160 b5 43 a1 3d 93 cd e9 3c 5f 4b 97 3c 24 e4 2f bd
       0.07874242 0.028540408 0.018468557 -0.04294218
000170 15 70 54 bc a5 b7 f7 bd 8f 2e 6b 3d b2 96 9c 3d
       -0.012966176 -0.12095574 0.05741745 0.0764593
000180 3d 1b c7 bc a7 a2 f9 3c 14 15 24 3d ad 4d 06 3e
       -0.02430498 0.030473066 0.040059164 0.13115568
000190 05 66 6b bb 99 8e 2f 3d 76 e4 a0 3d 1d d1 13 3d
       -0.0035918963 0.0428606 0.078560755 0.036088098
0001a0 49 38 03 be 4f 3b ce 3d 12 eb 58 bd 60 8a fa 3d
       -0.1281444 0.10069906 -0.052958556 0.12233424
0001b0 58 70 dc 3c 92 41 90 bd fd a3 94 3d d9 b2 44 3d
       0.026909038 -0.070437565 0.07257841 0.048022125
0001c0 db 73 90 bc 39 9a 19 3e 46 a2 80 bd a9 d5 dc bd
       -0.01763337 0.15000238 -0.06280951 -0.1078294
0001d0 70 20 15 3c d7 3b b4 3c a1 20 88 bd 08 e0 06 bb
       0.009101972 0.02200119 -0.066468485 -0.002058031
0001e0 1f 9b 05 3e 02 c6 8a 3d ab 7f ae 3d f1 e4 0d 3d
       0.13047455 0.06776048 0.085204445 0.034642164
0001f0 0b 6b 86 bd c9 3d 01 bd 8f 6c 87 bd 08 40 0f 3d
       -0.065633856 -0.031553064 -0.06612503 0.034973174
000200 f5 61 b0 3d 11 2d 03 3d 4c 01 b3 3d e0 c8 09 3b
       0.08612434 0.0320254 0.08740482 0.0021024272
000210 fc dc 57 3d 7f 00 e0 3c 2a a1 f6 bc 10 7b 07 3d
       0.05270098 0.027343987 -0.030106146 0.033076346
000220 ff d2 47 bd 83 7e 67 3d bc b0 0f 3e 49 7a 00 3c
       -0.048785206 0.056517135 0.14032263 0.007841655
000230 b3 f3 0b 3e 3b de d8 bc 83 07 38 bd 67 dc 4c 3c
       0.13667183 -0.026473155 -0.04492904 0.01250372
000240 3c 81 9a 3d 83 3d 71 bd 20 e4 9e bd 9b d2 7f 3d
       0.07544181 -0.058896553 -0.07758355 0.06245671
000250 4a 0c 16 3d 8f 7b f8 bb 76 ed 07 3c 1e f6 f6 3c
       0.036632814 -0.0075830887 0.008296361 0.030146655
000260 70 16 ca 3d 05 9d 1a 3c 96 ec 4d bc 14 26 ee 3b
       0.09867561 0.00943685 -0.0125686135 0.007267723
000270 f3 8a 10 3d 38 70 49 bc ca 09 91 bd 00 c8 1f 3d
       0.035288762 -0.012294821 -0.07081945 0.039009094
000280 3d 4c ed 3b c4 8c e4 3d 21 6f 24 3d 65 e9 79 3c
       0.0072417543 0.111596614 0.040145043 0.0152533995
000290 df cc 45 3d a9 b1 ec bc b5 98 73 bd 75 0c 36 3e
       0.048291083 -0.028893309 -0.059471805 0.1777819
0002a0 d6 b2 af 3b 4b e8 c1 3c 40 c8 55 3d 80 6a ef 3c
       0.005361895 0.023670336 0.052192926 0.029225588
0002b0 b8 86 8f bc 23 79 94 bb f2 a0 bf 3a ca 99 b4 3d
       -0.017520294 -0.004531042 0.0014620109 0.088183954
0002c0 28 63 1f bd 5f 6e 9e bd 08 5c bc 3c 33 b7 4f bc
       -0.038912922 -0.07735895 0.022993103 -0.012677955
0002d0 69 35 c8 3c cc 21 db bc 52 bf 30 3d 60 58 d7 3c
       0.02443953 -0.026749514 0.043151207 0.026287258
0002e0 5b d0 81 bd 8a d8 93 3d 8e 5b fc 3c 05 80 bb bc
       -0.06338569 0.07219036 0.030805375 -0.022888193
0002f0 40 22 11 be 19 d1 78 3c 33 e0 7f bc ee 66 cb 3c
       -0.14173222 0.0151865715 -0.015617418 0.024829354
000300 91 27 f8 bc 25 80 f7 3c fa f1 63 bd c0 67 5b ba
       -0.030292304 0.030212471 -0.05565069 -0.0008369647
000310 d9 42 2c 3d 2e 54 75 bd b6 a9 1c 3d 7a b8 3e 3a
       0.04205594 -0.059894733 0.038247786 0.0007275414
