illustration/paper_data/500Neurons/e2edense_sr350_v0.03/latest_model/b3.npy (npy, 2128 bytes, 1 tensors)

array f4 [500]
00000000: 0bd7 0b3e edab f1bd 5b64 963b edd7 9e3a
00000010: 903d 1abd 9f98 c0bd 3d9f 363d 7395 133e
00000020: 6e55 6abd bda5 6abc 6086 afbd 38ee c43d
00000030: 42bf 1a3e 6591 83be a047 01be e1b5 7dbe
00000040: 011b 48bc e43b 0ebe eace 1dbd 8a09 963e
00000050: 5803 773d f126 b03d 0e5b e1bb 3bae 62bd
00000060: 13c8 2b3d 1cee 493e 7f3c 223d 6364 2bbe
00000070: a2f9 debc c145 18bd b074 feba 3279 f4bc
00000080: 9215 95bd 3126 b6be b7e1 afbd b519 3e3e
00000090: 3c3b 38be ba91 a23d c374 2f3d ce22 40bd
000000a0: 2ec2 113b 9b61 08bc 5793 79bd 77f5 e0ba
000000b0: cca7 743d ba15 1dbe 17c4 063e f180 6a3d
000000c0: 2fe1 0abe cbef 9d3d b1c6 00be 24e9 a73d
000000d0: ec32 7bbb 2c18 8ebd 73da 8e3d dc1f 173e
000000e0: f424 083e d4c7 16be 3f8b c4bd 1dd3 2dbe
000000f0: 36c4 89be 6969 a03d 1f96 dabd aa89 5cbe
00000100: 73b6 69bd f8c0 27be 2158 07be 8718 7fbe
00000110: aa13 8cbd 9ecd 3f3d b492 893c fe71 bb3d
00000120: e3a1 003e f046 88bd 6af7 753c 2a61 35be
00000130: d986 93bd cea8 fd3c 74d1 40be 65e5 183e
00000140: ae85 bdbc bbbf b93d b46f 2d3e 81a7 223e
00000150: b6cd 22be 8d20 17be 1389 f23c 8d76 d7bd
00000160: fd90 873d d58e 843b bdb5 b93c 80ab 99bd
00000170: 4526 18be 12b2 0cbe efcb 61be 0810 6abc
00000180: 7211 d6bd 37e4 e13d 8652 87bc fc04 9d3d
00000190: 2d71 473e c8df e9bd 374d 643e c907 8e3d
000001a0: 627a 7ebc 3407 00bd 91d5 92be 49f5 00be
000001b0: 83c8 ff3c 8578 083d dd0a 02be 0188 54be
000001c0: f72e 9abd fc86 e0bc 75eb e13d 4bc9 ae3d
000001d0: bf02 4fbc faa2 afbc 7ff3 46bd 9e3c 9dbd
000001e0: b19d 803e 5a01 ce3d 55ad a2bd d808 843e
000001f0: 962a 09bd 0115 61be 195b 1f3d 50dd 8dbd
00000200: 90ff 893a c7db f5bc f28d e2bd 1d37 e93c
00000210: f71c 07be e6e6 513e bfd0 30bd aa07 e3bd
00000220: 250c 273e 21a7 3fbe 98ff a1bd 84d9 653c
00000230: 9df7 623e 802b 10be f194 343c 4c5e 78ba
00000240: 9ac0 3c3e a111 813d e53d 103e 9364 1ebe
00000250: 12f7 7d3b aaa9 d7bd 6719 f7bd 8e63 f33d
00000260: 3bdf f5ba b05d 1e3c 8b6b ac3d c72f 473e
00000270: 7187 0f3e cd10 4bbe 4a2f da3d 7e37 95bd
00000280: 58d8 c23d 5c60 a0bc 0751 99bc 1518 023e
00000290: 5a67 76bd f58c 083d 3019 813c 126a fcbc
000002a0: 5850 63bd 27a7 c93d a73e 0cbe 36ac 9f3c
000002b0: f140 26bd 33d7 c23b b738 29bd 4a37 ae3b
000002c0: 77ff c8bc ca98 013e be33 7bbd 3212 003e
000002d0: 282b 93bc 22dc 4a3d b312 4ebc 0ff7 0f3c
000002e0: 128a 853d f98e 0fbe 5ab7 0d3e 70df adbd
000002f0: 06a0 0a3d fa8e 073c 9fd1 55be a9ef 173e
00000300: ad84 e5bb e7c9 04be 2e0a d73d a828 1cbe
00000310: ba58 9e3e 122c d3bc 55e5 76bc e75f 83be
00000320: 3a97 1bbd 5238 3dbe 221a 25bd 67da 7d3d
00000330: d270 de3d bb87 44be 4301 cdbc 1bf1 093e
00000340: 90d0 e03b c044 933d e7c0 69bd fccd c93d
00000350: 2da7 3d3e 3833 1abe 334e 63be a097 debd
00000360: b2de 96bd 3761 50bd e3ad dc3d e472 0d3e
00000370: 0c9a e9bc d275 9a3d 2429 1abe e8fb 81bd
00000380: 5f3d 7f3d 3352 be3d c991 163e 1db7 d6bd
00000390: 5723 a03c b36c 12be 6d5d 8ebd 3c23 bd3c
000003a0: c91f aabd 25f6 9ebc c1c3 283d c5db df3d
000003b0: 8e14 56bd 9605 9fbd 2fb5 acbd a997 853d
000003c0: f23a e3bd 29f9 1abe f87e eebb 23c9 943c
000003d0: 3e20 5d3d a6b9 293d 2c1f bfbd 885d 583e
000003e0: 7dd6 2abe 75ad 00be 99c8 a63d db97 7cbd
000003f0: 994f 263e 5ccc aabd 85d2 e23c 2309 bbbd
0.13656251 -0.1180037 0.0045896 0.0012118794 -0.037656367 -0.0940411 0.044585455 0.14412479
-0.05721038 -0.014321742 -0.08570552 0.09615749 0.15112022 -0.25696865 -0.12624979 -0.24776413
-0.0122134695 -0.13890034 -0.038527407 0.29304153 0.060305923 0.086011775 -0.0068773096 -0.05534194
0.041938853 0.19719738 0.039608475 -0.16737513 -0.027218644 -0.037175898 -0.0019413438 -0.029842947
-0.07279505 -0.35576013 -0.085879736 0.18564494 -0.17991346 0.079379514 0.042835962 -0.046908192
0.0022240984 -0.008324052 -0.06093153 -0.0017162998 0.059730336 -0.1534032 0.1316074 0.057251874
-0.13562463 0.077117525 -0.12575795 0.08198765 -0.0038329912 -0.06938204 0.0697526 0.14758247
0.13295346 -0.14724666 -0.095968716 -0.16975065 -0.2690751 0.078326054 -0.106731646 -0.2153689
-0.057058763 -0.16382205 -0.13217212 -0.249117 -0.06839688 0.04682695 0.016793586 0.09152602
0.12561755 -0.06654155 0.015012601 -0.17712846 -0.072034545 0.030964281 -0.188299 0.14931257
-0.023135033 0.09069773 0.16937143 0.1588421 -0.15898785 -0.14758511 0.029606378 -0.10520659
0.06619451 0.004045347 0.022669667 -0.07503414 -0.14858349 -0.13739803 -0.2205045 -0.014286049
-0.10452546 0.11029857 -0.016518842 0.07666966 0.19476767 -0.11419636 0.2229508 0.06935079
-0.015532108 -0.03125687 -0.28678563 -0.12593569 0.031223541 0.03331806 -0.12699457 -0.20755006
-0.07528489 -0.027408116 0.11031238 0.08534487 -0.012634932 -0.021440018 -0.04857206 -0.076775774
0.2512031 0.100588515 -0.07943217 0.25787997 -0.03348788 -0.21980669 0.038905237 -0.06926978
0.0010528434 -0.030012025 -0.1106223 0.028468663 -0.13194643 0.20498237 -0.043167826 -0.11085446
0.16313227 -0.18716098 -0.07910079 0.014028911 0.2216477 -0.14079094 0.0110218385 -0.00094745005
0.18432847 0.063021906 0.14086111 -0.15468054 0.0038752002 -0.10530408 -0.12065392 0.11884223
-0.0018758544 0.0096658915 0.0841895 0.1945182 0.1401651 -0.19830628 0.10653551 -0.07285975
0.095139205 -0.019577198 -0.018715395 0.12704499 -0.060157157 0.033337552 0.01575908 -0.030812297
-0.055496544 0.09846335 -0.13695775 0.019491296 -0.040589277 0.005946064 -0.041313853 0.0053166496
-0.024535878 0.1265594 -0.061328642 0.12506941 -0.017964914 0.04952634 -0.0125777 0.008786931
0.065204754 -0.14019383 0.13839474 -0.08489883 0.033844016 0.008273834 -0.20880745 0.14837517
-0.0070043416 -0.12967645 0.104999885 -0.15249884 0.30927068 -0.02577785 -0.015069325 -0.25659105
-0.037986018 -0.18478516 -0.040308125 0.061975863 0.108613625 -0.19192402 -0.025025016 0.1347088
0.0068608 0.071908474 -0.05706873 0.098537415 0.18520804 -0.15058601 -0.221978 -0.10868764
-0.073666945 -0.05087396 0.10775354 0.13813359 -0.028515838 0.07542004 -0.15054756 -0.063468754
0.062314387 0.09293022 0.1470405 -0.10484145 0.019548101 -0.14299278 -0.06951413 0.02308809
-0.08306844 -0.01940448 0.04120231 0.109305896 -0.052265696 -0.07764737 -0.084329955 0.065230675
-0.11095227 -0.1513411 -0.0072783194 0.018162316 0.053985827 0.041436814 -0.093321174 0.2112943
-0.16683383 -0.12566169 0.0814373 -0.06166826 0.16241302 -0.0833976 0.027688274 -0.09132602
