illustration/paper_data/784Neurons/e2edense_sr350_v0.03/latest_model/b1.npy (npy, 3264 bytes, 1 tensors)

array f4 [784]
00000000: df48 0abd 1f8b 483d 1892 aa3d cc9d bfbd
00000010: 838e 903c 42e3 953d 6639 973d fbb2 0cbd
00000020: f0d8 283d 442a 5dbd 2092 043d 7637 fabd
00000030: 044c e73d bc11 d7bd b1bb 0e3e 99f6 5ebd
00000040: d08a bc3c ab0f 34bd 2f09 94bd 51d7 87bd
00000050: 6e4a c33d 2281 453d 3c96 a5bd b805 dabc
00000060: cfec 7e3d e677 043e c32f 503d 15b4 edba
00000070: 5a88 e6bd 1aac c83d 8ec5 533e e515 36be
00000080: be52 b5bd 5452 81bd 772e 623d 7de2 063e
00000090: 7b66 98bd a07a 14bd c9fa f0bc 8596 c83c
000000a0: 1404 3b3e bade f93c e127 283e e098 e93c
000000b0: d9fd 0c39 6ffe 0a3e bd90 e8bd f0c2 7bbd
000000c0: ea10 7a3d cdb2 b73c 85ab 8fba c43b acbd
000000d0: 6d7b 2ebd e3ef 483c b871 813d 3128 5dbe
000000e0: 625b f7bd 7499 e13d 6166 09bd 6cc2 33bd
000000f0: dcb6 edbd 085a 9d3d 7465 01be 0a90 1f3d
00000100: 48c2 02be 492e be3c 1b6c 85bd b0d5 3dbd
00000110: 2ab3 b73d 4e6a dc3c 5637 8e3b af20 0cbc
00000120: 1e9f b93c fb78 cebd 78df d43d 3bbe 7a3d
00000130: 6d48 3dbe 7bfe 613d 6b7a 733d 2491 4bbe
00000140: a989 ccbc 82a6 9d3c 4694 3b3c c109 4a3d
00000150: 5386 b03c 08f5 b8bd 9b49 a53d ee08 e6bd
00000160: 3958 1c3b a1a8 bc3c 8a28 1bbd 8d2f 24bd
00000170: 6f2a 82bd 2d86 9dbd fdf5 13be d93b 4cbc
00000180: 91a5 fabd 1900 3e3d 8249 89bd be6d 3f3c
00000190: eba5 ddbc 5b87 98bd 4fd2 15be ee65 f6bd
000001a0: c902 fb3d f639 4e3d f54c e0bd c2d7 83bd
000001b0: 5a8f 5f3d 82d7 44bc 7ea7 4cbd 4bc9 ea3d
000001c0: 4713 babd 249c 893b 1956 883b f02c 0a3d
000001d0: 64a7 0f3c 790f f1bd 5763 2fbe 4f44 c0ba
000001e0: 71a1 9e3c f7ff b4bd 5536 febc 29c1 af3d
000001f0: b31e 9a3d af30 0ebd 2c14 d0bd b8e5 a1bc
00000200: d7dd b43d 0ac9 cb3d fb7f 05be d99a e83c
00000210: c6d2 f6bd 7e8c 29be 3b68 b9bd 1b16 d63c
00000220: 3ef3 93bc 6537 423c eecf 7f3d 892d 76bd
00000230: 5302 bc3d 4a00 493d c261 a73c b759 073b
00000240: babf dfbd ec9f 80bd 683c 7f3d ad86 09be
00000250: 0b77 de39 430d 05bd c6c5 74bd 7be0 0b3d
00000260: 842e 2fbd 2a7e dabd 5bb6 cc3d 4d08 2cbd
00000270: 2e5d 35bd cb89 163d d5d6 80bd 6a49 7bbc
00000280: 52c3 28bb f433 ef3d ee72 0dbe f3cf 04be
00000290: ff76 263e d08c c3bd 7595 8bbd cce9 393d
000002a0: a39f c638 a819 fb3c 59ae 09be 2132 0ebe
000002b0: ffc2 f5bd 92f3 9bbd 21e4 003d 452e 123c
000002c0: ab1e 0d3d 21ee f7bc 9cdd 993c 6373 cfbb
000002d0: 1062 fcbd ff14 643e 3d38 02bd a4c9 9cbd
000002e0: 091e 0b3e 0aec 173e c43f e93d 2515 6fbd
000002f0: 7de4 65bc fbfd a93d 0035 b23c 45b7 babc
00000300: 9b2e dd3d 024d bdbc 7266 4e3d 73a4 7a3c
00000310: d152 d8bc 4474 12be 52c8 28bb 68eb 28bd
00000320: 7fff 243d de2b e8bd d982 bbbd 9dfd 133e
00000330: f610 a03d 1899 5fbd 6548 913b 6fff 2a3d
00000340: 291a 7dbd e691 8e3d efa9 37be 42b4 933d
00000350: 0a32 e5bd d4f0 48bd 7b9a 4fbd e1c6 43bd
00000360: d5bf 1f3d a74d 11be 3979 08be 231b 48bb
00000370: 5584 f13b 7215 a5bd 8900 5bbd 760f 8dbd
00000380: e94b 79bd 0801 24be 2cae 52ba 34af 6c3c
00000390: 6bf5 933d 6652 833d 0a0e 3cbe 59a1 bebd
000003a0: 7d0c 15bd 7ce0 9b3d 64ae 15be 5802 17bc
000003b0: ea4b 60bd cf6e 8139 1478 26be 891e b03c
000003c0: b5d1 debc 35d3 eebd d8a8 bbbd 8bbe 0a3e
000003d0: 0787 193c 049e 18bd 290b dc3d 7a62 3abc
000003e0: d476 c83c 458f 573d 89f1 923b d8d3 21be
000003f0: 199b 3d3d ee63 d4bd 6bad 823d 4c2c eabd
-0.0337609 0.0489608 0.083286464 -0.09356269 0.01764608 0.073187366 0.07383995 -0.034350377
0.041222513 -0.053995386 0.03236592 -0.122176096 0.11293796 -0.105014294 0.13938786 -0.054434393
0.02301541 -0.043960255 -0.07228314 -0.06632865 0.09535681 0.048218854 -0.080852956 -0.026614055
0.062237557 0.12936363 0.0508268 -0.0018135334 -0.11256476 0.09798451 0.2068083 -0.1778179
-0.088536724 -0.06314531 0.055220094 0.13172336 -0.074414216 -0.036249757 -0.029416459 0.024485836
0.18263274 0.030501712 0.16421463 0.02851528 0.00013446006 0.13573621 -0.11355732 -0.061465204
0.061051287 0.022424126 -0.0010961151 -0.08409837 -0.042598177 0.012264225 0.06320518 -0.21597363
-0.12077977 0.11015597 -0.0335449 -0.043886587 -0.11607143 0.07683188 -0.12636358 0.038955726
-0.12769425 0.02321543 -0.0651476 -0.046346366 0.0896972 0.026906159 0.0043400927 -0.008552714
0.02265888 -0.10081669 0.10394186 0.061216574 -0.1848466 0.055174332 0.05944292 -0.19879586
-0.024967985 0.019244436 0.011448925 0.04932571 0.021548426 -0.09031111 0.0807068 -0.11232172
0.0023856296 0.023029627 -0.037880458 -0.04008441 -0.0635575 -0.076916076 -0.14449306 -0.012465441
-0.122386105 0.046386812 -0.06703474 0.011683879 -0.027056655 -0.07447692 -0.14631008 -0.1203116
0.122563906 0.050348245 -0.109521784 -0.06437637 0.05458007 -0.012014272 -0.04996442 0.11464175
-0.09085708 0.0041995216 0.0041606543 0.033734262 0.008767936 -0.11770529 -0.17127739 -0.0014668795
0.01936409 -0.08837884 -0.031031767 0.08581764 0.07525387 -0.034714397 -0.101600975 -0.019762859
0.08831375 0.099504545 -0.13037102 0.02839415 -0.120519206 -0.165575 -0.090530835 0.026133588
-0.018060323 0.011854027 0.062454157 -0.06010202 0.09180131 0.04907254 0.020432357 0.002065284
-0.10925241 -0.06280503 0.062313467 -0.13430281 0.00042431834 -0.03248335 -0.059758924 0.034149628
-0.04276897 -0.10668595 0.09995719 -0.042000104 -0.044278316 0.036752503 -0.06290976 -0.0153373275
-0.0025751186 0.11679831 -0.13813373 -0.12969951 0.16256331 -0.09548342 -0.06815616 0.04538898
9.4711104e-05 0.030651882 -0.13445415 -0.1388631 -0.12000083 -0.07614817 0.03146756 0.008922164
0.034453075 -0.030264916 0.01878243 -0.006330894 -0.123233914 0.22273634 -0.031791914 -0.076556474
0.13585676 0.14836136 0.113891155 -0.058369774 -0.014031527 0.08300396 0.021753788 -0.022792468
0.10799905 -0.02310801 0.05039067 0.015297997 -0.026406677 -0.14302164 -0.0025754166 -0.041240126
0.040282723 -0.11336492 -0.091558166 0.14452215 0.07815735 -0.05458936 0.004433679 0.041747507
-0.061792526 0.06961422 -0.17935918 0.07212116 -0.11191185 -0.049057797 -0.050684433 -0.047797088
0.039001305 -0.14189778 -0.13327493 -0.0030533753 0.0073705115 -0.08060731 -0.053467307 -0.068877146
-0.06086341 -0.16016018 -0.0008036818 0.014446069 0.07224544 0.06412201 -0.1836473 -0.093081184
-0.036388863 0.07611176 -0.14617306 -0.009216867 -0.054759897 0.00024687356 -0.16256744 0.021498935
-0.027199605 -0.11661378 -0.09163064 0.13549249 0.009370572 -0.03726007 0.10744316 -0.011376018
0.024470724 0.052626867 0.0044843596 -0.15803468 0.04629049 -0.103706226 0.06380733 -0.1143423
