illustration/paper_data/784Neurons/e2edense_sr350_v0.17/best_model/b3.npy (npy, 3264 bytes, 1 tensors)

array f4 [784]
00000000: e209 83bd c395 e2bc 57da d83d a6b9 9abd
00000010: a3f6 5d3d 318a 093d 36e0 dcbd 8d76 df3d
00000020: d235 683e 6c62 d43e 4391 9fbd a2ba db3d
00000030: 6ed9 b9bc 2ada a0bd 2559 5abd 88e9 5f3e
00000040: 3480 833e c8e1 59bd b70a 403e c94e 463d
00000050: 7a09 5cbc 739e 0ebd 36a8 bf3d 715c 14bd
00000060: 5a94 75bc af96 b93c dc07 b0bd 9219 bdbd
00000070: 227b 81bd ce2d d13d f3f4 163e ad76 0f3e
00000080: 3cc5 bc3c 06ee 803c 3612 dfbc e657 a0bd
00000090: 5512 fdbc 221f d3bc 9d0e 883d 593e e03d
000000a0: 8ab5 b7bc 6a75 d43d ec0a e63c 60b9 973d
000000b0: fdc9 9e3d d99b 5d3e c290 ff3c 8cce a33d
000000c0: bbc4 0e3c 7c81 1c3e e9a1 ea3c ef50 2c3e
000000d0: 09f6 22bd 5753 303e 6051 88bd 3ff2 9c3d
000000e0: 763a 42bd 0782 9b3d 258b fb3c de25 e2bc
000000f0: dfc6 80bd db15 b3bd e06b d03d 522c 083e
00000100: 61e2 f13c fd59 afbc 63a4 303d 5dc9 68bd
00000110: adaa 04be 3110 5dbc c187 98bb 7729 273d
00000120: 7676 0d3e 9b38 c2bd 9ea7 ff3c daeb 913e
00000130: 32dd 55bd e77e 97bd 3d23 b6bb 0ae7 b63c
00000140: 1c6a 013c 6a9c 353d 6000 5d3d 0b89 6e3d
00000150: 69b3 853e b1e8 fabd 9c68 26bd 7221 783c
00000160: 473b e5bd 129d 60bd 631a 263e a7b9 3dbe
00000170: d956 b83d 3d50 b23b 3724 da3d 125a 373d
00000180: dd99 c13d 7d0e 753d dd27 ee3d e306 153e
00000190: 1f9b 90bd fa61 aa3d 6096 a23e a1a3 333e
000001a0: 9ff0 ff3d 353a a9bd 52ec 193d 676f a83d
000001b0: 7ca2 06bd 057d 1f3d 692f 083d 2bd3 263d
000001c0: f5f1 9cbb bce0 4e3e f5cd 753e bf53 523e
000001d0: 215f 413e 690e d83d 256c ae3d 678e 583d
000001e0: 8e68 5a3d af75 5cbd 3492 423d feeb b93d
000001f0: 1962 353e f0ab f9bd b39b 583a 5a02 0bbe
00000200: ef6b 2f3e 8e1e a13d 079f efbd ac59 13bd
00000210: 5228 acbc 7240 293e f0f3 003e 958b 123d
00000220: 0dd1 1bbd 21e6 853e e20e 53bd 7566 fd3d
00000230: 8d93 9e3c 3292 973e 0805 753c e585 5ebd
00000240: 1d70 a83d 9264 a1bd da67 713e 90d8 603e
00000250: b0d5 f0bc 4d59 18bd fbb8 963b 3e0a 8e3d
00000260: 1d0b f53d b781 d63c b5fd 7f3e 75dd e13d
00000270: 131a 493d c821 98bd 9911 eabb e436 a5bc
00000280: 170e c6bd 9aa0 e63e 5d0e 223e 8744 d0bd
00000290: 82ea bd3d d3e1 d5bc 871a 193e 9cb3 413d
000002a0: 9b91 72bd d4c4 96bd 3fec 3e3b a371 0a3e
000002b0: a508 863d e1f3 0e3d aaab 6cbd f396 143e
000002c0: 10a9 9abd 96bd c6bc d525 c03d 0e1d 153d
000002d0: dbe2 af3d b8c5 4dbd 882e 193e 5fc6 99bc
000002e0: 786b 6ebd 43a9 49bc 552b 04be 4588 cdbc
000002f0: c52f 603e 6bc3 653c 8d23 873d 6a47 26bd
00000300: 50a7 8d3d 7e53 ab3d d18a a33d 0b3c 89bc
00000310: bbf2 49bd 552a 7e3a 9373 033e 8aa1 18be
00000320: fe8e ddbc ae27 a7bd ad6a 943e b649 6abd
00000330: 44f0 28bd 3e25 803d 632b e9bc 5804 893e
00000340: 283d b33d fd43 ca3d 503d 8b3e 24ea 5cbc
00000350: a633 3b3d 9465 043e 6acb 2d3e 9c11 75bd
00000360: 6bf1 2fbd 4d0e 5cbd 3b95 c4bc bdba 76bd
00000370: 2981 1a3e 251b 223e 2ae4 4dbd c007 0abc
00000380: 7429 76bd dcea a83d 0467 a13d 1313 cd3d
00000390: ca62 7bbd 145e 473e d3dd 063d 1a0b a5bd
000003a0: 9c56 f738 9cf2 5c3d 5943 d73d 7105 7d3d
000003b0: 8849 0abd eb9c 413e a583 36bd e1d4 9b3e
000003c0: 8fee 933d d633 833e bf7e a33b 7be2 de3d
000003d0: 2bbd 923d 4267 4dbe 6abb 2f3d cd07 5f3e
000003e0: f562 09be 2e5c c53d 88a6 f9bc 557c 81bc
000003f0: 516c 19bd d2d4 d8bb 46e2 483d b731 cbbc
-0.06398369 -0.027659303 0.1058852 -0.07554941 0.05419029 0.033579055 -0.10784952 0.10911284
0.22676781 0.4148134 -0.07791378 0.10728957 -0.022686686 -0.078541115 -0.05330767 0.21866429
0.2568375 -0.053193837 0.18754087 0.04841498 -0.013429994 -0.034819078 0.093582556 -0.03622097
-0.014988983 0.02265486 -0.08595249 -0.09233393 -0.06322314 0.10213815 0.14741878 0.14010115
0.023043267 0.015738498 -0.027230363 -0.07829265 -0.03089253 -0.025771681 0.06643412 0.10949392
-0.022425432 0.103739575 0.02808138 0.07408404 0.0775337 0.21641482 0.031196956 0.0799838
0.008713896 0.1528377 0.028641658 0.16827749 -0.03978542 0.17219292 -0.06656146 0.07663392
-0.047419034 0.0759316 0.030705998 -0.027605947 -0.06287932 -0.08744403 0.101768255 0.13298157
0.029526891 -0.021405214 0.04312552 -0.05683266 -0.12955733 -0.01349263 -0.004654855 0.04081103
0.1381472 -0.09483453 0.031207856 0.28500253 -0.0522129 -0.073972516 -0.0055584 0.022326965
0.007898834 0.04433862 0.053955436 0.058236163 0.26113442 -0.122514136 -0.040627107 0.015144693
-0.11192947 -0.054837294 0.16221003 -0.18527852 0.0900094 0.005441694 0.10651439 0.044763632
0.09453175 0.05982827 0.11628697 0.14553408 -0.07060837 0.08319469 0.31755352 0.17542888
0.12497067 -0.08263055 0.03757889 0.08224373 -0.0328698 0.038937587 0.03324834 0.04072873
-0.0047895857 0.20202917 0.24004348 0.20539759 0.18883945 0.105496235 0.08516721 0.05287018
0.053322367 -0.05382317 0.04750271 0.09078215 0.17713203 -0.121909976 0.0008262947 -0.13575116
0.17131017 0.07867156 -0.11700254 -0.03597419 -0.02101532 0.1652849 0.12593055 0.035777647
-0.038041163 0.26152137 -0.051527865 0.12373058 0.019357467 0.29603726 0.014954813 -0.05432691
0.08224509 -0.078805104 0.23574772 0.21957612 -0.02939877 -0.03719454 0.004599688 0.06935547
0.1196501 0.0261849 0.24999125 0.11028568 0.049097132 -0.07428318 -0.007143211 -0.020167775
-0.09670656 0.45044404 0.15825792 -0.101693206 0.092732444 -0.026108658 0.14951526 0.04729043
-0.05922089 -0.07361761 0.0029132513 0.13519911 0.065446176 0.03490055 -0.0577809 0.14510708
-0.07551777 -0.024260323 0.09382216 0.03640466 0.08588191 -0.050237387 0.14959157 -0.018771349
-0.05820796 -0.012308422 -0.12907155 -0.025089392 0.21893223 0.014023642 0.06598578 -0.04059545
0.06916678 0.08365534 0.079854615 -0.016752264 -0.04930375 0.0009695639 0.12837057 -0.14905372
-0.027045723 -0.08161865 0.28987637 -0.057199202 -0.04124476 0.062571034 -0.028463071 0.26761127
0.08751899 0.09876249 0.27195215 -0.013483558 0.045703553 0.12929374 0.16972128 -0.059831247
-0.042954843 -0.053724576 -0.02399694 -0.06023668 0.15088333 0.15830667 -0.050266422 -0.008424699
-0.060098127 0.08247921 0.07880977 0.10013404 -0.06137351 0.19469482 0.03292639 -0.08058758
0.0001179401 0.053942308 0.105108924 0.061772767 -0.03376153 0.18907516 -0.04455914 0.3043585
0.07223236 0.25625485 0.0049894745 0.108830415 0.07164987 -0.20058921 0.04290334 0.2178032
-0.13416655 0.096367225 -0.030474916 -0.015806356 -0.037456814 -0.006617167 0.049043916 -0.02480398
