illustration/paper_data/784Neurons/e2edense_sr350_v0.13/best_model/b3.npy (npy, 3264 bytes, 1 tensors)

array f4 [784]
000000 c8 85 96 3d 86 06 ec 3d e0 25 d1 3d 12 d9 fd 3d
       0.073497355 0.11524682 0.10212302 0.123949185
000010 f1 44 02 3e 9d 8b 20 3e 9a a7 8d bc 0c 80 50 bb
       0.12721612 0.15678258 -0.017291833 -0.0031814603
000020 7d 8a 20 bd dc f3 7e bd 89 e4 2b 3e 53 64 f7 3d
       -0.039194573 -0.06224428 0.16786398 0.12079682
000030 3d f6 46 bd 01 6a 01 bd 8c 57 2d 3e db 7d c7 3d
       -0.048574675 -0.031595234 0.16927928 0.09740802
000040 23 32 95 bd d1 be dd 3d 17 d6 5b 3d 08 1b f1 3d
       -0.072849534 0.10827411 0.05367097 0.11772734
000050 8a f6 93 3d c7 a5 ec 3c ff 6c 0d 3d 64 c3 f8 3d
       0.07224758 0.028887643 0.034527775 0.12146643
000060 f0 74 19 3e e9 25 e1 3d 38 7c cc 3d bc 5f b8 3c
       0.14986014 0.10993559 0.0998463 0.022506587
000070 7c 1f ca bd 51 50 a3 3d c8 7a 21 3c 8e 92 6d 3e
       -0.098692864 0.079743035 0.0098559335 0.23200437
000080 a3 12 06 3e a3 8d 3e 3d dd e2 e4 bc 5a 77 74 bd
       0.13093047 0.046521794 -0.027940208 -0.059684135
000090 61 4c d3 3d e1 ae 46 bd 8f 1c 8e bd ac 70 ef 3d
       0.103173025 -0.04850662 -0.06939041 0.11691412
0000a0 fb 73 9a 3d e9 1b 14 bd bb 93 c3 3d 44 10 87 bc
       0.07541653 -0.03615943 0.09549662 -0.016487248
0000b0 8d 9a 6f bc 6b bf 1a be ea 32 2b 3d ab 14 25 3e
       -0.01462425 -0.15112083 0.041796602 0.16121165
0000c0 6a 71 06 bd 43 bc e1 3d aa da 33 3b 6c 1d 68 3d
       -0.032823004 0.11022236 0.0027443566 0.056668684
0000d0 c0 1e 8d b9 e5 ac 0e 3e 21 16 82 bd 23 fb 76 3e
       -0.00026916526 0.13933142 -0.06351877 0.24119239
0000e0 42 49 63 bd af 44 71 bd 0c fc 85 3d d1 da 7f 3d
       -0.055489786 -0.058903392 0.06542215 0.06246454
0000f0 c3 23 a1 3d 28 6a a3 39 d7 e4 ee 3d 7e a8 3d 3e
       0.07868149 0.00031168875 0.116647415 0.18521306
000100 52 70 b4 3c b2 68 b2 bc 25 27 6c 3d bd 5f 39 3d
       0.022026215 -0.021778438 0.05765452 0.04525732
000110 d0 19 d1 3d df 55 94 bd 51 dd c2 bc 89 bc 6c 3d
       0.102100015 -0.07242941 -0.023787173 0.05779699
000120 ad 00 87 bd 6d 07 7b bd 76 11 fc 3d 77 9b 29 3d
       -0.06591926 -0.06128638 0.12308018 0.04140803
000130 97 5f 40 3d 43 0b 8d 3d da af 48 3e 78 83 8d bd
       0.04696616 0.068869136 0.19598332 -0.06909841
000140 4b d7 3a 3d 39 ea 91 3d 41 13 1b be c5 84 ca 3d
       0.045615476 0.071247526 -0.15144064 0.09888605
000150 a3 9c e0 3d c7 20 68 3d fa 46 83 bd b5 74 f0 3d
       0.10967376 0.056671884 -0.06410022 0.1174101
000160 10 1e ec bd 7d 5f 2a bc 57 af a1 3d c2 39 ff bc
       -0.115291715 -0.010398743 0.078947715 -0.03115547
000170 01 e0 39 3b f0 44 ef bd 4b 6b ed 3d 2b 45 d2 3d
       0.0028362276 -0.11683071 0.1159273 0.10267099
000180 c0 78 b1 bc d3 2a 6c 3c 93 ed 93 3c e1 24 8d 3d
       -0.021664023 0.014414507 0.01805762 0.068918
000190 fd 9c ab 3c e7 d3 cc bd 02 72 88 3d db 72 df bc
       0.020948881 -0.10001355 0.0666237 -0.027276447
0001a0 f2 d1 62 bd f3 6c 1c 3d 6a 2d b4 3b 85 7f 55 bd
       -0.055376 0.03818984 0.005498578 -0.052123565
0001b0 97 10 b3 3d d1 e7 a0 3c f3 a1 66 bc c6 f4 3d 3d
       0.08743399 0.019641789 -0.014076698 0.046376012
0001c0 ae 16 81 3d fe 10 1f 3e bc 3d 57 3e 7c e7 07 3d
       0.06303154 0.15533826 0.21019644 0.033179745
0001d0 60 3b 00 3e 4c 8e 74 bc 5a 7d 18 3e cf fe 3c 3c
       0.1252265 -0.014926504 0.14891568 0.0115353605
0001e0 fe a4 cf 3d 03 ee 27 3e 23 17 17 bd 7a 54 08 bd
       0.10138892 0.16399388 -0.0368873 -0.033283688
0001f0 84 6e ac bc e1 35 0b 3d 40 cc 19 3d fa f9 8a bd
       -0.021048792 0.03398693 0.037548304 -0.067859605
000200 3a 5e 72 bd e2 12 4f 3d 76 66 bd 3d 30 91 47 bc
       -0.059171893 0.050555117 0.092480585 -0.0121806115
000210 cc aa 9a 3d 08 2b 26 3d b6 07 54 be 48 93 33 3e
       0.07552108 0.04056838 -0.20706066 0.17536652
000220 b2 a9 b9 3d 84 87 f0 bd ff b5 d0 3d 26 5a 8c 3d
       0.0906557 -0.117445976 0.10190963 0.06853132
000230 16 78 9c 3d 68 32 04 3e 60 66 3b 3e 06 13 89 3d
       0.07640092 0.12909853 0.18300772 0.066930816
000240 3f 1a d5 bd c8 4e 7a 3d da ed 3c 3b bf 01 7f bc
       -0.10405397 0.061110288 0.0028828294 -0.015564381
000250 16 03 34 3e 92 9d 0b 3e 87 02 6e 3d f3 19 ac 3d
       0.17579302 0.13634327 0.05810788 0.08403387
000260 22 0b 87 3d b7 44 a7 3d 28 ff 81 bd 6c 38 85 3d
       0.0659392 0.08167403 -0.06347495 0.06504902
000270 15 37 36 be 20 89 73 bd 00 15 bd b9 c6 1c af bd
       -0.1779445 -0.059456944 -0.00036064535 -0.0855041
000280 c6 0a d6 3d 43 6e be bd b8 b2 a4 3c cc 00 a4 3d
       0.104512736 -0.092983745 0.020104751 0.080079645
000290 cf 55 95 3d 61 46 13 bd e2 29 79 3c c3 80 a6 bc
       0.07291757 -0.03595579 0.01520774 -0.02032507
0002a0 34 3c c2 3d 05 00 2c 3e 28 2c eb 3d e3 a9 2c bd
       0.09484139 0.16796882 0.114830315 -0.042154204
0002b0 82 09 a7 3d f8 f0 e0 bd fc ad 9a bd ff 6a d8 bc
       0.0815611 -0.10983461 -0.07552716 -0.026418207
0002c0 47 97 56 3d dd 8e a0 3c 2b 45 e8 3c f2 1c b6 bc
       0.052390363 0.019599373 0.028353294 -0.0222306
0002d0 02 cd 72 bc 37 47 3b 3d 2d d5 25 3e c1 c7 ea 3d
       -0.0148193855 0.045722213 0.16194601 0.11463881
0002e0 6e 69 d7 bc 46 83 04 3e 52 a4 fd bc c2 86 e0 3d
       -0.02629539 0.12940702 -0.030962143 0.10963203
0002f0 fa 3f 1b 3d 84 c6 d2 3d 4d de 37 3d fb 82 40 bd
       0.03790281 0.1029177 0.044889737 -0.046999913
000300 d1 36 fe ba 21 73 7d 3d cf d2 a9 3d 8c a5 a6 bc
       -0.0019394999 0.061877374 0.08292162 -0.02034261
000310 89 ae 98 3c 35 d1 bc 3c 04 52 dc 3d e6 cd e6 3d
       0.018637912 0.023048976 0.10757831 0.11269741
000320 b2 42 dd 3d db 1c fd bd 27 93 96 3d fc 27 3e bc
       0.10803737 -0.12359019 0.07352286 -0.011606213
000330 48 c5 c0 3d 5b 15 db 3d 76 df 0e 3d 44 d8 d2 3d
       0.094126284 0.106974326 0.034881078 0.10295156
000340 7a e4 ca 3b c2 ed 58 bd 71 d1 96 3c 79 58 47 3e
       0.0061917873 -0.05296112 0.018410416 0.19467343
000350 cd 6a 1e 3e 22 a5 46 3d 0f f7 e8 3d db b1 d0 3d
       0.15470429 0.048497327 0.11375248 0.10190173
000360 59 7c 0e 3e 21 f1 dd bc 1a 1f 37 bd a9 e8 d8 3c
       0.13914622 -0.027092518 -0.044707395 0.026478129
000370 b6 0a 88 3c ac eb 81 3d 94 eb 93 bd db 9a 84 bd
       0.01660667 0.06343779 -0.07222667 -0.06474849
000380 e4 3d 52 3d 7d 2d 7b 3d b0 81 45 bd af 1d 9e bc
       0.051328555 0.061322678 -0.048219383 -0.019301264
000390 16 d9 33 3d 03 c1 f4 3d c5 34 94 3d ba cc 52 bd
       0.0439082 0.119508766 0.072366275 -0.051464774
0003a0 19 d0 ef 3c 80 66 ae 3d 27 4c 49 bd b4 bb 72 3d
       0.029274033 0.08515644 -0.04914489 0.05926104
0003b0 63 37 55 3d 99 2d a8 bc 02 22 4a bc bd ec ce 3d
       0.052054774 -0.020529555 -0.01233721 0.10103748
0003c0 65 63 f2 3d bd b3 89 bd 59 4d 8a bd 62 1b 7c 3d
       0.11835364 -0.067237355 -0.06753034 0.06154955
0003d0 c4 67 da 3d 9f 01 2f 3d 1b ed 93 bd 98 6e 09 3e
       0.10664323 0.042726155 -0.07222959 0.13421094
0003e0 00 1c 3a 3d 44 39 23 bc 40 b6 00 3e 84 ab 74 bd
       0.04543686 -0.009962384 0.12569523 -0.059733883
0003f0 f2 a8 43 bd 5d 74 1f bd c2 14 bb bd a7 fc dd 3c
       -0.04776854 -0.038929332 -0.091348186 0.027098013
