illustration/paper_data/timings/timing/e2edense_sr5_v0.07/best_model/b2.npy (npy, 928 bytes, 1 tensors)

array f4 [200]
-0.037179258 -0.02660341 -0.0073190886 0.08233038 -0.00046743234 -0.012098396 0.30408838 0.13358748
0.09361709 -0.07671736 0.10631467 0.10335864 0.14647862 0.07712238 -0.022648452 0.31706095
-0.013235563 0.098676555 0.1105402 0.09362694 0.15725693 0.07276736 -0.051509164 0.2801869
-0.0673695 0.160524 0.031697996 -0.0030652352 -0.06739261 0.08442705 0.0572501 -0.06550608
0.007925013 -0.008175235 0.14649683 0.06525944 -0.019316418 -0.04941859 -0.10033163 -0.10793116
-0.008161965 -0.05215416 0.20401698 -0.010070713 0.28377652 -0.017800277 0.06802538 0.34417957
-0.040699393 -0.040029712 -0.007266776 0.2524237 -0.050718524 0.08048398 0.10101004 0.21090533
-0.04266718 -0.020481912 -0.04982475 -0.009768135 0.2654761 0.06737086 0.06939954 0.07628259
0.24606235 -0.08705145 0.1158724 0.050222397 -0.014346247 0.0608923 0.24842958 0.23116946
-0.052991863 0.2364245 0.014515606 0.36590698 -0.027088666 -0.035847854 -0.06278312 -0.12867334
0.27371716 0.083513685 0.25118536 0.028729286 0.17451216 0.24037279 -0.0062084193 0.15922287
-0.018116802 0.001210209 -0.020601183 0.15441683 -0.029714584 0.053508755 -0.024437139 -0.071681686
0.25005913 0.06788982 -0.028855875 0.25804508 0.10482529 -0.090235494 -0.03432334 0.021607084
-0.022476315 0.08398442 0.07272942 0.06924298 0.28535897 -0.060029764 -0.047021534 0.26024723
0.10108414 -0.055723976 0.09116564 0.12204716 0.15145165 0.26294625 -0.00020967914 -0.03274263
-0.014861557 -0.0060354155 0.113051824 0.25558066 0.1277128 0.14079526 -0.02811799 -0.0016476699
0.063441575 0.049461488 0.13796175 0.105529234 0.26843137 -0.028236514 -0.028576165 -0.064274095
-0.027447343 -0.15618128 0.10651193 -0.0581536 -0.06894542 0.09451769 -0.04354651 0.12775469
0.0729992 -0.029121634 -0.026382074 -0.059495248 -0.042513818 -0.07854188 0.0424569 0.10974062
-0.047490787 -0.07070842 0.0989042 0.02432097 -0.01918421 -0.07619565 0.091249496 0.08534071
0.003638884 -0.036194958 0.075282104 0.04909852 0.10024389 -0.07302472 0.10770467 -0.01940077
0.26156658 0.08428747 -0.09031561 -0.009210916 -0.008364906 0.26390517 -0.08907868 -0.0195145
0.29864684 0.06980971 -0.038846664 0.088923074 0.062592074 -0.04899324 0.14347662 -0.038449913
-0.007204184 0.07214807 -0.041532096 0.03809959 0.07081981 0.27974668 0.016399281 -0.05628419
-0.18727405 -0.10714642 -0.04722611 0.267507 0.009740097 -0.07789803 -0.054850947 -0.031591088
00000000: 4749 18bd 65ef d9bc f7d4 efbb d59c a83d
00000010: b511 f5b9 5a38 46bc 79b1 9b3e 28cb 083e
00000020: 51ba bf3d fe1d 9dbd 81bb d93d b2ad d33d
00000030: 7efe 153e 57f2 9d3d 3f89 b9bc d055 a23e
00000040: fad9 58bc ef16 ca3d e662 e23d 7bbf bf3d
00000050: f607 213e 0e07 953d 46fb 52bd a874 8f3e
00000060: 05f9 89bd 6760 243e c2d5 013d 1de2 48bb
00000070: 2305 8abd 17e8 ac3d 157f 6a3d 0d28 86bd
00000080: ead7 013c 6cf1 05bc 4403 163e bea6 853d
00000090: 773d 9ebc 266b 4abd ab7a cdbd 030b ddbd
000000a0: c3b9 05bc 9a9f 55bd d4e9 503e a2ff 24bc
000000b0: 284b 913e e3d1 91bc e450 8b3d 4e38 b03e
000000c0: 68b4 26bd 32f6 23bd 231e eebb ae3d 813e
000000d0: 3abe 4fbd c9d4 a43d 5ade ce3d 91f7 573e
000000e0: c8c3 2ebd afc9 a7bc 0915 4cbd 870a 20bc
000000f0: 7cec 873e bcf9 893d 5921 8e3d 0c3a 9c3d
00000100: c5f7 7b3e 0848 b2bd 824e ed3d 00b6 4d3d
00000110: 850c 6bbc 346a 793d 5364 7e3e b0b7 6c3e
00000120: ff0d 59bd 4419 723e ddd2 6d3c 2958 bb3e
00000130: 0de9 ddbc 33d5 12bd 7094 80bd f2c2 03be
00000140: a824 8c3e 3909 ab3d 5e9b 803e ae59 eb3c
00000150: 51b3 323e 4924 763e ff6f cbbb 520b 233e
00000160: b069 94bc e09f 9e3a d0c3 a8bc 721f 1e3e
00000170: 006c f3bc ff2b 5b3d 6530 c8bc d9cd 92bd
00000180: c007 803e d109 8b3d 2863 ecbc 7c1e 843e
00000190: a4ae d63d 63cd b8bd a196 0cbd 5701 b13c
000001a0: 4020 b8bc 0600 ac3d 2af3 943d 43cf 8d3d
000001b0: 921a 923e c5e1 75bd a799 40bd 203f 853e
000001c0: 3405 cf3d d33e 64bd 0db5 ba3d ddf3 f93d
000001d0: 2416 1b3e e4a0 863e 51dd 5bb9 231d 06bd
000001e0: e37d 73bc bcc4 c5bb b787 e73d 78db 823e
000001f0: 25c7 023e a22c 103e b357 e6bc a1f6 d7ba
00000200: a8ed 813d 2198 4a3d d845 0d3e b61f d83d
00000210: d66f 893e 4350 e7bc 9018 eabc 23a2 83bd
00000220: 40d9 e0bc fced 1fbe ed22 da3d 7832 6ebd
00000230: 4233 8dbd 7e92 c13d d35d 32bd 20d2 023e
00000240: 9b80 953d 7e90 eebc 381f d8bc 4ab1 73bd
00000250: f822 2ebd 91da a0bd 49e7 2d3d b1bf e03d
00000260: b385 42bd 93cf 90bd 498e ca3d c53c c73c
00000270: 3428 9dbc 770c 9cbd 04e1 ba3d 1cc7 ae3d
00000280: 587a 6e3b 2a41 14bd 812d 9a3d 881b 493d
00000290: ab4c cd3d fc8d 95bd 4494 dc3d 5dee 9ebc
000002a0: 0eec 853e e99e ac3d 64f7 b8bd 62e9 16bc
000002b0: f50c 09bc 941e 873e e26e b6bd dfdc 9fbc
000002c0: 3de8 983e 65f8 8e3d ae1d 1fbd 4d1d b63d
000002d0: 4630 803d 23ad 48bd 89eb 123e a87d 1dbd
000002e0: 1311 ecbb 5ec2 933d 8f1d 2abd 510e 1c3d
000002f0: fa09 913d f53a 8f3e c957 863c 408a 66bd
00000300: c5c4 3fbe 956f dbbd 2a70 41bd adf6 883e
00000310: ee94 1f3c 0189 9fbd 63ab 60bd a865 01bd
