illustration/paper_data/784Neurons/e2edense_sr350_v0.15/latest_model/b1.npy (npy, 3264 bytes, 1 tensors)

array f4 [784]
000000 d5 50 e0 3d 5b 01 4e be e4 b2 a2 bd 1b a6 19 3d
       0.109529175 -0.20117705 -0.07944277 0.037511926
000010 64 fe 81 bd 3e 2d d6 bd dd 34 69 bd 16 a3 10 3e
       -0.06347349 -0.10457848 -0.05693518 0.14124712
000020 ce 3f 0e 3e 2b dd 43 3e 09 90 1a 3d aa 78 37 bb
       0.13891527 0.19127338 0.03773502 -0.0027995505
000030 2e 9a fc 3d ab ca b8 3c 6f 5b ab 3c 75 72 b7 3d
       0.12334095 0.022557577 0.020917622 0.08957378
000040 64 45 2f bd 5a c3 b6 3d 58 42 ee 3d 34 27 7e 3d
       -0.042790785 0.08923979 0.11633748 0.062049106
000050 bb 2c e8 3d eb 1c 0e 3e d3 8c cc 3c 47 59 ca 3d
       0.11336657 0.13878219 0.024969494 0.098803096
000060 d7 6e 5d 3d d2 69 bd 3d 57 0c a2 3d f0 81 91 be
       0.054060783 0.09248699 0.0791251 -0.28419447
000070 19 26 51 bd 46 77 8a 3d 8b 4b ea 3b 51 71 92 3d
       -0.051061723 0.06761031 0.0071501187 0.0715052
000080 e3 2f 76 bd e4 57 7d 3d e6 e4 0b 3e f3 b8 fe bd
       -0.060104262 0.061851397 0.13661537 -0.1243762
000090 91 b6 0d 3e 03 47 61 3c b3 72 c0 3c ae 74 b5 3d
       0.13839175 0.013749841 0.023492193 0.088601455
0000a0 5f 0c 83 3d 94 f0 b0 3d e1 f9 0d 3e b0 c0 d8 3c
       0.06398844 0.08639637 0.13864852 0.026459068
0000b0 b2 07 0e 3e af 88 24 be dd 7d c5 3d 81 0b 80 3c
       0.13870123 -0.16067766 0.09643147 0.015630485
0000c0 ed be 75 3d 05 b4 5d bc c0 47 88 bd c8 dc 05 be
       0.059996534 -0.0135316895 -0.0665431 -0.13072503
0000d0 42 e6 16 3d e5 eb a5 3c a4 41 d6 3d 68 66 e5 3d
       0.036840685 0.020254085 0.10461739 0.11201173
0000e0 cd 6b 66 bb f3 2a 2c 3e 46 e8 57 3d 35 f2 a0 3b
       -0.003515947 0.16813259 0.052711748 0.004911686
0000f0 05 67 66 be b6 e1 84 bd 4d 01 3c 3e d3 d7 c7 bd
       -0.22500236 -0.064883634 0.18359871 -0.09757962
000100 71 f8 1b 3d f5 f1 34 3d 5e 0f 8f 3d df 47 81 3d
       0.03807873 0.04417606 0.06985353 0.063125364
000110 e1 0e ce 3d a1 4b cd 3d 45 76 9c 3d a6 6e 0d be
       0.10061432 0.10024191 0.076397456 -0.1381174
000120 59 01 bf 3c 39 45 fd 3d 66 70 ef bc 3c 27 54 3a
       0.023316072 0.12366719 -0.0292284 0.00080930046
000130 52 ea 8d 3b 7e ad 6c 3d ff 12 65 3d 3c 80 84 3c
       0.0043309117 0.057782643 0.05592632 0.016174428
000140 83 03 1d bd 30 57 93 bd bc 5c 12 bc 54 b7 76 bc
       -0.038333427 -0.07194364 -0.008933242 -0.015058357
000150 83 74 e4 3c 31 4a ba 3d 8b 76 cb 3d 52 f9 d5 3d
       0.027887588 0.09096182 0.0993472 0.10447945
000160 2e bb 13 be 63 22 73 3d 84 db 9e 3d a8 67 30 bd
       -0.14426872 0.059358966 0.07756713 -0.043067604
000170 06 54 bb 3c e8 2d 72 be 84 6a 0c 3e 7c c7 71 bb
       0.022867214 -0.23650324 0.13712507 -0.0036892584
000180 57 81 ec 3d c0 a8 c3 bd 00 40 84 bd d0 18 11 3e
       0.11548107 -0.09553671 -0.064575195 0.14169621
000190 b3 76 6c bd f6 52 23 be 50 75 a2 3d 8c 95 00 3e
       -0.057730388 -0.15949616 0.07932532 0.12557048
0001a0 f1 8e c3 3d 77 d9 98 bd 55 9f f1 3d d5 cb cd 3d
       0.09548748 -0.07463353 0.11797968 0.100486435
0001b0 ca 7d 44 3d ab 9f 51 bd 3f 48 18 3e 5f a9 7e 3d
       0.047971524 -0.051177662 0.1487131 0.062173244
0001c0 9c 1d 07 3e e5 91 06 3d 06 b7 07 be 39 95 c7 bd
       0.13194889 0.03285398 -0.13253412 -0.09745259
0001d0 70 a7 17 bd b5 ee 2f bc 97 8c 94 3d ec 68 4f 3e
       -0.037024915 -0.010738065 0.07253378 0.20254868
0001e0 8f ba bf 3c 05 33 9f 3d 29 77 44 bd 61 94 cc 3d
       0.023404388 0.07773403 -0.047965202 0.099892385
0001f0 00 6b 5e bd 37 6c f3 3d 36 25 67 be bc ed bf bb
       -0.054301262 0.11885875 -0.22572789 -0.0058571976
000200 6d 54 15 3e fa 26 a1 bd a4 8e 29 3e a2 74 a7 bd
       0.14582987 -0.07868762 0.1655832 -0.08176543
000210 48 ff 87 bd 8b dd 13 3e 04 54 a4 bc 52 36 c2 bd
       -0.06640488 0.1443998 -0.020059593 -0.09483017
000220 3d 39 bb 3d a6 00 35 3d 2e 12 d8 3d 33 bb f9 3d
       0.09141777 0.04419007 0.105503425 0.121939085
000230 d0 32 4a 3e 16 e4 84 bc 44 b1 a5 3d 80 95 5c 3c
       0.19745946 -0.016222041 0.08090451 0.013463378
000240 51 78 85 bd a4 f1 b1 bd 37 99 41 3d 6a 5e 2d bd
       -0.06517089 -0.086886674 0.047265258 -0.04232637
000250 69 eb 0f 3e da c0 2d 3d 7a f4 9e bd 10 2c 60 3d
       0.14054646 0.042420246 -0.07761474 0.05472952
000260 5f 9e 04 3e a1 0e bd 3d d4 35 99 3b 20 a8 a0 3d
       0.12951039 0.09231306 0.0046756063 0.07844567
000270 af 8a 37 3c c7 d6 fd 3d 3e df 8d 3c 6d fb 46 3d
       0.011202498 0.12394481 0.017318364 0.048579622
000280 32 e8 d3 3d f9 69 36 bd 1c 5b 0b 3a 03 37 86 3d
       0.10347022 -0.044534657 0.00053160056 0.065534614
000290 c1 26 1c 3e db d8 44 3d f3 af 16 3e c1 00 e6 3d
       0.15249158 0.048058372 0.14715557 0.112306125
0002a0 d2 db 9f 3d c1 03 c2 bd 85 4c 23 bd 57 f7 82 bd
       0.07805599 -0.09473372 -0.039867897 -0.063948326
0002b0 c0 c2 1f 3d 78 ca 05 bd 7b a0 51 3d b0 4c f4 3c
       0.039004087 -0.032663792 0.051178437 0.029821724
0002c0 72 45 d4 3d 0a e6 47 3d 42 b3 80 3d d6 5f b5 3d
       0.10364808 0.048803367 0.06284191 0.0885617
0002d0 05 89 be bd 8e 5c 0b 3e 10 2e d9 3d e8 81 8a bd
       -0.09303478 0.13609526 0.10604489 -0.06763059
0002e0 ef de 99 bc 2a b8 e6 3d 4e 3e 3b bc 13 7a d1 3d
       -0.01878306 0.11265595 -0.011428429 0.10228362
0002f0 c9 c5 85 bd 21 42 e1 3d cb 2d 08 3c 8a a3 38 3e
       -0.06531865 0.10998941 0.008311699 0.18031135
000300 b4 a6 d4 3c 46 a2 89 3d d9 36 43 3d 29 cf cf bd
       0.025958396 0.06720404 0.04765973 -0.101469345
000310 1b ee c9 3d 7e 7c 57 3c 3f e9 23 3e a6 e2 2d be
       0.09859868 0.01315224 0.16006945 -0.16980991
000320 6a 42 42 bd 7a b2 d1 3d 07 9c 88 3c 55 f3 a1 3c
       -0.04742662 0.1023912 0.016675962 0.01976935
000330 79 31 98 3d 95 de da 3d 6e 9b 9a 3d 9e e9 1e 3d
       0.07431311 0.106869854 0.07549177 0.038797013
000340 f4 39 f6 bd 92 62 c9 3d f3 50 3a bd f1 de a7 bd
       -0.120227724 0.09833254 -0.045487355 -0.081968196
000350 c9 27 f7 3d 9d f7 0b 3d 66 51 68 3b a5 0b 8c bd
       0.12068135 0.03417169 0.0035448908 -0.068381585
000360 ff e8 35 3e 0d 2a 32 3e ce 12 d6 bd a5 78 e7 bd
       0.17764662 0.17398854 -0.104528055 -0.11302308
000370 68 60 25 be 4f b3 b3 3c 98 99 3b bc 73 f7 ed bc
       -0.16150057 0.021936087 -0.011450194 -0.029048657
000380 6e 7d ea 3d f1 d2 e5 bc ea 3a ee 3d 67 b0 49 be
       0.11449705 -0.028054686 0.11632331 -0.19696198
000390 13 24 1b 3d 5c 48 59 3e 81 f4 b3 3c d6 02 e1 bd
       0.0378762 0.21219009 0.021967174 -0.10986869
0003a0 81 03 a9 3d 05 7c 84 3d ec 16 14 3e 93 a6 e3 3d
       0.082526214 0.06468967 0.14461869 0.11115756
0003b0 3d ba 51 3d 2a b6 0b bd 37 0e 41 be ef 48 31 3e
       0.051203 -0.034109272 -0.18853079 0.17312978
0003c0 2e b2 a3 3d 5a 1b 27 3e 58 77 67 3d 8f e0 0f 3e
       0.079929695 0.16319028 0.0565103 0.14050506
0003d0 a4 10 2b 3d 68 cc 12 3d 47 8b 18 be 0f e7 8a 3d
       0.041763917 0.03583947 -0.1489688 0.06782352
0003e0 47 9c ac 3d 20 d4 ea 3d c9 d4 33 3d d2 10 af bd
       0.08428245 0.11466241 0.0439041 -0.0854813
0003f0 d4 3b 23 3d 5f 6b bd 3d 24 dc 5e 3d b2 65 9b bc
       0.03985198 0.09248995 0.05440916 -0.01896939
