illustration/paper_data/timings/timing/e2edense_sr160_v0.07/best_model/b2.npy (npy, 928 bytes, 1 tensors)

array f4 [200]
00000000: a9e2 e8bc 2650 6dbd 8332 f63c 20bf ab3d
00000010: 3ede 86bd acef 2cbd 2084 153d e269 cbbc
00000020: cfd3 c33a a361 5fbc 26eb cb3c ad15 fe3d
00000030: 1b90 f9bd 75eb eb3d f6c6 c53c c3c2 a8bc
00000040: 5f50 16bb c62c 39bc 7302 4dbc 2fba 98bb
00000050: 8be3 1a3d 45bd 0c3d 4d33 60bc 3e85 b3bd
00000060: f9cf 653d 4315 8e3b 9626 e63d 681c 743c
00000070: eb35 c73c cab9 713d ede4 6a3d 0caa c63c
00000080: fbe3 b53d 96d7 fabc 1c6c 1e3b e35f 663d
00000090: 7e1c 61bd b7cc 8639 fbb2 0ebd d6c6 b9bd
000000a0: cb68 bebc fb90 123d a28c 79bd 984d 893d
000000b0: d9fe afbb f06f eebd 618b 2cbd 06fc 4bbd
000000c0: d0f1 8d3d 66a8 0bbe 615d b5bd c7ec 1d3d
000000d0: 2898 763c 5ff9 723d 9c99 b13c 8f8a 29be
000000e0: a6c0 823c 61f6 88ba feeb ae3d b2e8 703d
000000f0: 9d6f 793d 4eb2 14bd 3a68 013e 4e4f 853d
00000100: 6cc7 013e dcae b93c d523 a7bc 5fcf 9b3c
00000110: 7c51 6b3d b600 09bb dd2f 133d f75f a9bd
00000120: ef4f 973d 9098 54bd 4c99 d63d 7007 02be
00000130: ad7c db3d 5f23 8abd 6213 3b3d 8aad a3bc
00000140: 5390 c8bd bf3d faba d721 453c 1199 013e
00000150: 1682 8bbd aef0 f03d db1e 973b 5d87 ae3d
00000160: beba c8bd 8822 f4bb c05c a43b 61c2 1dbc
00000170: f830 6abe 26d9 a53d cb0d 59bd 38d2 c6bc
00000180: 5bce 843d 67eb 04bd 9328 8c3d 5649 eebd
00000190: b3e8 393d 774e 7cbd 4164 4fbc a9e4 3b3d
000001a0: 6c6c 48bd e691 973d 89c1 343d 024e 303d
000001b0: d200 8d3d 1061 54bc cf9a 21bd d820 bd3b
000001c0: d344 2abd c760 3bbd d4fe 0e3d 9652 abbd
000001d0: 34a3 9bbb 7fdf d03d 70e0 3a3d 705b e63d
000001e0: 239b a2bd c045 83bc a340 6a3d 0099 163d
000001f0: 06bc b9bd bd48 9bbd 7c2c a53d 2e7a 7838
00000200: 528c e53c 9d9e 2d3d e89d aa3d b7d3 973d
00000210: 1bdb 8cbd aed1 0c3e ac36 c5bc d39d c33d
00000220: 3be2 c93d c45f c13c fb95 ba3d 0794 0d3d
00000230: b9a0 6dbd 5277 a2bb a789 de3d fa8a 193d
00000240: 17e9 f23d cc15 c6bd 5a80 403d f7b7 d73c
00000250: cf8e ecbc 0b01 4ebd f01a de3b 4ad3 b53c
00000260: b52f eebd 4463 35bd b31d 133d d2d8 17bd
00000270: 86d0 3abc a58d 8abc 1831 de3b e74b 4ebc
00000280: ab2a 833d 09a8 c43d 3805 943d 02b7 923c
00000290: 7165 bebd 5cf9 a93a 1a48 1ab9 33a5 8d3d
000002a0: 43ed 84bb e880 0dbd 8e58 823d e337 c13d
000002b0: 380d 103c 9e45 d33d 1aab f13c 2036 fdbd
000002c0: 17f3 f8bd 8cb9 2a3c 5b05 57bc 60fc 32bc
000002d0: 1e50 e13c 57b5 eebd 8d77 1bbe 3332 433b
000002e0: f7a4 72bd f4ae e43d c941 91bd 752d af3d
000002f0: 6b7c 813d fb7a b1bc 3ae7 22bc 1951 afbd
00000300: 2e0a 833d 7f1e 19be 83f2 6c3d 3b89 603d
00000310: 05bd aebc 0086 14bd effc 273d ec75 dfbc
-0.028428392 -0.057937764 0.030053383 0.083860636 -0.06585358 -0.042220756 0.036502957 -0.024830762
0.0014940443 -0.013634118 0.024892401 0.12406478 -0.12185689 0.11519519 0.024142724 -0.020600682
-0.0022936088 -0.011302179 -0.012512791 -0.0046608667 0.037814658 0.03436019 -0.013684106 -0.08765648
0.05610654 0.0043360307 0.112378284 0.014899351 0.024317702 0.059015073 0.057347227 0.024251007
0.088813744 -0.030620378 0.0024173325 0.05624379 -0.054958813 0.00025710996 -0.034838658 -0.09071128
-0.023243329 0.035782795 -0.060925134 0.06704253 -0.0053709564 -0.11642444 -0.04212511 -0.049800895
0.06930888 -0.13638458 -0.08855701 0.038555887 0.015050925 0.05931985 0.021679692 -0.16556762
0.015961003 -0.0010449403 0.08541106 0.058815666 0.06089746 -0.036302857 0.12637416 0.06509267
0.1267373 0.022666387 -0.020402828 0.01901978 0.057450756 -0.0020904965 0.035934318 -0.08270257
0.07388293 -0.051903307 0.10478458 -0.1269815 0.107171394 -0.06745028 0.04567278 -0.01998021
-0.09793153 -0.0019091888 0.012031994 0.12656046 -0.06811921 0.11764656 0.0046118326 0.08521912
-0.09801243 -0.0074504055 0.0050159395 -0.009628863 -0.22870243 0.080980584 -0.05299167 -0.024270162
0.06484672 -0.03245106 0.068436764 -0.116350815 0.045387935 -0.061598267 -0.01265818 0.045872364
-0.048931524 0.07400875 0.044129882 0.043043144 0.06884922 -0.012962595 -0.039454278 0.0057717375
-0.041569542 -0.04574659 0.03491099 -0.083653614 -0.00474968 0.101988785 0.045624197 0.11247909
-0.07939746 -0.01602447 0.05719055 0.036767006 -0.09069066 -0.07582233 0.08065125 5.9241596e-05
0.028021012 0.042387594 0.083308995 0.07413428 -0.068777286 0.13751861 -0.024073921 0.09551587
0.09857603 0.023605235 0.09110638 0.034564998 -0.058014605 -0.0049580717 0.10866099 0.037486054
0.118608646 -0.09672126 0.046997406 0.026332838 -0.02887669 -0.050293963 0.0067781135 0.022195477
-0.11630193 -0.04428412 0.035916995 -0.03707201 -0.011402255 -0.016913245 0.006780755 -0.012591339
0.06404623 0.09602363 0.07227558 0.01790953 -0.09296692 0.0012967992 -0.00014713444 0.06916275
-0.004056604 -0.034546763 0.06364547 0.09434488 0.008792214 0.10316013 0.029500533 -0.12363839
-0.12155741 0.010420214 -0.013123835 -0.010924429 0.027504023 -0.116556816 -0.15182324 0.002978456
-0.059239354 0.11166182 -0.07092626 0.08553592 0.06322559 -0.021665087 -0.009942824 -0.0856039
0.06398426 -0.1495304 0.057848465 0.054818373 -0.021330366 -0.036260605 0.0410127 -0.02727791
