illustration/paper_data/500Neurons/e2edense_sr350_v0.03/best_model/b0.npy (npy, 2128 bytes, 1 tensors)

array f4 [500]
000000 55 60 d1 3c 9e d3 d2 3c 3e 40 b3 3d 6f a3 94 3d
       0.02555863 0.025735673 0.087524876 0.07257735
000010 5c 96 94 3b 10 c1 38 bc 5e 65 a4 3d 75 b4 ce 3d
       0.004534526 -0.011276498 0.08027147 0.10093013
000020 f6 e8 61 3c 56 2a 88 bd 4d e4 4a bd 93 68 d5 bb
       0.013788452 -0.066487 -0.04953413 -0.0065127104
000030 3b 3c ad 3d 71 e1 67 3c 71 c1 f4 3a b8 a3 c4 3b
       0.08458754 0.0141528705 0.0018673373 0.006000962
000040 2f 3a 8b 3d 18 a1 7d 38 95 03 02 be 71 ca 8b bd
       0.06798207 6.046993e-05 -0.12696679 -0.06825722
000050 cc 53 42 bd 29 71 59 bd 24 bb da 3d d6 af 17 3b
       -0.047443196 -0.053086434 0.106802255 0.0023145578
000060 59 80 09 bb b9 07 c7 3c d0 7b cb 3d 10 b2 77 3c
       -0.0020981042 0.024295675 0.09935725 0.015118137
000070 ea f7 bb bc 86 07 40 3d 7f 3c ab 3d a1 8c cb bb
       -0.022945363 0.046882175 0.08361148 -0.0062118326
000080 f0 37 d4 3a 90 1a ca 3b f4 f2 66 bd 20 81 f8 3c
       0.0016190987 0.0061677173 -0.056384042 0.03033501
000090 38 2e bf bd d9 23 6c bc 18 01 bf 3d 87 1a ed bd
       -0.093349874 -0.014412844 0.093263805 -0.11577325
0000a0 3e 04 01 3e 91 ff 70 3c 03 3b 48 3e 68 bc bd 3c
       0.12599275 0.014709369 0.19553761 0.023161128
0000b0 15 fc 03 3e 46 ef 98 3c f2 3f f3 bb 3f f4 ad 3d
       0.1288913 0.018668782 -0.0074233944 0.08493852
0000c0 a9 3c ec 3c d3 39 bb 3d c8 70 43 bc cd 1e 97 3b
       0.028837519 0.091418885 -0.011928745 0.004611826
0000d0 da 2a 04 3d 7b ff a5 3d fb 20 1e bd e1 d8 c1 3d
       0.03226743 0.0810537 -0.03860567 0.094651945
0000e0 80 78 f2 3b 2b 45 8f 3d 9a d8 3b 3d 1d ae 5c bc
       0.0073996186 0.069956146 0.045860864 -0.013469246
0000f0 80 fc 55 bd 89 e4 2d 3d 00 af 07 3c 37 99 66 bc
       -0.052242756 0.042454276 0.008281469 -0.014074615
000100 e7 35 c1 bc 8d e9 e1 3c 0a bd d4 3d f8 66 2b bd
       -0.023585273 0.027577186 0.10387619 -0.041846246
000110 d7 31 8a bd 12 ce 81 bb 6a df ff bc 50 e8 7f bc
       -0.067477874 -0.003961333 -0.031234462 -0.015619352
000120 d4 69 9b 3d 01 df 58 3d 60 dd 99 bc 58 52 6d bc
       0.075885445 0.052947048 -0.018782318 -0.014484964
000130 ae 99 ac 3c fe dd 54 3d e5 ed 84 bd 26 b8 de bc
       0.021069374 0.05196952 -0.06490687 -0.027187418
000140 7f 1d 9c 3d c2 19 87 bc 49 a9 05 3c 74 b2 91 3c
       0.076228134 -0.016491774 0.0081580365 0.017785288
000150 cc d4 08 bd a7 5b 9c 3d fd 2c 0d bd 2a 62 d4 3d
       -0.033406064 0.07634669 -0.034466732 0.10370286
000160 b8 f1 6c bd 5d 58 34 bc 65 42 47 3c 8c 44 22 be
       -0.05784771 -0.011007396 0.012161826 -0.15846461
000170 24 1e 32 bd ef 92 a7 3d db 18 45 bc e5 8d 05 bd
       -0.043485776 0.08182322 -0.012029852 -0.032606024
000180 24 cb db bd a9 af 39 3d 66 be 90 bd 52 1a 7b bd
       -0.107321054 0.04533354 -0.070675656 -0.061304398
000190 8f 96 f6 3c 31 f5 b5 3d 7f d4 8e 3d ca b6 80 3d
       0.030101089 0.08884657 0.06974124 0.06284864
0001a0 a7 de 94 bd 15 ec 69 bd 56 cd 2c 3d e6 54 b0 3c
       -0.0726903 -0.05710991 0.04218801 0.021524858
0001b0 7d 4f 22 bd 80 30 c7 3d 29 90 ce 3c 0b b3 b0 3d
       -0.039626587 0.097260475 0.025215225 0.086279
0001c0 52 b7 1d 3e 16 b9 b9 ba 84 1e 6e 3c e9 17 79 3d
       0.15401962 -0.001416954 0.014533643 0.060813818
0001d0 aa 45 85 3d e5 11 06 3d 09 16 8c 3d 3b d1 7e 3d
       0.06507428 0.03273191 0.0684014 0.062211256
0001e0 83 8c 23 bd d3 63 b1 b9 50 ae e2 3c 58 8a 84 3d
       -0.039928924 -0.00033834446 0.02767101 0.064716995
0001f0 cd e4 54 bd 01 4d 71 bc f4 36 c0 3c af 74 9d bd
       -0.051976014 -0.014727832 0.023463704 -0.07688271
000200 28 29 95 3d 75 74 bc bb 13 1e 06 3e 4d 77 90 3d
       0.072832406 -0.0057511874 0.1309741 0.07054005
000210 b6 88 05 3e 20 d4 07 3d 4b f5 a0 bc 79 46 86 3c
       0.13040432 0.033161283 -0.019648215 0.016391026
000220 f2 b4 08 3d a8 7a 29 bd 00 9f 76 bd 0f fe d5 3d
       0.033375688 -0.04137674 -0.060210228 0.104488485
000230 01 c4 9a bb ea 84 e5 3d 0c 62 06 3e 64 9d 68 bc
       -0.0047230725 0.11206992 0.1312334 -0.014197681
000240 6e 10 4d 3d 2c 76 7b 3d 57 19 a1 bc 19 60 1b bd
       0.050064497 0.061391994 -0.019665403 -0.037933443
000250 ff c8 d4 bd 40 dd 65 3d 7c 35 5f ba c5 dc 99 bd
       -0.103898995 0.056119204 -0.00085147447 -0.075128116
000260 77 eb 59 3d 0a 19 de 3c 3b ad e9 bc 96 55 13 3d
       0.053203072 0.027111549 -0.028524986 0.035970293
000270 c5 73 db 3d 2e b6 5f bd 90 34 aa bc 12 35 58 bd
       0.10715441 -0.0546171 -0.020777017 -0.052784987
000280 7a c1 f6 3a 5e 81 61 bc 56 0d b2 38 01 0d d5 3d
       0.0018825971 -0.013763754 8.4901854e-05 0.10402871
000290 86 c3 86 3c 85 61 c8 3c c4 0c a4 3d 75 c1 ab bd
       0.016450655 0.024460563 0.08010247 -0.083865084
0002a0 a2 58 46 bd 99 ee 73 3d 26 07 03 bd 12 4b e9 bd
       -0.04842437 0.059553716 -0.03198924 -0.11391272
0002b0 5d a8 47 3d 22 9b c9 bc 98 b7 7b bc c8 b1 a7 bc
       0.048744548 -0.024610106 -0.015363596 -0.020470515
0002c0 a3 40 80 3d 71 1f d1 3d 9b a1 b2 3d 3d f7 57 bd
       0.062623285 0.10211075 0.0872223 -0.05272602
0002d0 59 5d ee bc a4 e0 ac 3d 04 46 8b bd 1f 65 9f 3c
       -0.029097246 0.08441284 -0.06800464 0.019457398
0002e0 ad 0c dc bd 9f a5 b0 3d 46 86 64 3d 35 ab 29 3e
       -0.10744605 0.0862534 0.055792116 0.16569217
0002f0 84 b5 c7 3d a6 8b 22 3e 18 33 5e 3d 23 e4 26 bd
       0.09751418 0.15873584 0.054247946 -0.040744912
000300 0b 20 38 3d 91 ef 3a bd 73 48 e6 3c 78 3c cf 3b
       0.044952434 -0.045638625 0.028110718 0.006324347
000310 34 a1 dc ba 98 60 28 bc d8 0d 95 bb 0d 8a 88 bb
       -0.001683271 -0.010276936 -0.0045487694 -0.0041668476
000320 f1 c2 59 bb be 0b ab bd 78 f3 4a 3c a1 b4 9b 3c
       -0.0033227766 -0.08351849 0.012387149 0.019007029
000330 4c ab e8 bc bc 20 83 bb dc 7e 88 bd bb c9 16 3d
       -0.028401993 -0.004001705 -0.066648215 0.03681348
000340 bd ff 1a bd 3f e5 19 3d b2 d4 8e bc 11 91 1f 3e
       -0.037841547 0.03757214 -0.017435405 0.15582682
000350 5f da 3a 3e cc 45 b0 3c 4d 05 5c bd 49 95 bd bc
       0.18247364 0.021517657 -0.053715993 -0.023142474
000360 04 69 ff bc 49 0c 4e 3d a2 68 d1 3d 6e ef 97 3d
       -0.031178005 0.050304685 0.10225035 0.074187145
000370 15 9d a7 3c 84 0e dd bc 1c 90 48 3c d8 ae 56 bd
       0.020460645 -0.02698446 0.01224139 -0.052412838
000380 0f f3 fd bd c8 e9 be bb 77 69 69 3d 6f 37 1c bd
       -0.123998754 -0.0058262087 0.056985345 -0.038138803
000390 50 a0 be bd af 8d 93 bc c7 9f 47 3d 7d b1 aa 3d
       -0.09307921 -0.018011896 0.04873636 0.083346345
0003a0 9b aa 7c 3d ff f9 25 bc 0d ad 3e 3c 91 ef d5 3c
       0.06168614 -0.0101304045 0.011637938 0.02611521
0003b0 d0 af 68 3c cd 16 9b bd f6 c4 c7 3c b6 51 a0 bc
       0.014202073 -0.07572708 0.02438591 -0.019570213
0003c0 b8 c8 0b 3c c0 53 16 3e a6 12 89 3c 37 b2 61 3c
       0.008531742 0.14680386 0.016732525 0.0137754
0003d0 05 a2 2a bd 0d e5 a2 bd 92 d5 86 bd e7 88 64 bc
       -0.04165842 -0.07953844 -0.06583704 -0.013948656
0003e0 bc 28 91 bc 70 7b 10 3d 4f d1 45 bd 19 62 ae bd
       -0.017719619 0.03527397 -0.048295315 -0.085148044
0003f0 1e 1c 1a bd 13 27 ab bd 0d e1 cd 3c 6e a3 a6 3d
       -0.03762447 -0.08357062 0.025131727 0.081366405
