illustration/paper_data/200Neurons/e2edense_sr300_v0.09/latest_model/b1.npy (npy, 928 bytes, 1 tensors)

array f4 [200]
-0.6399322 -0.24538915 0.11828819 0.018928615 0.0612436 0.24538751 0.32030243 -0.55199766
-0.21450107 0.38936442 0.101939626 0.44513613 -0.40972868 -0.2439874 0.033275235 -0.025723118
0.23245813 -0.23588178 0.48702875 -0.23262283 -0.5929889 -0.4629986 -0.025061447 -0.07778158
-0.30539188 -0.06089159 -0.0776331 0.3811595 -1.0169826 -0.06516264 0.18951498 -0.52844584
-0.15424187 0.12343925 0.022106119 0.11398481 -0.81517905 -0.22824398 -0.4621514 0.15857977
-0.7374798 -0.43767762 -1.4188409 -0.2331255 0.29388005 -0.067306735 -0.25791278 -0.105146326
-0.16925906 0.41580102 -0.40126285 0.03840797 -0.5967181 -0.63880837 0.19305755 -0.1279906
-0.89913285 0.26823434 0.24269247 0.04678043 -0.8273563 -0.030290062 -0.14896528 -0.424517
-0.31792787 -0.6956548 -1.2139932 -0.38949057 -0.09207694 0.8605472 -0.5717184 0.22689155
-0.4752399 -1.1548293 0.008987689 0.36124372 -0.8320421 0.0547608 -0.094745815 0.31886378
-1.0183787 -0.8739142 0.023153435 0.07230761 -0.6513245 -0.32993942 0.50653243 -0.61593974
-1.2325288 -0.47302395 0.21046464 -0.5517873 0.0348118 -0.35249484 -1.002189 0.13717346
-0.17576942 -0.30871084 -0.7071837 0.025735673 0.38178068 -0.0232295 -0.9200306 -0.45457828
-0.89412475 0.4621399 -0.55246 -0.41394073 0.42214334 -0.18470718 -0.70358574 -0.20884636
0.49893 -0.27459908 0.19675526 0.005231836 -0.762949 -0.46496937 -0.30011174 -0.090126045
-0.0984171 0.04773185 -0.7781476 -0.104154445 0.4400404 -0.007507792 -0.39615858 -0.56857836
-0.58435553 0.6018937 -0.34753352 1.168041 0.22552691 -0.27078277 -0.8395452 0.37593234
-0.746998 -0.6158798 -0.40127528 -0.37713194 -0.287203 0.24064295 0.031255994 -0.22619598
-1.3766361 0.04846715 -0.3124785 0.29014987 -0.46577075 -0.5199281 -0.6695215 0.16250041
-0.11973829 -0.47436655 -0.16550899 -0.3181856 -0.24038558 -0.1389007 -0.38698706 0.37792262
0.21753447 -0.98928046 -0.8321674 -0.26943272 0.30393246 -0.50727576 -0.26452097 -0.56303954
0.35999286 -1.1299337 -0.58454496 -0.2482707 0.42086637 -0.049542066 -0.7897991 -0.44572935
-0.3890627 0.52195907 -0.056599516 -0.4179574 -0.4089401 0.053061206 0.16836114 -0.76514626
0.49759635 -1.2853526 -0.15737091 -0.33732113 -0.030123502 0.53199774 -0.16975822 0.16470574
0.041952036 0.06815086 -0.5012561 0.43508342 -0.16875474 0.12491273 0.3257771 -0.18177667
00000000: 99d2 23bf 4b47 7bbe 1441 f23d 2f10 9b3c
00000010: 92da 7a3d dd46 7b3e aefe a33e b84f 0dbf
00000020: 2ba6 5bbe c65a c73e b9c5 d03d e2e8 e33e
00000030: f5c7 d1be d5d7 79be 9d4b 083d 4ab9 d2bc
00000040: 8109 6e3e fe8a 71be d55b f93e ae34 6ebe
00000050: 1fce 17bf 270e edbe aa4d cdbc f34b 9fbd
00000060: 535c 9cbe 7669 79bd 1afe 9ebd 5727 c33e
00000070: 7c2c 82bf fd73 85bd 3710 423e 3a48 07bf
00000080: 95f1 1dbe b8cd fc3d e417 b53c de70 e93d
00000090: 93af 50bf cab8 69be 1c9f ecbe bc62 223e
000000a0: 7acb 3cbf 4817 e0be 949c b5bf 73b8 6ebe
000000b0: 7277 963e 1dd8 89bd 250d 84be f556 d7bd
000000c0: 3f52 2dbe dfe3 d43e 5372 cdbe ad51 1d3d
000000d0: 84c2 18bf f288 23bf e1b0 453e f80f 03be
000000e0: 922d 66bf 0356 893e 6084 783e d69c 3f3d
000000f0: 9fcd 53bf dd22 f8bc 5b8a 18be 4b5a d9be
00000100: 71c7 a2be 6f16 32bf 2164 9bbf 4f6b c7be
00000110: d692 bcbd d24c 5c3f 235c 12bf 4256 683e
00000120: a552 f3be 72d1 93bf 1a41 133c f0f4 b83e
00000130: b600 55bf dc4c 603d 180a c2bd 1d42 a33e
00000140: 3c5a 82bf d7b8 5fbf 46ac bd3c 0316 943d
00000150: 34bd 26bf d2ed a8be 1cac 013f 3aae 1dbf
00000160: 81c3 9dbf 3230 f2be 0b84 573e ef41 0dbf
00000170: d196 0e3d 347a b4be bb47 80bf 3377 0c3e
00000180: e6fc 33be 590f 9ebe fe09 35bf 9ed3 d23c
00000190: c278 c33e cb4b bebc 2087 6bbf 7cbe e8be
000001a0: 5ce5 64bf 9a9d ec3e 056e 0dbf 0af0 d3be
000001b0: 2c23 d83e e123 3dbe 321e 34bf d2db 55be
000001c0: c173 ff3e 4098 8cbe 367a 493e d26f ab3b
000001d0: a050 43bf 7710 eebe 3fa8 99be 0194 b8bd
000001e0: e88e c9bd 7982 433d ae34 47bf ed4e d5bd
000001f0: fa4c e13e ed03 f6bb 4cd5 cabe 5a8e 11bf
00000200: 5398 15bf b515 1a3f eaef b1be 5e82 953f
00000210: 87f0 663e 0aa4 8abe 6fec 56bf 347a c03e
00000220: 433b 3fbf 4caa 1dbf f473 cdbe 7017 c1be
00000230: 460c 93be 1b6b 763e 4906 003d eb9f 67be
00000240: 9d35 b0bf 7e85 463d 2ffd 9fbe 868e 943e
00000250: 8179 eebe 021a 05bf c365 2bbf 8266 263e
00000260: 5939 f5bd 2ce0 f2be 307b 29be 39e9 a2be
00000270: a327 76be fc3b 0ebe 2b23 c6be 137f c13e
00000280: 5bc1 5e3e 7c41 7dbf ec08 55bf 16f3 89be
00000290: 099d 9b3e d3dc 01bf 4b6f 87be 5c23 10bf
000002a0: fc50 b83e aba1 90bf bda4 15bf ad3a 7ebe
000002b0: cc7b d73e 9fec 4abd 4630 4abf a336 e4be
000002c0: 3a33 c7be 1c9f 053f e5d4 67bd 83fe d5be
000002d0: 9960 d1be b556 593d dd66 2c3e a0e0 43bf
000002e0: f3c4 fe3e 6f86 a4bf d725 21be 5bb5 acbe
000002f0: 90c5 f6bc 0131 083f 19d5 2dbe 9fa8 283e
00000300: e6d5 2b3d ae92 8b3d 5252 00bf 41c3 de3e
00000310: 0bce 2cbe 3fd2 ff3d 42cc a63e aa23 3abe
