illustration/paper_data/timings/timing/e2edense_sr40_v0.07/best_model/b0.npy (npy, 928 bytes, 1 tensors)

array f4 [200]
00000000: fafd adbd ea99 373d b4a1 5ebd 4293 843d
00000010: 195d 3e3d 318e b73d cee8 453e 7318 fc3c
00000020: 5dc8 c7bc d933 0d3e dec9 693e 4ee2 2b3c
00000030: c4ba 223e 0b74 b9bd 5c74 be3d db9f bd3c
00000040: 3d62 1c3d 23c4 523e b422 db3d d736 173e
00000050: 1568 30be e657 053e 407f f23d ac67 e23c
00000060: 5623 063e 0e7d 69bd c01c 813e 79b9 473e
00000070: ee73 863e 7a6e bf3d 6c48 4e3e 90e3 213d
00000080: 41da c23d 5ad2 ad3d 8027 3a3d 991f 1d3d
00000090: f05c ce3d 2aba c53d 299a e3bc 3337 f53c
000000a0: 95f2 903d 0b42 913d 5d9a 9e3d 23b6 053e
000000b0: 21be 9e3d b65a e13d beb2 9b3d 1d98 c7bd
000000c0: 9398 6e3d 9f7d 233e 52f3 7a3e 30dc 213e
000000d0: 2f05 b73e bf5f 763e 7f4b 87bc 79dd d43d
000000e0: 1b74 5bbb 58cf fb3d e64d df3d 3b95 01be
000000f0: 873c 9bbc e251 e33d 7bd0 603d fd8b c13c
00000100: cacc b43d 35fc 9d3d fefb 2f3e 7441 a2bc
00000110: 7604 b03d 2f54 a73d 77c9 0a3e c3de e53d
00000120: deaa ad3d d7fb 883d df88 7f3d abe7 153d
00000130: 4db1 8e3e b983 853d 0514 4c3e ab1b 883e
00000140: c86c f33d b9cd 3e3e 4f5d 603e 47e4 e73c
00000150: 3f2c 143d 3f7e cc3d 7615 653d 5c2d 7d3e
00000160: 80be bdbc be62 68bc beeb 3d3e f796 663e
00000170: ace6 a33d 32f6 4abc a9aa 5d3d 5832 843d
00000180: 5c1c 923d 3245 cfbb dc29 ed3d 9553 b53d
00000190: bdb6 763d 62ba 043b af10 1c3e ae9c a93d
000001a0: 7e71 093e efd9 6bbd dec4 b03b 3950 973d
000001b0: c0f9 933d da6c 333e aea5 043d dbad 3e3e
000001c0: 7658 1c3e 1846 623e 0e14 2d3c b819 4e3d
000001d0: 6a9d 843e f70d 11bd 261b 4dbd 458e 653c
000001e0: 9b2b d9ba f16d ef3c 88f2 453e 7200 a53d
000001f0: be4d a43d 5aa1 623d 2596 94bb bc6d 4f3e
00000200: b2a6 bb3c eb71 9a3c d64e e7bd 530b 6b3e
00000210: 9ab1 423d 90af ed3d cb9a b63e 6679 39bc
00000220: ee10 a83e 921e aabd b86e 4c3d 4a84 f33d
00000230: a665 033e be26 3dbc 0cca c8bc ac4a ff3d
00000240: 14e4 603e 70ec 703c f569 3e3d cac2 ef3c
00000250: 2606 143e d53e fe3d 3532 b23d 52a1 833d
00000260: 1697 023c 116d 953d adc9 393e 0f46 e03c
00000270: 5544 e93b b4e0 213e 7a3c 853b 9fce 01bd
00000280: b87d 433e 4fed 263e 2b5f ee3d 73f6 1bbd
00000290: 396f 6d3d 5b78 4a3d 4d1f 8a3d 1f07 243c
000002a0: 349a 9bbd 13e0 6f3e c78f 603d 527c a43d
000002b0: 2cdf 733d 0160 da3d 0fb5 7c3e 10f8 8d3e
000002c0: 816f 8dbd b5ed 703e 3f6a e4bd c8fd ae3c
000002d0: 2147 1d3d 04a4 be3b 54a4 9e3d 1368 023e
000002e0: 8b50 1b3d f501 e3bd c7e9 8e3d 9265 1a3e
000002f0: 9b58 cfbb 5ab2 693d f855 b23d 90b0 0e3c
00000300: c1f8 f73c ab56 3a3d f625 c2bd d8c6 923d
00000310: c4a1 693e a10c f23d 09eb 0cbc 7741 493d
-0.08495708 0.04482452 -0.05435343 0.064734 0.046475504 0.08962668 0.19327089 0.030773377
-0.024387533 0.1378931 0.22830912 0.010490967 0.15891558 -0.090553366 0.092995375 0.023147514
0.038179625 0.20582633 0.106999785 0.14767013 -0.17227204 0.13021812 0.11840677 0.027637325
0.13099417 -0.057004027 0.25217247 0.19504346 0.26260322 0.093472436 0.20144814 0.03952366
0.09514285 0.08487387 0.045447826 0.038360212 0.1007632 0.096546486 -0.02778347 0.029933548
0.07077519 0.07092675 0.07744286 0.13057761 0.07751108 0.1100363 0.07602452 -0.0974581
0.058250975 0.1596589 0.24506882 0.15806651 0.35746142 0.24059962 -0.016515492 0.10393805
-0.0033485952 0.12295407 0.1090353 -0.12654583 -0.01894976 0.11099602 0.054886322 0.023626322
0.08828123 0.0771412 0.17185971 -0.019806601 0.08594601 0.081703536 0.13553415 0.11224129
0.08479856 0.0668866 0.06238639 0.03659789 0.27869645 0.06519265 0.19929512 0.2658361
0.11885983 0.18633164 0.21910594 0.028307093 0.03617501 0.09985017 0.05592867 0.24724334
-0.023162127 -0.014183698 0.1854696 0.22518526 0.080029815 -0.012387799 0.054117832 0.06454915
0.07134315 -0.0063253874 0.1158025 0.08853833 0.060232867 0.0020252694 0.1524074 0.082818374
0.134222 -0.057580885 0.005394562 0.07388348 0.072253704 0.17521992 0.032384567 0.18621008
0.1526812 0.22097051 0.010563863 0.050317496 0.25901347 -0.03541371 -0.05007472 0.0140109705
-0.0016568782 0.029227229 0.193308 0.080567256 0.08022641 0.055329658 -0.0045345 0.20256704
0.022906635 0.018853148 -0.11294334 0.22953539 0.047532655 0.116057515 0.35664973 -0.011320448
0.32825416 -0.08306612 0.049910277 0.118904665 0.12831745 -0.011544881 -0.024510406 0.124654144
0.21962005 0.014704809 0.046487767 0.029267687 0.1445547 0.12414328 0.087009825 0.06427254
0.007970592 0.072961934 0.1814334 0.027377157 0.0071187415 0.15808374 0.0040660473 -0.03169119
0.19090927 0.16301464 0.116392456 -0.03807683 0.0579674 0.049431186 0.067442514 0.010011463
-0.07597771 0.23425321 0.054824617 0.08031525 0.059539005 0.106628425 0.24678443 0.2772832
-0.06906033 0.23528178 -0.11153077 0.021361247 0.038397912 0.005817892 0.07746187 0.12735014
0.03791861 -0.11084358 0.06978183 0.15077808 -0.0063277013 0.057054855 0.087078035 0.008709088
0.030269982 0.04549281 -0.09479897 0.07166833 0.22815615 0.11818815 -0.008600959 0.049134698
