illustration/paper_data/timings/timing/e2edense_sr40_v0.07/best_model/b1.npy (npy, 928 bytes, 1 tensors)

array f4 [200]
000000 4e a0 a9 3d f2 30 af 3d 7e e5 81 3e 0d 18 51 3e
       0.08282529 0.085542575 0.253704 0.20419331
000010 75 16 fd bc 92 5d a8 3d 33 32 68 3e c9 84 92 3d
       -0.030894497 0.08220972 0.226754 0.07154233
000020 f2 f0 95 3d cd 87 43 3d d5 c6 92 3e e1 13 1a bd
       0.07321347 0.04773693 0.28667322 -0.037616614
000030 49 c1 35 3c b0 42 42 bd d9 b9 97 3e 0a dc 89 3e
       0.011093446 -0.04742688 0.29633978 0.2692569
000040 05 08 43 3e 52 ba 1c 3e 7d 53 c4 3d 2f 90 dd 3d
       0.19046028 0.1530545 0.095862366 0.108185165
000050 9a 45 8a 3c b8 c0 8d 3d d6 0b f3 3b ba b7 15 3d
       0.016878892 0.06921524 0.0074171824 0.03655217
000060 e8 14 18 3e f6 f9 50 3e 05 1b 83 3e f4 bc 54 3e
       0.14851725 0.20407853 0.25606552 0.20775205
000070 d1 58 04 3e cf 19 dc 3d 5a 1d dc bd 2f d5 12 3e
       0.12924506 0.1074711 -0.10747786 0.14339136
000080 ad 70 89 3e f7 93 59 3d bb bd 35 3e b3 11 d9 3d
       0.26843777 0.053119626 0.17748158 0.10599079
000090 38 5c cc bc d1 bb 6e bb de 1c ab bc ab ca f6 3d
       -0.024946317 -0.0036427865 -0.020887788 0.120503746
0000a0 3b cb 81 3d e0 a1 8a 3c 1c db 19 3e e6 17 50 3e
       0.06337591 0.016922891 0.1502499 0.20321617
0000b0 50 40 79 3d 61 dc da 3c 6a ea 17 3e 1c ca b6 3d
       0.06085235 0.026716413 0.14835516 0.08925268
0000c0 a5 27 12 3e c9 d6 0c 3d 42 30 91 3e 61 3a 21 bc
       0.14272936 0.034384523 0.2835713 -0.009840579
0000d0 fc 05 16 3e f9 0f 0b 3e d3 b7 3e 3d 20 f2 bd 37
       0.1465072 0.13580312 0.046562027 2.2643304e-05
0000e0 88 50 54 bd 64 a6 93 bd 32 7a 1a 3d 31 3e 8d bc
       -0.051834613 -0.07209471 0.03771419 -0.01724157
0000f0 f5 c4 2d bd bf d7 dc 3d 49 8f 7a 3e 5d 29 d3 3d
       -0.04242416 0.10783338 0.24468721 0.10310624
000100 68 a5 63 3e f4 28 35 3c 53 fa 99 3e 66 4f 5e 3e
       0.22231066 0.011057127 0.30073795 0.21709976
000110 81 79 e2 3d d4 01 0b 3e f6 0a e1 3d a3 22 6f 3e
       0.11058331 0.13574916 0.10988419 0.23353057
000120 3e 54 c0 3c 7b f7 66 3d ff bb ea 3d af 6a b7 3d
       0.02347767 0.05638836 0.11461639 0.08955895
000130 80 d7 4f 3c 82 5b a9 3e 9a 0f 6e 3c 4b 41 14 bd
       0.012685657 0.33077627 0.014530087 -0.03619508
000140 a5 73 b3 bc d3 5a 4c bc e4 2a 18 3e 6f 8b d3 3d
       -0.02190573 -0.012472826 0.14860111 0.10329329
000150 7a 64 da 3c 09 88 51 bd f5 ea e2 bc 17 ef 83 3e
       0.02665924 -0.051155124 -0.027699927 0.2576835
000160 27 10 0b 3d dd 80 2a 3d 83 54 3f 3e 6a 21 36 bc
       0.03395095 0.0416268 0.18684582 -0.011116365
000170 87 8a 66 3d 28 62 28 3e 86 bd 1b 3e 13 19 4b 3e
       0.056284454 0.16443694 0.15209016 0.19833784
000180 4a e9 07 3e 5f 2c 90 3d da 4b e1 3c 76 d0 2d 3e
       0.13272586 0.07039713 0.02750199 0.16974053
000190 a4 34 81 bd c8 57 0f bd 50 5e 5c 3d 66 5c aa bc
       -0.063088685 -0.034995824 0.05380088 -0.020796012
0001a0 cf fd 27 3e 9e 2b bb 3d f8 ec e5 39 bb 5b be 3d
       0.16405414 0.09139179 0.0004385484 0.0929484
0001b0 e3 f5 db bd 16 52 2f 3e db e3 06 3d 98 67 5b 3d
       -0.107402585 0.17121157 0.032932144 0.05356559
0001c0 90 52 b0 3c 06 23 a9 bc 90 e4 97 bc 6d 9e 8b 3e
       0.021523744 -0.020646583 -0.018541604 0.27269307
0001d0 4f 1b 6c bd 7a 60 86 3d 0a 49 24 3e 88 bc 91 3e
       -0.05764323 0.0656137 0.16043487 0.2846415
0001e0 a3 6a 1e 3e 38 fe 27 3e ac b4 57 3e e6 0e 77 3e
       0.15470366 0.1640557 0.21065015 0.24126777
0001f0 a1 0e da ba 9b b3 8e 3e 61 88 a2 3e 32 0a bb 3d
       -0.001663644 0.27871403 0.31744674 0.09132804
000200 33 72 91 3d 5c c1 22 3e 2f 86 11 3e 0a 27 ff 3d
       0.0710186 0.15894073 0.14211343 0.12458618
000210 b5 d8 90 3d 12 40 e2 3d 0a 90 88 3e 4a bd 62 3c
       0.070725836 0.11047377 0.26672393 0.013839075
000220 29 5d 8f 3d 15 60 3c 3e ad ad 36 bd b0 2b 20 3e
       0.07000191 0.18396027 -0.044599224 0.15641665
000230 ed f3 07 3d 44 ca 68 3d c7 3f 12 3b 3a 3b 63 3e
       0.03319161 0.05683352 0.0022315846 0.22190562
000240 36 93 2c 3e 8f f3 61 3e c6 01 a5 3d 5e 45 81 bc
       0.16853032 0.22065566 0.08056979 -0.015780147
000250 ad b6 76 bd 19 17 06 bd b6 26 b4 bd 46 26 11 3b
       -0.060232807 -0.03273687 -0.08796446 0.0022148057
000260 b0 a1 90 3e a3 6d 6e 3e 0d ed b3 bc 29 fd 6c 3e
       0.28248358 0.2328401 -0.02196362 0.23143448
000270 c3 d8 ec bb 64 f8 38 bc 1d 51 38 3d bf 95 96 3d
       -0.0072279884 -0.01128969 0.04499923 0.073527806
000280 5f 29 35 3e 3e 6f c1 3d 3d 39 79 bc 7a be 02 bd
       0.17691563 0.09445046 -0.015211401 -0.031919934
000290 12 78 05 3d 48 52 71 3e 2c c8 91 3e 58 0b 30 3d
       0.03258521 0.23566544 0.28473032 0.04297957
0002a0 7f b5 41 3e ea 27 f7 3c 6b 3a 6a 3e b9 a9 54 3e
       0.18916892 0.0301704 0.22873847 0.20767869
0002b0 d2 6d 27 bd d8 32 a6 3e f6 0a 85 bd d5 e4 29 3e
       -0.040876217 0.32460666 -0.06496231 0.16591199
0002c0 be c6 b0 3d 4f 47 cc 3d 05 68 05 3e 9f 3f 15 bd
       0.08631657 0.099745385 0.13027962 -0.036437627
0002d0 5b e9 fa 3d 40 4e c6 3c 35 bd 11 3d 64 80 1d 3d
       0.1225154 0.024207234 0.035580833 0.03845252
0002e0 e1 66 2a 3e ae 71 1f bc 1e 9b 27 bc 2f 23 27 3d
       0.16640808 -0.009731693 -0.010229854 0.040805038
0002f0 b9 4b 95 bd 08 70 94 3d b5 10 88 3d 9d f9 52 3e
       -0.072898336 0.07247931 0.066438116 0.20603032
000300 0f 29 6c 3e e1 1a 7c 3c 22 7c 0a 3e 50 8c 89 3d
       0.23062538 0.015387268 0.13523915 0.067162156
000310 5e b2 e8 3d c7 04 d9 3d 85 56 ea 3d 3b b5 ae 3d
       0.11362146 0.10596614 0.114422835 0.08530661
