illustration/paper_data/timings/timing/e2edense_sr5120_v0.07/best_model/b0.npy (npy, 928 bytes, 1 tensors)

array f4 [200]
00000000: b54f 913c 7836 67bd 3bb1 a6bd 7976 323c
00000010: f57f 1c3b 3451 d9bc dcb6 ed3d 4e91 a6bd
00000020: 2886 183d fd74 a2bd 14bc 993c e4b5 b0bd
00000030: 3542 843d e02f 793d 62f4 f6bc 3488 593d
00000040: 9650 8cbd 6244 6cbd df52 97bc ab9e eb3c
00000050: 2e32 36bc fc9f ce3d 9616 f83d d276 02be
00000060: ce7f 4d3d 2221 9f3b efb9 6b3c 5a4c 86bd
00000070: db8a f1bd 8c3d 2abc 2fcb abbd 8620 a83c
00000080: 56a0 6cbd 323f e2bd 0499 853d dce0 a5ba
00000090: e828 11bd 6921 55bd ed53 223a ed61 0d3c
000000a0: 1e48 833d e14f 00bc c934 533b 77ef eabd
000000b0: 68d2 90b9 7662 433d 322d 97bc 7894 1fbd
000000c0: af4b a33d 71ec 55bc d3d8 38bd ac74 86bd
000000d0: 064c fcbd be3d e5ba 9d7e 07bd 9653 143d
000000e0: b1c7 7dbd 62f9 81bd 0370 3c3c 3c2a 123d
000000f0: f401 a4ba fb47 0c3d d832 fdbc 493d e23c
00000100: 62b4 dfbc c51a a6bc 72b4 c6bd 0474 52bd
00000110: 551c c2bd b1a9 743d 66e5 b13c e127 053d
00000120: 343c b1bc 9d33 a23d 1a70 1bbc f614 1dbd
00000130: 427e bebd 4823 7aba a10d 883c 7c79 57bb
00000140: 21ee acbc a4b4 1ebc 4a48 4fbd 75be 9d3d
00000150: 91e5 643d ac3f d63c c0be d2bd 5421 c8bd
00000160: 425e 9a3c 2361 b1bc d9b3 35bd 601f a13d
00000170: f3a0 693d d40f 2b3b 83aa 7c3d 941d c4bc
00000180: e5b5 ef3b f5f2 eb3b 2aa0 ae3d 293c 2a3d
00000190: 6b2f 5e3d fc10 89bc 41c8 86bd c986 7cbc
000001a0: ec99 f9bc 98d5 85bd 170d b8bc a9d5 513d
000001b0: ea16 9bbc a76f aa3b f991 463c 4c67 bdbd
000001c0: 6aeb af3d a883 0d3b ce67 59bd 140e 38bd
000001d0: 50be 6c3c 800d babb e90d 103d e606 623b
000001e0: 6147 2f3c 290b 003d 459f 80bd f5b6 40bd
000001f0: af62 9abd c37a 4e3c a250 1739 cfcf c7bc
00000200: c73e 40bd 1604 48bc 1322 be39 dca9 7f3b
00000210: 1068 85bc a25f 123d d8c4 cc3a 555f 913d
00000220: c7f6 11bc 1634 a8bc 2527 a03c ac7e 913d
00000230: 4ff0 c33c 28a0 8b3c de56 be3d d927 35bd
00000240: e0f6 a8bd 8d2a 613d fd94 78bd 3e58 2ebd
00000250: 0825 76bc a6eb 84bc ef6d 0dbd bfd3 c13d
00000260: dfd9 8fbd ce25 c4bd ad8e d33b 3478 f2bd
00000270: a23a 30bb 4c46 803d e7ab ec3c c41b 513d
00000280: bcf8 c239 ca36 ed3c 9115 2c3c e829 2bbd
00000290: d946 a7bd ebe6 0c3d 50ba 88bd aa6f ef3c
000002a0: 1995 37bd c415 483c 4177 7b3b 99fa 2bb9
000002b0: 48cc e3bd b3a8 6ebd edb6 bd3c fe83 f43d
000002c0: adbf a8bc 7f25 3f3d f15e a03c 666d e23c
000002d0: 4f2e 21bd aeef 72bd b48a 25bd aac3 1a3c
000002e0: c69e cfbb 04cf 68bd 1c5d 43bd c2bd 0f3c
000002f0: b436 18bc 499e b03c 3708 1d3d c639 963c
00000300: e4d0 9f3c 9042 7a3d 9b38 023c dc00 a63d
00000310: 8a3d c8bc 63d8 d8bc 1870 dbbd 6d4b 94bd
0.017738203 -0.05644843 -0.08139273 0.010892504 0.002387998 -0.026527978 0.11607143 -0.081331834
0.037237316 -0.0793247 0.01876644 -0.08628443 0.064579405 0.060836673 -0.030145828 0.05310841
-0.06851308 -0.057682402 -0.018472133 0.028762182 -0.011120362 0.10089108 0.12113683 -0.12740639
0.050170712 0.0048562447 0.014387592 -0.06557532 -0.11794063 -0.0103906505 -0.083883636 0.02052332
-0.057770096 -0.1104721 0.06523326 -0.0012655514 -0.035439402 -0.052033816 0.00061923155 0.008629304
0.0641024 -0.007831545 0.0032227507 -0.114714555 -0.00027622585 0.04770132 -0.018454168 -0.03895995
0.0797342 -0.01305686 -0.045128655 -0.06565222 -0.12319188 -0.0017489714 -0.033079732 0.036212526
-0.06195802 -0.06346394 0.011501315 0.03568481 -0.0012512789 0.034248333 -0.030908033 0.027617114
-0.027307693 -0.020276437 -0.09702386 -0.051380172 -0.0947806 0.059732143 0.021715831 0.032508735
-0.021635152 0.07920001 -0.009487176 -0.038350068 -0.093014255 -0.00095420005 0.016608061 -0.0032878807
-0.021109642 -0.009686623 -0.05060605 0.077023424 0.055882994 0.026153408 -0.10290289 -0.09771982
0.018843774 -0.021652764 -0.04436097 0.078673124 0.05703826 0.0026101964 0.06168605 -0.023939885
0.0073153847 0.0072005936 0.085266426 0.04156128 0.05424444 -0.016731732 -0.06581164 -0.015412995
-0.030468903 -0.065348804 -0.02246718 0.051229153 -0.018931825 0.0052012983 0.0121197635 -0.09248218
0.085898235 0.0021593366 -0.05307751 -0.0449353 0.014449671 -0.005677879 0.035169516 0.0034488975
0.01069817 0.031260643 -0.06280378 -0.04704948 -0.07538354 0.012602511 0.0001443052 -0.024391083
-0.04693487 -0.012208005 0.0003626501 0.0039011156 -0.016284972 0.035735734 0.0015622629 0.07098261
-0.008908934 -0.020532649 0.019549916 0.07104239 0.023918299 0.017044142 0.09293912 -0.044227455
-0.08250213 0.05497222 -0.06068896 -0.042564623 -0.015023477 -0.016225647 -0.03452867 0.094642155
-0.070239775 -0.09577523 0.0064562173 -0.11839333 -0.0026890417 0.06263408 0.028890563 0.05105187
0.00037187885 0.02895679 0.010503189 -0.04178801 -0.0816781 0.034399908 -0.06676161 0.02922805
-0.044819925 0.012212221 0.0038370641 -0.00016401186 -0.11122948 -0.058266353 0.023158515 0.11939238
-0.02059921 0.04666662 0.019576522 0.027640056 -0.039350804 -0.059310608 -0.04041548 0.009446064
-0.006336066 -0.05683805 -0.047696218 0.008773269 -0.009290386 0.021559851 0.038337912 0.018338095
0.019508786 0.061098635 0.007948066 0.08105633 -0.024443407 -0.026470369 -0.107147396 -0.07240949
